

module attributes {tfl.description = "TOCO Converted.", tfl.schema_version = 3 : i32} {
  func @main(%arg0: tensor<1x257x257x3xf32>) -> tensor<1x257x257x21xf32> attributes {tf.entry_function = {inputs = "sub_7", outputs = "ResizeBilinear_3"}} {
    %0 = "quant.stats"(%arg0) {layerStats = dense<[-1.000000e+00, 0.9921875]> : tensor<2xf32>} : (tensor<1x257x257x3xf32>) -> tensor<1x257x257x3xf32>
    %1 = "tfl.pseudo_const"() {value = dense<"hex_value_removed_for_legibility_this_model_will_not_run_correctly_without_it"> : tensor<16x3x3x3xf32>} : () -> tensor<16x3x3x3xf32>
    %2 = "tfl.pseudo_const"() {value = dense<[… > : tensor<16xf32>} : () -> tensor<16xf32>
    %3 = "tfl.conv_2d"(%0, %1, %2) {dilation_h_factor = 1 : i32, dilation_w_factor = 1 : i32, fused_activation_function = "RELU6", padding = "SAME", stride_h = 2 : i32, stride_w = 2 : i32} : (tensor<1x257x257x3xf32>, tensor<16x3x3x3xf32>, tensor<16xf32>) -> tensor<1x129x129x16xf32>
    %4 = "tfl.pseudo_const"() {value = dense<"hex_value_removed_for_legibility_this_model_will_not_run_correctly_without_it"> : tensor<1x3x3x16xf32>} : () -> tensor<1x3x3x16xf32>
    %5 = "tfl.pseudo_const"() {value = dense<[… > : tensor<16xf32>} : () -> tensor<16xf32>
    %6 = "tfl.depthwise_conv_2d"(%3, %4, %5) {depth_multiplier = 1 : i32, dilation_h_factor = 1 : i32, dilation_w_factor = 1 : i32, fused_activation_function = "RELU6", padding = "SAME", stride_h = 1 : i32, stride_w = 1 : i32} : (tensor<1x129x129x16xf32>, tensor<1x3x3x16xf32>, tensor<16xf32>) -> tensor<1x129x129x16xf32>
    %7 = "tfl.pseudo_const"() {value = dense<"hex_value_removed_for_legibility_this_model_will_not_run_correctly_without_it"> : tensor<8x1x1x16xf32>} : () -> tensor<8x1x1x16xf32>
    %8 = "tfl.pseudo_const"() {value = dense<[30.4725666, -36.0785294, 5.99770927, 31.6352081, 21.6919041, 9.5014429, 17.6445656, 9.82004833]> : tensor<8xf32>} : () -> tensor<8xf32>
    %9 = "tfl.conv_2d"(%6, %7, %8) {dilation_h_factor = 1 : i32, dilation_w_factor = 1 : i32, fused_activation_function = "NONE", padding = "SAME", stride_h = 1 : i32, stride_w = 1 : i32} : (tensor<1x129x129x16xf32>, tensor<8x1x1x16xf32>, tensor<8xf32>) -> tensor<1x129x129x8xf32>
    %10 = "tfl.pseudo_const"() {value = dense<"hex_value_removed_for_legibility_this_model_will_not_run_correctly_without_it"> : tensor<48x1x1x8xf32>} : () -> tensor<48x1x1x8xf32>
    %11 = "tfl.pseudo_const"() {value = dense<[… > : tensor<48xf32>} : () -> tensor<48xf32>
    %12 = "tfl.conv_2d"(%9, %10, %11) {dilation_h_factor = 1 : i32, dilation_w_factor = 1 : i32, fused_activation_function = "RELU6", padding = "SAME", stride_h = 1 : i32, stride_w = 1 : i32} : (tensor<1x129x129x8xf32>, tensor<48x1x1x8xf32>, tensor<48xf32>) -> tensor<1x129x129x48xf32>
    %13 = "tfl.pseudo_const"() {value = dense<"hex_value_removed_for_legibility_this_model_will_not_run_correctly_without_it"> : tensor<1x3x3x48xf32>} : () -> tensor<1x3x3x48xf32>
    %14 = "tfl.pseudo_const"() {value = dense<[… > : tensor<48xf32>} : () -> tensor<48xf32>
    %15 = "tfl.depthwise_conv_2d"(%12, %13, %14) {depth_multiplier = 1 : i32, dilation_h_factor = 1 : i32, dilation_w_factor = 1 : i32, fused_activation_function = "RELU6", padding = "SAME", stride_h = 2 : i32, stride_w = 2 : i32} : (tensor<1x129x129x48xf32>, tensor<1x3x3x48xf32>, tensor<48xf32>) -> tensor<1x65x65x48xf32>
    %16 = "tfl.pseudo_const"() {value = dense<"hex_value_removed_for_legibility_this_model_will_not_run_correctly_without_it"> : tensor<12x1x1x48xf32>} : () -> tensor<12x1x1x48xf32>
    %17 = "tfl.pseudo_const"() {value = dense<[-2.85607576, 19.447628, 5.80914211, -10.4139071, 5.90575695, 10.2614412, 11.7909069, -0.139919698, 2.7025497, 16.0443783, 6.01600838, 8.31962204]> : tensor<12xf32>} : () -> tensor<12xf32>
    %18 = "tfl.conv_2d"(%15, %16, %17) {dilation_h_factor = 1 : i32, dilation_w_factor = 1 : i32, fused_activation_function = "NONE", padding = "SAME", stride_h = 1 : i32, stride_w = 1 : i32} : (tensor<1x65x65x48xf32>, tensor<12x1x1x48xf32>, tensor<12xf32>) -> tensor<1x65x65x12xf32>
    %19 = "tfl.pseudo_const"() {value = dense<"hex_value_removed_for_legibility_this_model_will_not_run_correctly_without_it"> : tensor<72x1x1x12xf32>} : () -> tensor<72x1x1x12xf32>
    %20 = "tfl.pseudo_const"() {value = dense<[… > : tensor<72xf32>} : () -> tensor<72xf32>
    %21 = "tfl.conv_2d"(%18, %19, %20) {dilation_h_factor = 1 : i32, dilation_w_factor = 1 : i32, fused_activation_function = "RELU6", padding = "SAME", stride_h = 1 : i32, stride_w = 1 : i32} : (tensor<1x65x65x12xf32>, tensor<72x1x1x12xf32>, tensor<72xf32>) -> tensor<1x65x65x72xf32>
    %22 = "tfl.pseudo_const"() {value = dense<"hex_value_removed_for_legibility_this_model_will_not_run_correctly_without_it"> : tensor<1x3x3x72xf32>} : () -> tensor<1x3x3x72xf32>
    %23 = "tfl.pseudo_const"() {value = dense<[… > : tensor<72xf32>} : () -> tensor<72xf32>
    %24 = "tfl.depthwise_conv_2d"(%21, %22, %23) {depth_multiplier = 1 : i32, dilation_h_factor = 1 : i32, dilation_w_factor = 1 : i32, fused_activation_function = "RELU6", padding = "SAME", stride_h = 1 : i32, stride_w = 1 : i32} : (tensor<1x65x65x72xf32>, tensor<1x3x3x72xf32>, tensor<72xf32>) -> tensor<1x65x65x72xf32>
    %25 = "tfl.pseudo_const"() {value = dense<"hex_value_removed_for_legibility_this_model_will_not_run_correctly_without_it"> : tensor<12x1x1x72xf32>} : () -> tensor<12x1x1x72xf32>
    %26 = "tfl.pseudo_const"() {value = dense<[-18.6141396, 0.476819575, -0.268483102, 11.0719566, -0.549890697, -15.5210056, 8.7329626, -3.50403643, 15.0875921, 18.7173939, 37.2204132, 3.45058823]> : tensor<12xf32>} : () -> tensor<12xf32>
    %27 = "tfl.conv_2d"(%24, %25, %26) {dilation_h_factor = 1 : i32, dilation_w_factor = 1 : i32, fused_activation_function = "NONE", padding = "SAME", stride_h = 1 : i32, stride_w = 1 : i32} : (tensor<1x65x65x72xf32>, tensor<12x1x1x72xf32>, tensor<12xf32>) -> tensor<1x65x65x12xf32>
    %28 = tfl.add %27, %18 {fused_activation_function = "NONE"} : tensor<1x65x65x12xf32>
    %29 = "tfl.pseudo_const"() {value = dense<"hex_value_removed_for_legibility_this_model_will_not_run_correctly_without_it"> : tensor<72x1x1x12xf32>} : () -> tensor<72x1x1x12xf32>
    %30 = "tfl.pseudo_const"() {value = dense<[… > : tensor<72xf32>} : () -> tensor<72xf32>
    %31 = "tfl.conv_2d"(%28, %29, %30) {dilation_h_factor = 1 : i32, dilation_w_factor = 1 : i32, fused_activation_function = "RELU6", padding = "SAME", stride_h = 1 : i32, stride_w = 1 : i32} : (tensor<1x65x65x12xf32>, tensor<72x1x1x12xf32>, tensor<72xf32>) -> tensor<1x65x65x72xf32>
    %32 = "tfl.pseudo_const"() {value = dense<"hex_value_removed_for_legibility_this_model_will_not_run_correctly_without_it"> : tensor<1x3x3x72xf32>} : () -> tensor<1x3x3x72xf32>
    %33 = "tfl.pseudo_const"() {value = dense<[… > : tensor<72xf32>} : () -> tensor<72xf32>
    %34 = "tfl.depthwise_conv_2d"(%31, %32, %33) {depth_multiplier = 1 : i32, dilation_h_factor = 1 : i32, dilation_w_factor = 1 : i32, fused_activation_function = "RELU6", padding = "SAME", stride_h = 2 : i32, stride_w = 2 : i32} : (tensor<1x65x65x72xf32>, tensor<1x3x3x72xf32>, tensor<72xf32>) -> tensor<1x33x33x72xf32>
    %35 = "tfl.pseudo_const"() {value = dense<"hex_value_removed_for_legibility_this_model_will_not_run_correctly_without_it"> : tensor<16x1x1x72xf32>} : () -> tensor<16x1x1x72xf32>
    %36 = "tfl.pseudo_const"() {value = dense<[… > : tensor<16xf32>} : () -> tensor<16xf32>
    %37 = "tfl.conv_2d"(%34, %35, %36) {dilation_h_factor = 1 : i32, dilation_w_factor = 1 : i32, fused_activation_function = "NONE", padding = "SAME", stride_h = 1 : i32, stride_w = 1 : i32} : (tensor<1x33x33x72xf32>, tensor<16x1x1x72xf32>, tensor<16xf32>) -> tensor<1x33x33x16xf32>
    %38 = "tfl.pseudo_const"() {value = dense<"hex_value_removed_for_legibility_this_model_will_not_run_correctly_without_it"> : tensor<96x1x1x16xf32>} : () -> tensor<96x1x1x16xf32>
    %39 = "tfl.pseudo_const"() {value = dense<[… > : tensor<96xf32>} : () -> tensor<96xf32>
    %40 = "tfl.conv_2d"(%37, %38, %39) {dilation_h_factor = 1 : i32, dilation_w_factor = 1 : i32, fused_activation_function = "RELU6", padding = "SAME", stride_h = 1 : i32, stride_w = 1 : i32} : (tensor<1x33x33x16xf32>, tensor<96x1x1x16xf32>, tensor<96xf32>) -> tensor<1x33x33x96xf32>
    %41 = "tfl.pseudo_const"() {value = dense<"hex_value_removed_for_legibility_this_model_will_not_run_correctly_without_it"> : tensor<1x3x3x96xf32>} : () -> tensor<1x3x3x96xf32>
    %42 = "tfl.pseudo_const"() {value = dense<[… > : tensor<96xf32>} : () -> tensor<96xf32>
    %43 = "tfl.depthwise_conv_2d"(%40, %41, %42) {depth_multiplier = 1 : i32, dilation_h_factor = 1 : i32, dilation_w_factor = 1 : i32, fused_activation_function = "RELU6", padding = "SAME", stride_h = 1 : i32, stride_w = 1 : i32} : (tensor<1x33x33x96xf32>, tensor<1x3x3x96xf32>, tensor<96xf32>) -> tensor<1x33x33x96xf32>
    %44 = "tfl.pseudo_const"() {value = dense<"hex_value_removed_for_legibility_this_model_will_not_run_correctly_without_it"> : tensor<16x1x1x96xf32>} : () -> tensor<16x1x1x96xf32>
    %45 = "tfl.pseudo_const"() {value = dense<[… > : tensor<16xf32>} : () -> tensor<16xf32>
    %46 = "tfl.conv_2d"(%43, %44, %45) {dilation_h_factor = 1 : i32, dilation_w_factor = 1 : i32, fused_activation_function = "NONE", padding = "SAME", stride_h = 1 : i32, stride_w = 1 : i32} : (tensor<1x33x33x96xf32>, tensor<16x1x1x96xf32>, tensor<16xf32>) -> tensor<1x33x33x16xf32>
    %47 = tfl.add %46, %37 {fused_activation_function = "NONE"} : tensor<1x33x33x16xf32>
    %48 = "tfl.pseudo_const"() {value = dense<"hex_value_removed_for_legibility_this_model_will_not_run_correctly_without_it"> : tensor<96x1x1x16xf32>} : () -> tensor<96x1x1x16xf32>
    %49 = "tfl.pseudo_const"() {value = dense<[… > : tensor<96xf32>} : () -> tensor<96xf32>
    %50 = "tfl.conv_2d"(%47, %48, %49) {dilation_h_factor = 1 : i32, dilation_w_factor = 1 : i32, fused_activation_function = "RELU6", padding = "SAME", stride_h = 1 : i32, stride_w = 1 : i32} : (tensor<1x33x33x16xf32>, tensor<96x1x1x16xf32>, tensor<96xf32>) -> tensor<1x33x33x96xf32>
    %51 = "tfl.pseudo_const"() {value = dense<"hex_value_removed_for_legibility_this_model_will_not_run_correctly_without_it"> : tensor<1x3x3x96xf32>} : () -> tensor<1x3x3x96xf32>
    %52 = "tfl.pseudo_const"() {value = dense<[… > : tensor<96xf32>} : () -> tensor<96xf32>
    %53 = "tfl.depthwise_conv_2d"(%50, %51, %52) {depth_multiplier = 1 : i32, dilation_h_factor = 1 : i32, dilation_w_factor = 1 : i32, fused_activation_function = "RELU6", padding = "SAME", stride_h = 1 : i32, stride_w = 1 : i32} : (tensor<1x33x33x96xf32>, tensor<1x3x3x96xf32>, tensor<96xf32>) -> tensor<1x33x33x96xf32>
    %54 = "tfl.pseudo_const"() {value = dense<"hex_value_removed_for_legibility_this_model_will_not_run_correctly_without_it"> : tensor<16x1x1x96xf32>} : () -> tensor<16x1x1x96xf32>
    %55 = "tfl.pseudo_const"() {value = dense<[… > : tensor<16xf32>} : () -> tensor<16xf32>
    %56 = "tfl.conv_2d"(%53, %54, %55) {dilation_h_factor = 1 : i32, dilation_w_factor = 1 : i32, fused_activation_function = "NONE", padding = "SAME", stride_h = 1 : i32, stride_w = 1 : i32} : (tensor<1x33x33x96xf32>, tensor<16x1x1x96xf32>, tensor<16xf32>) -> tensor<1x33x33x16xf32>
    %57 = tfl.add %56, %47 {fused_activation_function = "NONE"} : tensor<1x33x33x16xf32>
    %58 = "tfl.pseudo_const"() {value = dense<"hex_value_removed_for_legibility_this_model_will_not_run_correctly_without_it"> : tensor<96x1x1x16xf32>} : () -> tensor<96x1x1x16xf32>
    %59 = "tfl.pseudo_const"() {value = dense<[… > : tensor<96xf32>} : () -> tensor<96xf32>
    %60 = "tfl.conv_2d"(%57, %58, %59) {dilation_h_factor = 1 : i32, dilation_w_factor = 1 : i32, fused_activation_function = "RELU6", padding = "SAME", stride_h = 1 : i32, stride_w = 1 : i32} : (tensor<1x33x33x16xf32>, tensor<96x1x1x16xf32>, tensor<96xf32>) -> tensor<1x33x33x96xf32>
    %61 = "tfl.pseudo_const"() {value = dense<"hex_value_removed_for_legibility_this_model_will_not_run_correctly_without_it"> : tensor<1x3x3x96xf32>} : () -> tensor<1x3x3x96xf32>
    %62 = "tfl.pseudo_const"() {value = dense<[… > : tensor<96xf32>} : () -> tensor<96xf32>
    %63 = "tfl.depthwise_conv_2d"(%60, %61, %62) {depth_multiplier = 1 : i32, dilation_h_factor = 1 : i32, dilation_w_factor = 1 : i32, fused_activation_function = "RELU6", padding = "SAME", stride_h = 1 : i32, stride_w = 1 : i32} : (tensor<1x33x33x96xf32>, tensor<1x3x3x96xf32>, tensor<96xf32>) -> tensor<1x33x33x96xf32>
    %64 = "tfl.pseudo_const"() {value = dense<"hex_value_removed_for_legibility_this_model_will_not_run_correctly_without_it"> : tensor<32x1x1x96xf32>} : () -> tensor<32x1x1x96xf32>
    %65 = "tfl.pseudo_const"() {value = dense<[… > : tensor<32xf32>} : () -> tensor<32xf32>
    %66 = "tfl.conv_2d"(%63, %64, %65) {dilation_h_factor = 1 : i32, dilation_w_factor = 1 : i32, fused_activation_function = "NONE", padding = "SAME", stride_h = 1 : i32, stride_w = 1 : i32} : (tensor<1x33x33x96xf32>, tensor<32x1x1x96xf32>, tensor<32xf32>) -> tensor<1x33x33x32xf32>
    %67 = "tfl.pseudo_const"() {value = dense<"hex_value_removed_for_legibility_this_model_will_not_run_correctly_without_it"> : tensor<192x1x1x32xf32>} : () -> tensor<192x1x1x32xf32>
    %68 = "tfl.pseudo_const"() {value = dense<"hex_value_removed_for_legibility_this_model_will_not_run_correctly_without_it"> : tensor<192xf32>} : () -> tensor<192xf32>
    %69 = "tfl.conv_2d"(%66, %67, %68) {dilation_h_factor = 1 : i32, dilation_w_factor = 1 : i32, fused_activation_function = "RELU6", padding = "SAME", stride_h = 1 : i32, stride_w = 1 : i32} : (tensor<1x33x33x32xf32>, tensor<192x1x1x32xf32>, tensor<192xf32>) -> tensor<1x33x33x192xf32>
    %70 = "tfl.pseudo_const"() {value = dense<"hex_value_removed_for_legibility_this_model_will_not_run_correctly_without_it"> : tensor<1x3x3x192xf32>} : () -> tensor<1x3x3x192xf32>
    %71 = "tfl.pseudo_const"() {value = dense<"hex_value_removed_for_legibility_this_model_will_not_run_correctly_without_it"> : tensor<192xf32>} : () -> tensor<192xf32>
    %72 = "tfl.depthwise_conv_2d"(%69, %70, %71) {depth_multiplier = 1 : i32, dilation_h_factor = 2 : i32, dilation_w_factor = 2 : i32, fused_activation_function = "RELU6", padding = "SAME", stride_h = 1 : i32, stride_w = 1 : i32} : (tensor<1x33x33x192xf32>, tensor<1x3x3x192xf32>, tensor<192xf32>) -> tensor<1x33x33x192xf32>
    %73 = "tfl.pseudo_const"() {value = dense<"hex_value_removed_for_legibility_this_model_will_not_run_correctly_without_it"> : tensor<32x1x1x192xf32>} : () -> tensor<32x1x1x192xf32>
    %74 = "tfl.pseudo_const"() {value = dense<[… > : tensor<32xf32>} : () -> tensor<32xf32>
    %75 = "tfl.conv_2d"(%72, %73, %74) {dilation_h_factor = 1 : i32, dilation_w_factor = 1 : i32, fused_activation_function = "NONE", padding = "SAME", stride_h = 1 : i32, stride_w = 1 : i32} : (tensor<1x33x33x192xf32>, tensor<32x1x1x192xf32>, tensor<32xf32>) -> tensor<1x33x33x32xf32>
    %76 = tfl.add %75, %66 {fused_activation_function = "NONE"} : tensor<1x33x33x32xf32>
    %77 = "tfl.pseudo_const"() {value = dense<"hex_value_removed_for_legibility_this_model_will_not_run_correctly_without_it"> : tensor<192x1x1x32xf32>} : () -> tensor<192x1x1x32xf32>
    %78 = "tfl.pseudo_const"() {value = dense<"hex_value_removed_for_legibility_this_model_will_not_run_correctly_without_it"> : tensor<192xf32>} : () -> tensor<192xf32>
    %79 = "tfl.conv_2d"(%76, %77, %78) {dilation_h_factor = 1 : i32, dilation_w_factor = 1 : i32, fused_activation_function = "RELU6", padding = "SAME", stride_h = 1 : i32, stride_w = 1 : i32} : (tensor<1x33x33x32xf32>, tensor<192x1x1x32xf32>, tensor<192xf32>) -> tensor<1x33x33x192xf32>
    %80 = "tfl.pseudo_const"() {value = dense<"hex_value_removed_for_legibility_this_model_will_not_run_correctly_without_it"> : tensor<1x3x3x192xf32>} : () -> tensor<1x3x3x192xf32>
    %81 = "tfl.pseudo_const"() {value = dense<"hex_value_removed_for_legibility_this_model_will_not_run_correctly_without_it"> : tensor<192xf32>} : () -> tensor<192xf32>
    %82 = "tfl.depthwise_conv_2d"(%79, %80, %81) {depth_multiplier = 1 : i32, dilation_h_factor = 2 : i32, dilation_w_factor = 2 : i32, fused_activation_function = "RELU6", padding = "SAME", stride_h = 1 : i32, stride_w = 1 : i32} : (tensor<1x33x33x192xf32>, tensor<1x3x3x192xf32>, tensor<192xf32>) -> tensor<1x33x33x192xf32>
    %83 = "tfl.pseudo_const"() {value = dense<"hex_value_removed_for_legibility_this_model_will_not_run_correctly_without_it"> : tensor<32x1x1x192xf32>} : () -> tensor<32x1x1x192xf32>
    %84 = "tfl.pseudo_const"() {value = dense<[… > : tensor<32xf32>} : () -> tensor<32xf32>
    %85 = "tfl.conv_2d"(%82, %83, %84) {dilation_h_factor = 1 : i32, dilation_w_factor = 1 : i32, fused_activation_function = "NONE", padding = "SAME", stride_h = 1 : i32, stride_w = 1 : i32} : (tensor<1x33x33x192xf32>, tensor<32x1x1x192xf32>, tensor<32xf32>) -> tensor<1x33x33x32xf32>
    %86 = tfl.add %85, %76 {fused_activation_function = "NONE"} : tensor<1x33x33x32xf32>
    %87 = "tfl.pseudo_const"() {value = dense<"hex_value_removed_for_legibility_this_model_will_not_run_correctly_without_it"> : tensor<192x1x1x32xf32>} : () -> tensor<192x1x1x32xf32>
    %88 = "tfl.pseudo_const"() {value = dense<"hex_value_removed_for_legibility_this_model_will_not_run_correctly_without_it"> : tensor<192xf32>} : () -> tensor<192xf32>
    %89 = "tfl.conv_2d"(%86, %87, %88) {dilation_h_factor = 1 : i32, dilation_w_factor = 1 : i32, fused_activation_function = "RELU6", padding = "SAME", stride_h = 1 : i32, stride_w = 1 : i32} : (tensor<1x33x33x32xf32>, tensor<192x1x1x32xf32>, tensor<192xf32>) -> tensor<1x33x33x192xf32>
    %90 = "tfl.pseudo_const"() {value = dense<"hex_value_removed_for_legibility_this_model_will_not_run_correctly_without_it"> : tensor<1x3x3x192xf32>} : () -> tensor<1x3x3x192xf32>
    %91 = "tfl.pseudo_const"() {value = dense<"hex_value_removed_for_legibility_this_model_will_not_run_correctly_without_it"> : tensor<192xf32>} : () -> tensor<192xf32>
    %92 = "tfl.depthwise_conv_2d"(%89, %90, %91) {depth_multiplier = 1 : i32, dilation_h_factor = 2 : i32, dilation_w_factor = 2 : i32, fused_activation_function = "RELU6", padding = "SAME", stride_h = 1 : i32, stride_w = 1 : i32} : (tensor<1x33x33x192xf32>, tensor<1x3x3x192xf32>, tensor<192xf32>) -> tensor<1x33x33x192xf32>
    %93 = "tfl.pseudo_const"() {value = dense<"hex_value_removed_for_legibility_this_model_will_not_run_correctly_without_it"> : tensor<32x1x1x192xf32>} : () -> tensor<32x1x1x192xf32>
    %94 = "tfl.pseudo_const"() {value = dense<[… > : tensor<32xf32>} : () -> tensor<32xf32>
    %95 = "tfl.conv_2d"(%92, %93, %94) {dilation_h_factor = 1 : i32, dilation_w_factor = 1 : i32, fused_activation_function = "NONE", padding = "SAME", stride_h = 1 : i32, stride_w = 1 : i32} : (tensor<1x33x33x192xf32>, tensor<32x1x1x192xf32>, tensor<32xf32>) -> tensor<1x33x33x32xf32>
    %96 = tfl.add %95, %86 {fused_activation_function = "NONE"} : tensor<1x33x33x32xf32>
    %97 = "tfl.pseudo_const"() {value = dense<"hex_value_removed_for_legibility_this_model_will_not_run_correctly_without_it"> : tensor<192x1x1x32xf32>} : () -> tensor<192x1x1x32xf32>
    %98 = "tfl.pseudo_const"() {value = dense<"hex_value_removed_for_legibility_this_model_will_not_run_correctly_without_it"> : tensor<192xf32>} : () -> tensor<192xf32>
    %99 = "tfl.conv_2d"(%96, %97, %98) {dilation_h_factor = 1 : i32, dilation_w_factor = 1 : i32, fused_activation_function = "RELU6", padding = "SAME", stride_h = 1 : i32, stride_w = 1 : i32} : (tensor<1x33x33x32xf32>, tensor<192x1x1x32xf32>, tensor<192xf32>) -> tensor<1x33x33x192xf32>
    %100 = "tfl.pseudo_const"() {value = dense<"hex_value_removed_for_legibility_this_model_will_not_run_correctly_without_it"> : tensor<1x3x3x192xf32>} : () -> tensor<1x3x3x192xf32>
    %101 = "tfl.pseudo_const"() {value = dense<"hex_value_removed_for_legibility_this_model_will_not_run_correctly_without_it"> : tensor<192xf32>} : () -> tensor<192xf32>
    %102 = "tfl.depthwise_conv_2d"(%99, %100, %101) {depth_multiplier = 1 : i32, dilation_h_factor = 2 : i32, dilation_w_factor = 2 : i32, fused_activation_function = "RELU6", padding = "SAME", stride_h = 1 : i32, stride_w = 1 : i32} : (tensor<1x33x33x192xf32>, tensor<1x3x3x192xf32>, tensor<192xf32>) -> tensor<1x33x33x192xf32>
    %103 = "tfl.pseudo_const"() {value = dense<"hex_value_removed_for_legibility_this_model_will_not_run_correctly_without_it"> : tensor<48x1x1x192xf32>} : () -> tensor<48x1x1x192xf32>
    %104 = "tfl.pseudo_const"() {value = dense<[… > : tensor<48xf32>} : () -> tensor<48xf32>
    %105 = "tfl.conv_2d"(%102, %103, %104) {dilation_h_factor = 1 : i32, dilation_w_factor = 1 : i32, fused_activation_function = "NONE", padding = "SAME", stride_h = 1 : i32, stride_w = 1 : i32} : (tensor<1x33x33x192xf32>, tensor<48x1x1x192xf32>, tensor<48xf32>) -> tensor<1x33x33x48xf32>
    %106 = "tfl.pseudo_const"() {value = dense<"hex_value_removed_for_legibility_this_model_will_not_run_correctly_without_it"> : tensor<288x1x1x48xf32>} : () -> tensor<288x1x1x48xf32>
    %107 = "tfl.pseudo_const"() {value = dense<"hex_value_removed_for_legibility_this_model_will_not_run_correctly_without_it"> : tensor<288xf32>} : () -> tensor<288xf32>
    %108 = "tfl.conv_2d"(%105, %106, %107) {dilation_h_factor = 1 : i32, dilation_w_factor = 1 : i32, fused_activation_function = "RELU6", padding = "SAME", stride_h = 1 : i32, stride_w = 1 : i32} : (tensor<1x33x33x48xf32>, tensor<288x1x1x48xf32>, tensor<288xf32>) -> tensor<1x33x33x288xf32>
    %109 = "tfl.pseudo_const"() {value = dense<"hex_value_removed_for_legibility_this_model_will_not_run_correctly_without_it"> : tensor<1x3x3x288xf32>} : () -> tensor<1x3x3x288xf32>
    %110 = "tfl.pseudo_const"() {value = dense<"hex_value_removed_for_legibility_this_model_will_not_run_correctly_without_it"> : tensor<288xf32>} : () -> tensor<288xf32>
    %111 = "tfl.depthwise_conv_2d"(%108, %109, %110) {depth_multiplier = 1 : i32, dilation_h_factor = 2 : i32, dilation_w_factor = 2 : i32, fused_activation_function = "RELU6", padding = "SAME", stride_h = 1 : i32, stride_w = 1 : i32} : (tensor<1x33x33x288xf32>, tensor<1x3x3x288xf32>, tensor<288xf32>) -> tensor<1x33x33x288xf32>
    %112 = "tfl.pseudo_const"() {value = dense<"hex_value_removed_for_legibility_this_model_will_not_run_correctly_without_it"> : tensor<48x1x1x288xf32>} : () -> tensor<48x1x1x288xf32>
    %113 = "tfl.pseudo_const"() {value = dense<[… > : tensor<48xf32>} : () -> tensor<48xf32>
    %114 = "tfl.conv_2d"(%111, %112, %113) {dilation_h_factor = 1 : i32, dilation_w_factor = 1 : i32, fused_activation_function = "NONE", padding = "SAME", stride_h = 1 : i32, stride_w = 1 : i32} : (tensor<1x33x33x288xf32>, tensor<48x1x1x288xf32>, tensor<48xf32>) -> tensor<1x33x33x48xf32>
    %115 = tfl.add %114, %105 {fused_activation_function = "NONE"} : tensor<1x33x33x48xf32>
    %116 = "tfl.pseudo_const"() {value = dense<"hex_value_removed_for_legibility_this_model_will_not_run_correctly_without_it"> : tensor<288x1x1x48xf32>} : () -> tensor<288x1x1x48xf32>
    %117 = "tfl.pseudo_const"() {value = dense<"hex_value_removed_for_legibility_this_model_will_not_run_correctly_without_it"> : tensor<288xf32>} : () -> tensor<288xf32>
    %118 = "tfl.conv_2d"(%115, %116, %117) {dilation_h_factor = 1 : i32, dilation_w_factor = 1 : i32, fused_activation_function = "RELU6", padding = "SAME", stride_h = 1 : i32, stride_w = 1 : i32} : (tensor<1x33x33x48xf32>, tensor<288x1x1x48xf32>, tensor<288xf32>) -> tensor<1x33x33x288xf32>
    %119 = "tfl.pseudo_const"() {value = dense<"hex_value_removed_for_legibility_this_model_will_not_run_correctly_without_it"> : tensor<1x3x3x288xf32>} : () -> tensor<1x3x3x288xf32>
    %120 = "tfl.pseudo_const"() {value = dense<"hex_value_removed_for_legibility_this_model_will_not_run_correctly_without_it"> : tensor<288xf32>} : () -> tensor<288xf32>
    %121 = "tfl.depthwise_conv_2d"(%118, %119, %120) {depth_multiplier = 1 : i32, dilation_h_factor = 2 : i32, dilation_w_factor = 2 : i32, fused_activation_function = "RELU6", padding = "SAME", stride_h = 1 : i32, stride_w = 1 : i32} : (tensor<1x33x33x288xf32>, tensor<1x3x3x288xf32>, tensor<288xf32>) -> tensor<1x33x33x288xf32>
    %122 = "tfl.pseudo_const"() {value = dense<"hex_value_removed_for_legibility_this_model_will_not_run_correctly_without_it"> : tensor<48x1x1x288xf32>} : () -> tensor<48x1x1x288xf32>
    %123 = "tfl.pseudo_const"() {value = dense<[… > : tensor<48xf32>} : () -> tensor<48xf32>
    %124 = "tfl.conv_2d"(%121, %122, %123) {dilation_h_factor = 1 : i32, dilation_w_factor = 1 : i32, fused_activation_function = "NONE", padding = "SAME", stride_h = 1 : i32, stride_w = 1 : i32} : (tensor<1x33x33x288xf32>, tensor<48x1x1x288xf32>, tensor<48xf32>) -> tensor<1x33x33x48xf32>
    %125 = tfl.add %124, %115 {fused_activation_function = "NONE"} : tensor<1x33x33x48xf32>
    %126 = "tfl.pseudo_const"() {value = dense<"hex_value_removed_for_legibility_this_model_will_not_run_correctly_without_it"> : tensor<288x1x1x48xf32>} : () -> tensor<288x1x1x48xf32>
    %127 = "tfl.pseudo_const"() {value = dense<"hex_value_removed_for_legibility_this_model_will_not_run_correctly_without_it"> : tensor<288xf32>} : () -> tensor<288xf32>
    %128 = "tfl.conv_2d"(%125, %126, %127) {dilation_h_factor = 1 : i32, dilation_w_factor = 1 : i32, fused_activation_function = "RELU6", padding = "SAME", stride_h = 1 : i32, stride_w = 1 : i32} : (tensor<1x33x33x48xf32>, tensor<288x1x1x48xf32>, tensor<288xf32>) -> tensor<1x33x33x288xf32>
    %129 = "tfl.pseudo_const"() {value = dense<"hex_value_removed_for_legibility_this_model_will_not_run_correctly_without_it"> : tensor<1x3x3x288xf32>} : () -> tensor<1x3x3x288xf32>
    %130 = "tfl.pseudo_const"() {value = dense<"hex_value_removed_for_legibility_this_model_will_not_run_correctly_without_it"> : tensor<288xf32>} : () -> tensor<288xf32>
    %131 = "tfl.depthwise_conv_2d"(%128, %129, %130) {depth_multiplier = 1 : i32, dilation_h_factor = 2 : i32, dilation_w_factor = 2 : i32, fused_activation_function = "RELU6", padding = "SAME", stride_h = 1 : i32, stride_w = 1 : i32} : (tensor<1x33x33x288xf32>, tensor<1x3x3x288xf32>, tensor<288xf32>) -> tensor<1x33x33x288xf32>
    %132 = "tfl.pseudo_const"() {value = dense<"hex_value_removed_for_legibility_this_model_will_not_run_correctly_without_it"> : tensor<80x1x1x288xf32>} : () -> tensor<80x1x1x288xf32>
    %133 = "tfl.pseudo_const"() {value = dense<[… > : tensor<80xf32>} : () -> tensor<80xf32>
    %134 = "tfl.conv_2d"(%131, %132, %133) {dilation_h_factor = 1 : i32, dilation_w_factor = 1 : i32, fused_activation_function = "NONE", padding = "SAME", stride_h = 1 : i32, stride_w = 1 : i32} : (tensor<1x33x33x288xf32>, tensor<80x1x1x288xf32>, tensor<80xf32>) -> tensor<1x33x33x80xf32>
    %135 = "tfl.pseudo_const"() {value = dense<"hex_value_removed_for_legibility_this_model_will_not_run_correctly_without_it"> : tensor<480x1x1x80xf32>} : () -> tensor<480x1x1x80xf32>
    %136 = "tfl.pseudo_const"() {value = dense<"hex_value_removed_for_legibility_this_model_will_not_run_correctly_without_it"> : tensor<480xf32>} : () -> tensor<480xf32>
    %137 = "tfl.conv_2d"(%134, %135, %136) {dilation_h_factor = 1 : i32, dilation_w_factor = 1 : i32, fused_activation_function = "RELU6", padding = "SAME", stride_h = 1 : i32, stride_w = 1 : i32} : (tensor<1x33x33x80xf32>, tensor<480x1x1x80xf32>, tensor<480xf32>) -> tensor<1x33x33x480xf32>
    %138 = "tfl.pseudo_const"() {value = dense<"hex_value_removed_for_legibility_this_model_will_not_run_correctly_without_it"> : tensor<1x3x3x480xf32>} : () -> tensor<1x3x3x480xf32>
    %139 = "tfl.pseudo_const"() {value = dense<"hex_value_removed_for_legibility_this_model_will_not_run_correctly_without_it"> : tensor<480xf32>} : () -> tensor<480xf32>
    %140 = "tfl.depthwise_conv_2d"(%137, %138, %139) {depth_multiplier = 1 : i32, dilation_h_factor = 4 : i32, dilation_w_factor = 4 : i32, fused_activation_function = "RELU6", padding = "SAME", stride_h = 1 : i32, stride_w = 1 : i32} : (tensor<1x33x33x480xf32>, tensor<1x3x3x480xf32>, tensor<480xf32>) -> tensor<1x33x33x480xf32>
    %141 = "tfl.pseudo_const"() {value = dense<"hex_value_removed_for_legibility_this_model_will_not_run_correctly_without_it"> : tensor<80x1x1x480xf32>} : () -> tensor<80x1x1x480xf32>
    %142 = "tfl.pseudo_const"() {value = dense<[… > : tensor<80xf32>} : () -> tensor<80xf32>
    %143 = "tfl.conv_2d"(%140, %141, %142) {dilation_h_factor = 1 : i32, dilation_w_factor = 1 : i32, fused_activation_function = "NONE", padding = "SAME", stride_h = 1 : i32, stride_w = 1 : i32} : (tensor<1x33x33x480xf32>, tensor<80x1x1x480xf32>, tensor<80xf32>) -> tensor<1x33x33x80xf32>
    %144 = tfl.add %143, %134 {fused_activation_function = "NONE"} : tensor<1x33x33x80xf32>
    %145 = "tfl.pseudo_const"() {value = dense<"hex_value_removed_for_legibility_this_model_will_not_run_correctly_without_it"> : tensor<480x1x1x80xf32>} : () -> tensor<480x1x1x80xf32>
    %146 = "tfl.pseudo_const"() {value = dense<"hex_value_removed_for_legibility_this_model_will_not_run_correctly_without_it"> : tensor<480xf32>} : () -> tensor<480xf32>
    %147 = "tfl.conv_2d"(%144, %145, %146) {dilation_h_factor = 1 : i32, dilation_w_factor = 1 : i32, fused_activation_function = "RELU6", padding = "SAME", stride_h = 1 : i32, stride_w = 1 : i32} : (tensor<1x33x33x80xf32>, tensor<480x1x1x80xf32>, tensor<480xf32>) -> tensor<1x33x33x480xf32>
    %148 = "tfl.pseudo_const"() {value = dense<"hex_value_removed_for_legibility_this_model_will_not_run_correctly_without_it"> : tensor<1x3x3x480xf32>} : () -> tensor<1x3x3x480xf32>
    %149 = "tfl.pseudo_const"() {value = dense<"hex_value_removed_for_legibility_this_model_will_not_run_correctly_without_it"> : tensor<480xf32>} : () -> tensor<480xf32>
    %150 = "tfl.depthwise_conv_2d"(%147, %148, %149) {depth_multiplier = 1 : i32, dilation_h_factor = 4 : i32, dilation_w_factor = 4 : i32, fused_activation_function = "RELU6", padding = "SAME", stride_h = 1 : i32, stride_w = 1 : i32} : (tensor<1x33x33x480xf32>, tensor<1x3x3x480xf32>, tensor<480xf32>) -> tensor<1x33x33x480xf32>
    %151 = "tfl.pseudo_const"() {value = dense<"hex_value_removed_for_legibility_this_model_will_not_run_correctly_without_it"> : tensor<80x1x1x480xf32>} : () -> tensor<80x1x1x480xf32>
    %152 = "tfl.pseudo_const"() {value = dense<[… > : tensor<80xf32>} : () -> tensor<80xf32>
    %153 = "tfl.conv_2d"(%150, %151, %152) {dilation_h_factor = 1 : i32, dilation_w_factor = 1 : i32, fused_activation_function = "NONE", padding = "SAME", stride_h = 1 : i32, stride_w = 1 : i32} : (tensor<1x33x33x480xf32>, tensor<80x1x1x480xf32>, tensor<80xf32>) -> tensor<1x33x33x80xf32>
    %154 = tfl.add %153, %144 {fused_activation_function = "NONE"} : tensor<1x33x33x80xf32>
    %155 = "tfl.pseudo_const"() {value = dense<"hex_value_removed_for_legibility_this_model_will_not_run_correctly_without_it"> : tensor<480x1x1x80xf32>} : () -> tensor<480x1x1x80xf32>
    %156 = "tfl.pseudo_const"() {value = dense<"hex_value_removed_for_legibility_this_model_will_not_run_correctly_without_it"> : tensor<480xf32>} : () -> tensor<480xf32>
    %157 = "tfl.conv_2d"(%154, %155, %156) {dilation_h_factor = 1 : i32, dilation_w_factor = 1 : i32, fused_activation_function = "RELU6", padding = "SAME", stride_h = 1 : i32, stride_w = 1 : i32} : (tensor<1x33x33x80xf32>, tensor<480x1x1x80xf32>, tensor<480xf32>) -> tensor<1x33x33x480xf32>
    %158 = "tfl.pseudo_const"() {value = dense<"hex_value_removed_for_legibility_this_model_will_not_run_correctly_without_it"> : tensor<1x3x3x480xf32>} : () -> tensor<1x3x3x480xf32>
    %159 = "tfl.pseudo_const"() {value = dense<"hex_value_removed_for_legibility_this_model_will_not_run_correctly_without_it"> : tensor<480xf32>} : () -> tensor<480xf32>
    %160 = "tfl.depthwise_conv_2d"(%157, %158, %159) {depth_multiplier = 1 : i32, dilation_h_factor = 4 : i32, dilation_w_factor = 4 : i32, fused_activation_function = "RELU6", padding = "SAME", stride_h = 1 : i32, stride_w = 1 : i32} : (tensor<1x33x33x480xf32>, tensor<1x3x3x480xf32>, tensor<480xf32>) -> tensor<1x33x33x480xf32>
    %161 = "tfl.pseudo_const"() {value = dense<"hex_value_removed_for_legibility_this_model_will_not_run_correctly_without_it"> : tensor<160x1x1x480xf32>} : () -> tensor<160x1x1x480xf32>
    %162 = "tfl.pseudo_const"() {value = dense<"hex_value_removed_for_legibility_this_model_will_not_run_correctly_without_it"> : tensor<160xf32>} : () -> tensor<160xf32>
    %163 = "tfl.conv_2d"(%160, %161, %162) {dilation_h_factor = 1 : i32, dilation_w_factor = 1 : i32, fused_activation_function = "NONE", padding = "SAME", stride_h = 1 : i32, stride_w = 1 : i32} : (tensor<1x33x33x480xf32>, tensor<160x1x1x480xf32>, tensor<160xf32>) -> tensor<1x33x33x160xf32>
    %164 = "tfl.average_pool_2d"(%163) {filter_height = 33 : i32, filter_width = 33 : i32, fused_activation_function = "NONE", padding = "VALID", stride_h = 33 : i32, stride_w = 33 : i32} : (tensor<1x33x33x160xf32>) -> tensor<1x1x1x160xf32>
    %165 = "tfl.pseudo_const"() {value = dense<"hex_value_removed_for_legibility_this_model_will_not_run_correctly_without_it"> : tensor<256x1x1x160xf32>} : () -> tensor<256x1x1x160xf32>
    %166 = "tfl.pseudo_const"() {value = dense<"hex_value_removed_for_legibility_this_model_will_not_run_correctly_without_it"> : tensor<256xf32>} : () -> tensor<256xf32>
    %167 = "tfl.conv_2d"(%164, %165, %166) {dilation_h_factor = 1 : i32, dilation_w_factor = 1 : i32, fused_activation_function = "RELU", padding = "SAME", stride_h = 1 : i32, stride_w = 1 : i32} : (tensor<1x1x1x160xf32>, tensor<256x1x1x160xf32>, tensor<256xf32>) -> tensor<1x1x1x256xf32>
    %168 = "tfl.pseudo_const"() {value = dense<33> : tensor<2xi32>} : () -> tensor<2xi32>
    %169 = "tfl.resize_bilinear"(%167, %168) {align_corners = true, half_pixel_centers = false} : (tensor<1x1x1x256xf32>, tensor<2xi32>) -> tensor<1x33x33x256xf32>
    %170 = "tfl.pseudo_const"() {value = dense<"hex_value_removed_for_legibility_this_model_will_not_run_correctly_without_it"> : tensor<256x1x1x160xf32>} : () -> tensor<256x1x1x160xf32>
    %171 = "tfl.pseudo_const"() {value = dense<"hex_value_removed_for_legibility_this_model_will_not_run_correctly_without_it"> : tensor<256xf32>} : () -> tensor<256xf32>
    %172 = "tfl.conv_2d"(%163, %170, %171) {dilation_h_factor = 1 : i32, dilation_w_factor = 1 : i32, fused_activation_function = "RELU", padding = "SAME", stride_h = 1 : i32, stride_w = 1 : i32} : (tensor<1x33x33x160xf32>, tensor<256x1x1x160xf32>, tensor<256xf32>) -> tensor<1x33x33x256xf32>
    %173 = "tfl.concatenation"(%169, %172) {axis = 3 : i32, fused_activation_function = "NONE"} : (tensor<1x33x33x256xf32>, tensor<1x33x33x256xf32>) -> tensor<1x33x33x512xf32>
    %174 = "tfl.pseudo_const"() {value = dense<"hex_value_removed_for_legibility_this_model_will_not_run_correctly_without_it"> : tensor<256x1x1x512xf32>} : () -> tensor<256x1x1x512xf32>
    %175 = "tfl.pseudo_const"() {value = dense<"hex_value_removed_for_legibility_this_model_will_not_run_correctly_without_it"> : tensor<256xf32>} : () -> tensor<256xf32>
    %176 = "tfl.conv_2d"(%173, %174, %175) {dilation_h_factor = 1 : i32, dilation_w_factor = 1 : i32, fused_activation_function = "RELU", padding = "SAME", stride_h = 1 : i32, stride_w = 1 : i32} : (tensor<1x33x33x512xf32>, tensor<256x1x1x512xf32>, tensor<256xf32>) -> tensor<1x33x33x256xf32>
    %177 = "tfl.pseudo_const"() {value = dense<"hex_value_removed_for_legibility_this_model_will_not_run_correctly_without_it"> : tensor<21x1x1x256xf32>} : () -> tensor<21x1x1x256xf32>
    %178 = "tfl.pseudo_const"() {value = dense<[… > : tensor<21xf32>} : () -> tensor<21xf32>
    %179 = "tfl.conv_2d"(%176, %177, %178) {dilation_h_factor = 1 : i32, dilation_w_factor = 1 : i32, fused_activation_function = "NONE", padding = "SAME", stride_h = 1 : i32, stride_w = 1 : i32} : (tensor<1x33x33x256xf32>, tensor<21x1x1x256xf32>, tensor<21xf32>) -> tensor<1x33x33x21xf32>
    %180 = "tfl.pseudo_const"() {value = dense<33> : tensor<2xi32>} : () -> tensor<2xi32>
    %181 = "tfl.resize_bilinear"(%179, %180) {align_corners = true, half_pixel_centers = false} : (tensor<1x33x33x21xf32>, tensor<2xi32>) -> tensor<1x33x33x21xf32>
    %182 = "tfl.pseudo_const"() {value = dense<257> : tensor<2xi32>} : () -> tensor<2xi32>
    %183 = "tfl.resize_bilinear"(%181, %182) {align_corners = true, half_pixel_centers = false} : (tensor<1x33x33x21xf32>, tensor<2xi32>) -> tensor<1x257x257x21xf32>
    return %183 : tensor<1x257x257x21xf32>
  }
}