

module attributes {tfl.description = "TOCO Converted.", tfl.schema_version = 3 : i32} {
  func @main(%arg0: tensor<1x224x224x3x!quant.uniform<u8:f32, 7.812500e-03:128>>) -> tensor<1x1001x!quant.uniform<u8:f32, 3.906250e-03>> attributes {tf.entry_function = {inputs = "input", outputs = "MobilenetV1/Predictions/Reshape_1"}} {
    %0 = "tfl.pseudo_qconst"() {qtype = tensor<32x3x3x3x!quant.uniform<u8<1:255>:f32, 0.021826678887009621:151>>, value = dense<"hex_value_removed_for_legibility_this_model_will_not_run_correctly_without_it"> : tensor<32x3x3x3xi8>} : () -> tensor<32x3x3x3x!quant.uniform<u8<1:255>:f32, 0.021826678887009621:151>>
    %1 = "tfl.pseudo_qconst"() {qtype = tensor<32x!quant.uniform<i32:f32, 1.7052092880476266E-4>>, value = dense<[-7254, 13465, -1591, -2488, 9901, 13359, 1947, 16203, -2165, -7399, -5250, 13549, 17637, 9441, 3877, 17663, -7985, 13809, 12408, 11717, -3441, -104, -13034, 17888, -12487, 15548, 26765, -2599, 14359, 10137, -2149, 20334]> : tensor<32xi32>} : () -> tensor<32x!quant.uniform<i32:f32, 1.7052092880476266E-4>>
    %2 = "tfl.conv_2d"(%arg0, %0, %1) {dilation_h_factor = 1 : i32, dilation_w_factor = 1 : i32, fused_activation_function = "NONE", padding = "SAME", stride_h = 2 : i32, stride_w = 2 : i32} : (tensor<1x224x224x3x!quant.uniform<u8:f32, 7.812500e-03:128>>, tensor<32x3x3x3x!quant.uniform<u8<1:255>:f32, 0.021826678887009621:151>>, tensor<32x!quant.uniform<i32:f32, 1.7052092880476266E-4>>) -> tensor<1x112x112x32x!quant.uniform<u8:f32, 0.023528477177023888>>
    %3 = "tfl.pseudo_qconst"() {qtype = tensor<1x3x3x32x!quant.uniform<u8<1:255>:f32, 0.29219913482666016:110>>, value = dense<"hex_value_removed_for_legibility_this_model_will_not_run_correctly_without_it"> : tensor<1x3x3x32xi8>} : () -> tensor<1x3x3x32x!quant.uniform<u8<1:255>:f32, 0.29219913482666016:110>>
    %4 = "tfl.pseudo_qconst"() {qtype = tensor<32x!quant.uniform<i32:f32, 0.0068750004284083843>>, value = dense<[-170, 86, 65, -62, 226, 138, 52, -417, -124, -114, -140, 613, 437, -157, -34, 363, 1, 892, 172, 79, -113, 683, -146, 261, 28, 263, 1031, -132, 398, 88, -138, 597]> : tensor<32xi32>} : () -> tensor<32x!quant.uniform<i32:f32, 0.0068750004284083843>>
    %5 = "tfl.depthwise_conv_2d"(%2, %3, %4) {depth_multiplier = 1 : i32, dilation_h_factor = 1 : i32, dilation_w_factor = 1 : i32, fused_activation_function = "NONE", padding = "SAME", stride_h = 1 : i32, stride_w = 1 : i32} : (tensor<1x112x112x32x!quant.uniform<u8:f32, 0.023528477177023888>>, tensor<1x3x3x32x!quant.uniform<u8<1:255>:f32, 0.29219913482666016:110>>, tensor<32x!quant.uniform<i32:f32, 0.0068750004284083843>>) -> tensor<1x112x112x32x!quant.uniform<u8:f32, 0.023528477177023888>>
    %6 = "tfl.pseudo_qconst"() {qtype = tensor<64x1x1x32x!quant.uniform<u8<1:255>:f32, 0.030420949682593346:121>>, value = dense<"hex_value_removed_for_legibility_this_model_will_not_run_correctly_without_it"> : tensor<64x1x1x32xi8>} : () -> tensor<64x1x1x32x!quant.uniform<u8<1:255>:f32, 0.030420949682593346:121>>
    %7 = "tfl.pseudo_qconst"() {qtype = tensor<64x!quant.uniform<i32:f32, 7.1575859328731894E-4>>, value = dense<[2966, -2028, 8104, 1435, 290, -1236, 2008, -9324, 10276, 5979, -349, 767, -4292, -8599, -7837, -1016, 3864, 7124, 1111, -2360, -12537, -1359, 2507, 23195, 3869, -7511, 26900, 5050, 15555, 4499, 3585, -2815, 10306, -19128, -167, 879, -6701, -2093, 4932, -2748, 6043, -91, 3594, 1463, -1989, 7200, -2990, 1767, -502, -3135, 2482, 1808, -614, -139, 2055, -5205, 1119, 6140, 5556, -4046, -1888, -7254, -17608, 5499]> : tensor<64xi32>} : () -> tensor<64x!quant.uniform<i32:f32, 7.1575859328731894E-4>>
    %8 = "tfl.conv_2d"(%5, %6, %7) {dilation_h_factor = 1 : i32, dilation_w_factor = 1 : i32, fused_activation_function = "NONE", padding = "SAME", stride_h = 1 : i32, stride_w = 1 : i32} : (tensor<1x112x112x32x!quant.uniform<u8:f32, 0.023528477177023888>>, tensor<64x1x1x32x!quant.uniform<u8<1:255>:f32, 0.030420949682593346:121>>, tensor<64x!quant.uniform<i32:f32, 7.1575859328731894E-4>>) -> tensor<1x112x112x64x!quant.uniform<u8:f32, 0.023528477177023888>>
    %9 = "tfl.pseudo_qconst"() {qtype = tensor<1x3x3x64x!quant.uniform<u8<1:255>:f32, 0.40277284383773804:130>>, value = dense<"hex_value_removed_for_legibility_this_model_will_not_run_correctly_without_it"> : tensor<1x3x3x64xi8>} : () -> tensor<1x3x3x64x!quant.uniform<u8<1:255>:f32, 0.40277284383773804:130>>
    %10 = "tfl.pseudo_qconst"() {qtype = tensor<64x!quant.uniform<i32:f32, 0.0094766318798065185>>, value = dense<[207, 0, 58, 115, 141, 210, 82, 0, 134, 499, 92, 302, 23, 303, 13, 2, 125, 108, 0, -65, 156, 114, 1, 219, 10, -3, 13, 636, 221, 362, 3, 0, -9, -70, -41, 46, 15, -78, -20, 4, 575, -77, 203, 7, -87, -26, 22, 99, 170, 58, 74, 96, 225, -39, 5, 157, 482, 490, 165, 350, -102, 45, 188, 0]> : tensor<64xi32>} : () -> tensor<64x!quant.uniform<i32:f32, 0.0094766318798065185>>
    %11 = "tfl.depthwise_conv_2d"(%8, %9, %10) {depth_multiplier = 1 : i32, dilation_h_factor = 1 : i32, dilation_w_factor = 1 : i32, fused_activation_function = "NONE", padding = "SAME", stride_h = 2 : i32, stride_w = 2 : i32} : (tensor<1x112x112x64x!quant.uniform<u8:f32, 0.023528477177023888>>, tensor<1x3x3x64x!quant.uniform<u8<1:255>:f32, 0.40277284383773804:130>>, tensor<64x!quant.uniform<i32:f32, 0.0094766318798065185>>) -> tensor<1x56x56x64x!quant.uniform<u8:f32, 0.023528477177023888>>
    %12 = "tfl.pseudo_qconst"() {qtype = tensor<128x1x1x64x!quant.uniform<u8<1:255>:f32, 0.015148180536925793:104>>, value = dense<"hex_value_removed_for_legibility_this_model_will_not_run_correctly_without_it"> : tensor<128x1x1x64xi8>} : () -> tensor<128x1x1x64x!quant.uniform<u8<1:255>:f32, 0.015148180536925793:104>>
    %13 = "tfl.pseudo_qconst"() {qtype = tensor<128x!quant.uniform<i32:f32, 3.5641359863802791E-4>>, value = dense<"hex_value_removed_for_legibility_this_model_will_not_run_correctly_without_it"> : tensor<128xi32>} : () -> tensor<128x!quant.uniform<i32:f32, 3.5641359863802791E-4>>
    %14 = "tfl.conv_2d"(%11, %12, %13) {dilation_h_factor = 1 : i32, dilation_w_factor = 1 : i32, fused_activation_function = "NONE", padding = "SAME", stride_h = 1 : i32, stride_w = 1 : i32} : (tensor<1x56x56x64x!quant.uniform<u8:f32, 0.023528477177023888>>, tensor<128x1x1x64x!quant.uniform<u8<1:255>:f32, 0.015148180536925793:104>>, tensor<128x!quant.uniform<i32:f32, 3.5641359863802791E-4>>) -> tensor<1x56x56x128x!quant.uniform<u8:f32, 0.023528477177023888>>
    %15 = "tfl.pseudo_qconst"() {qtype = tensor<1x3x3x128x!quant.uniform<u8<1:255>:f32, 0.060537301003932953:160>>, value = dense<"hex_value_removed_for_legibility_this_model_will_not_run_correctly_without_it"> : tensor<1x3x3x128xi8>} : () -> tensor<1x3x3x128x!quant.uniform<u8<1:255>:f32, 0.060537301003932953:160>>
    %16 = "tfl.pseudo_qconst"() {qtype = tensor<128x!quant.uniform<i32:f32, 0.0014243504265323281>>, value = dense<"hex_value_removed_for_legibility_this_model_will_not_run_correctly_without_it"> : tensor<128xi32>} : () -> tensor<128x!quant.uniform<i32:f32, 0.0014243504265323281>>
    %17 = "tfl.depthwise_conv_2d"(%14, %15, %16) {depth_multiplier = 1 : i32, dilation_h_factor = 1 : i32, dilation_w_factor = 1 : i32, fused_activation_function = "NONE", padding = "SAME", stride_h = 1 : i32, stride_w = 1 : i32} : (tensor<1x56x56x128x!quant.uniform<u8:f32, 0.023528477177023888>>, tensor<1x3x3x128x!quant.uniform<u8<1:255>:f32, 0.060537301003932953:160>>, tensor<128x!quant.uniform<i32:f32, 0.0014243504265323281>>) -> tensor<1x56x56x128x!quant.uniform<u8:f32, 0.023528477177023888>>
    %18 = "tfl.pseudo_qconst"() {qtype = tensor<128x1x1x128x!quant.uniform<u8<1:255>:f32, 0.013755458407104015:94>>, value = dense<"hex_value_removed_for_legibility_this_model_will_not_run_correctly_without_it"> : tensor<128x1x1x128xi8>} : () -> tensor<128x1x1x128x!quant.uniform<u8<1:255>:f32, 0.013755458407104015:94>>
    %19 = "tfl.pseudo_qconst"() {qtype = tensor<128x!quant.uniform<i32:f32, 3.2364498474635184E-4>>, value = dense<"hex_value_removed_for_legibility_this_model_will_not_run_correctly_without_it"> : tensor<128xi32>} : () -> tensor<128x!quant.uniform<i32:f32, 3.2364498474635184E-4>>
    %20 = "tfl.conv_2d"(%17, %18, %19) {dilation_h_factor = 1 : i32, dilation_w_factor = 1 : i32, fused_activation_function = "NONE", padding = "SAME", stride_h = 1 : i32, stride_w = 1 : i32} : (tensor<1x56x56x128x!quant.uniform<u8:f32, 0.023528477177023888>>, tensor<128x1x1x128x!quant.uniform<u8<1:255>:f32, 0.013755458407104015:94>>, tensor<128x!quant.uniform<i32:f32, 3.2364498474635184E-4>>) -> tensor<1x56x56x128x!quant.uniform<u8:f32, 0.023528477177023888>>
    %21 = "tfl.pseudo_qconst"() {qtype = tensor<1x3x3x128x!quant.uniform<u8<1:255>:f32, 0.016758076846599579:123>>, value = dense<"hex_value_removed_for_legibility_this_model_will_not_run_correctly_without_it"> : tensor<1x3x3x128xi8>} : () -> tensor<1x3x3x128x!quant.uniform<u8<1:255>:f32, 0.016758076846599579:123>>
    %22 = "tfl.pseudo_qconst"() {qtype = tensor<128x!quant.uniform<i32:f32, 3.9429203025065362E-4>>, value = dense<"hex_value_removed_for_legibility_this_model_will_not_run_correctly_without_it"> : tensor<128xi32>} : () -> tensor<128x!quant.uniform<i32:f32, 3.9429203025065362E-4>>
    %23 = "tfl.depthwise_conv_2d"(%20, %21, %22) {depth_multiplier = 1 : i32, dilation_h_factor = 1 : i32, dilation_w_factor = 1 : i32, fused_activation_function = "NONE", padding = "SAME", stride_h = 2 : i32, stride_w = 2 : i32} : (tensor<1x56x56x128x!quant.uniform<u8:f32, 0.023528477177023888>>, tensor<1x3x3x128x!quant.uniform<u8<1:255>:f32, 0.016758076846599579:123>>, tensor<128x!quant.uniform<i32:f32, 3.9429203025065362E-4>>) -> tensor<1x28x28x128x!quant.uniform<u8:f32, 0.023528477177023888>>
    %24 = "tfl.pseudo_qconst"() {qtype = tensor<256x1x1x128x!quant.uniform<u8<1:255>:f32, 0.0076018469408154488:151>>, value = dense<"hex_value_removed_for_legibility_this_model_will_not_run_correctly_without_it"> : tensor<256x1x1x128xi8>} : () -> tensor<256x1x1x128x!quant.uniform<u8<1:255>:f32, 0.0076018469408154488:151>>
    %25 = "tfl.pseudo_qconst"() {qtype = tensor<256x!quant.uniform<i32:f32, 1.7885987472254783E-4>>, value = dense<"hex_value_removed_for_legibility_this_model_will_not_run_correctly_without_it"> : tensor<256xi32>} : () -> tensor<256x!quant.uniform<i32:f32, 1.7885987472254783E-4>>
    %26 = "tfl.conv_2d"(%23, %24, %25) {dilation_h_factor = 1 : i32, dilation_w_factor = 1 : i32, fused_activation_function = "NONE", padding = "SAME", stride_h = 1 : i32, stride_w = 1 : i32} : (tensor<1x28x28x128x!quant.uniform<u8:f32, 0.023528477177023888>>, tensor<256x1x1x128x!quant.uniform<u8<1:255>:f32, 0.0076018469408154488:151>>, tensor<256x!quant.uniform<i32:f32, 1.7885987472254783E-4>>) -> tensor<1x28x28x256x!quant.uniform<u8:f32, 0.023528477177023888>>
    %27 = "tfl.pseudo_qconst"() {qtype = tensor<1x3x3x256x!quant.uniform<u8<1:255>:f32, 0.041055269539356232:129>>, value = dense<"hex_value_removed_for_legibility_this_model_will_not_run_correctly_without_it"> : tensor<1x3x3x256xi8>} : () -> tensor<1x3x3x256x!quant.uniform<u8<1:255>:f32, 0.041055269539356232:129>>
    %28 = "tfl.pseudo_qconst"() {qtype = tensor<256x!quant.uniform<i32:f32, 9.6596794901415706E-4>>, value = dense<"hex_value_removed_for_legibility_this_model_will_not_run_correctly_without_it"> : tensor<256xi32>} : () -> tensor<256x!quant.uniform<i32:f32, 9.6596794901415706E-4>>
    %29 = "tfl.depthwise_conv_2d"(%26, %27, %28) {depth_multiplier = 1 : i32, dilation_h_factor = 1 : i32, dilation_w_factor = 1 : i32, fused_activation_function = "NONE", padding = "SAME", stride_h = 1 : i32, stride_w = 1 : i32} : (tensor<1x28x28x256x!quant.uniform<u8:f32, 0.023528477177023888>>, tensor<1x3x3x256x!quant.uniform<u8<1:255>:f32, 0.041055269539356232:129>>, tensor<256x!quant.uniform<i32:f32, 9.6596794901415706E-4>>) -> tensor<1x28x28x256x!quant.uniform<u8:f32, 0.023528477177023888>>
    %30 = "tfl.pseudo_qconst"() {qtype = tensor<256x1x1x256x!quant.uniform<u8<1:255>:f32, 0.0064316140487790108:122>>, value = dense<"hex_value_removed_for_legibility_this_model_will_not_run_correctly_without_it"> : tensor<256x1x1x256xi8>} : () -> tensor<256x1x1x256x!quant.uniform<u8<1:255>:f32, 0.0064316140487790108:122>>
    %31 = "tfl.pseudo_qconst"() {qtype = tensor<256x!quant.uniform<i32:f32, 1.5132607950363308E-4>>, value = dense<"hex_value_removed_for_legibility_this_model_will_not_run_correctly_without_it"> : tensor<256xi32>} : () -> tensor<256x!quant.uniform<i32:f32, 1.5132607950363308E-4>>
    %32 = "tfl.conv_2d"(%29, %30, %31) {dilation_h_factor = 1 : i32, dilation_w_factor = 1 : i32, fused_activation_function = "NONE", padding = "SAME", stride_h = 1 : i32, stride_w = 1 : i32} : (tensor<1x28x28x256x!quant.uniform<u8:f32, 0.023528477177023888>>, tensor<256x1x1x256x!quant.uniform<u8<1:255>:f32, 0.0064316140487790108:122>>, tensor<256x!quant.uniform<i32:f32, 1.5132607950363308E-4>>) -> tensor<1x28x28x256x!quant.uniform<u8:f32, 0.023528477177023888>>
    %33 = "tfl.pseudo_qconst"() {qtype = tensor<1x3x3x256x!quant.uniform<u8<1:255>:f32, 0.013460792601108551:122>>, value = dense<"hex_value_removed_for_legibility_this_model_will_not_run_correctly_without_it"> : tensor<1x3x3x256xi8>} : () -> tensor<1x3x3x256x!quant.uniform<u8<1:255>:f32, 0.013460792601108551:122>>
    %34 = "tfl.pseudo_qconst"() {qtype = tensor<256x!quant.uniform<i32:f32, 3.1671192846260965E-4>>, value = dense<"hex_value_removed_for_legibility_this_model_will_not_run_correctly_without_it"> : tensor<256xi32>} : () -> tensor<256x!quant.uniform<i32:f32, 3.1671192846260965E-4>>
    %35 = "tfl.depthwise_conv_2d"(%32, %33, %34) {depth_multiplier = 1 : i32, dilation_h_factor = 1 : i32, dilation_w_factor = 1 : i32, fused_activation_function = "NONE", padding = "SAME", stride_h = 2 : i32, stride_w = 2 : i32} : (tensor<1x28x28x256x!quant.uniform<u8:f32, 0.023528477177023888>>, tensor<1x3x3x256x!quant.uniform<u8<1:255>:f32, 0.013460792601108551:122>>, tensor<256x!quant.uniform<i32:f32, 3.1671192846260965E-4>>) -> tensor<1x14x14x256x!quant.uniform<u8:f32, 0.023528477177023888>>
    %36 = "tfl.pseudo_qconst"() {qtype = tensor<512x1x1x256x!quant.uniform<u8<1:255>:f32, 0.0091712204739451408:109>>, value = dense<"hex_value_removed_for_legibility_this_model_will_not_run_correctly_without_it"> : tensor<512x1x1x256xi8>} : () -> tensor<512x1x1x256x!quant.uniform<u8<1:255>:f32, 0.0091712204739451408:109>>
    %37 = "tfl.pseudo_qconst"() {qtype = tensor<512x!quant.uniform<i32:f32, 2.1578485029749572E-4>>, value = dense<"hex_value_removed_for_legibility_this_model_will_not_run_correctly_without_it"> : tensor<512xi32>} : () -> tensor<512x!quant.uniform<i32:f32, 2.1578485029749572E-4>>
    %38 = "tfl.conv_2d"(%35, %36, %37) {dilation_h_factor = 1 : i32, dilation_w_factor = 1 : i32, fused_activation_function = "NONE", padding = "SAME", stride_h = 1 : i32, stride_w = 1 : i32} : (tensor<1x14x14x256x!quant.uniform<u8:f32, 0.023528477177023888>>, tensor<512x1x1x256x!quant.uniform<u8<1:255>:f32, 0.0091712204739451408:109>>, tensor<512x!quant.uniform<i32:f32, 2.1578485029749572E-4>>) -> tensor<1x14x14x512x!quant.uniform<u8:f32, 0.023528477177023888>>
    %39 = "tfl.pseudo_qconst"() {qtype = tensor<1x3x3x512x!quant.uniform<u8<1:255>:f32, 0.036934755742549896:132>>, value = dense<"hex_value_removed_for_legibility_this_model_will_not_run_correctly_without_it"> : tensor<1x3x3x512xi8>} : () -> tensor<1x3x3x512x!quant.uniform<u8<1:255>:f32, 0.036934755742549896:132>>
    %40 = "tfl.pseudo_qconst"() {qtype = tensor<512x!quant.uniform<i32:f32, 8.6901854956522584E-4>>, value = dense<"hex_value_removed_for_legibility_this_model_will_not_run_correctly_without_it"> : tensor<512xi32>} : () -> tensor<512x!quant.uniform<i32:f32, 8.6901854956522584E-4>>
    %41 = "tfl.depthwise_conv_2d"(%38, %39, %40) {depth_multiplier = 1 : i32, dilation_h_factor = 1 : i32, dilation_w_factor = 1 : i32, fused_activation_function = "NONE", padding = "SAME", stride_h = 1 : i32, stride_w = 1 : i32} : (tensor<1x14x14x512x!quant.uniform<u8:f32, 0.023528477177023888>>, tensor<1x3x3x512x!quant.uniform<u8<1:255>:f32, 0.036934755742549896:132>>, tensor<512x!quant.uniform<i32:f32, 8.6901854956522584E-4>>) -> tensor<1x14x14x512x!quant.uniform<u8:f32, 0.023528477177023888>>
    %42 = "tfl.pseudo_qconst"() {qtype = tensor<512x1x1x512x!quant.uniform<u8<1:255>:f32, 0.0053000468760728836:140>>, value = dense<"hex_value_removed_for_legibility_this_model_will_not_run_correctly_without_it"> : tensor<512x1x1x512xi8>} : () -> tensor<512x1x1x512x!quant.uniform<u8<1:255>:f32, 0.0053000468760728836:140>>
    %43 = "tfl.pseudo_qconst"() {qtype = tensor<512x!quant.uniform<i32:f32, 1.2470202636905015E-4>>, value = dense<"hex_value_removed_for_legibility_this_model_will_not_run_correctly_without_it"> : tensor<512xi32>} : () -> tensor<512x!quant.uniform<i32:f32, 1.2470202636905015E-4>>
    %44 = "tfl.conv_2d"(%41, %42, %43) {dilation_h_factor = 1 : i32, dilation_w_factor = 1 : i32, fused_activation_function = "NONE", padding = "SAME", stride_h = 1 : i32, stride_w = 1 : i32} : (tensor<1x14x14x512x!quant.uniform<u8:f32, 0.023528477177023888>>, tensor<512x1x1x512x!quant.uniform<u8<1:255>:f32, 0.0053000468760728836:140>>, tensor<512x!quant.uniform<i32:f32, 1.2470202636905015E-4>>) -> tensor<1x14x14x512x!quant.uniform<u8:f32, 0.023528477177023888>>
    %45 = "tfl.pseudo_qconst"() {qtype = tensor<1x3x3x512x!quant.uniform<u8<1:255>:f32, 0.042609862983226776:94>>, value = dense<"hex_value_removed_for_legibility_this_model_will_not_run_correctly_without_it"> : tensor<1x3x3x512xi8>} : () -> tensor<1x3x3x512x!quant.uniform<u8<1:255>:f32, 0.042609862983226776:94>>
    %46 = "tfl.pseudo_qconst"() {qtype = tensor<512x!quant.uniform<i32:f32, 0.0010025452356785536>>, value = dense<"hex_value_removed_for_legibility_this_model_will_not_run_correctly_without_it"> : tensor<512xi32>} : () -> tensor<512x!quant.uniform<i32:f32, 0.0010025452356785536>>
    %47 = "tfl.depthwise_conv_2d"(%44, %45, %46) {depth_multiplier = 1 : i32, dilation_h_factor = 1 : i32, dilation_w_factor = 1 : i32, fused_activation_function = "NONE", padding = "SAME", stride_h = 1 : i32, stride_w = 1 : i32} : (tensor<1x14x14x512x!quant.uniform<u8:f32, 0.023528477177023888>>, tensor<1x3x3x512x!quant.uniform<u8<1:255>:f32, 0.042609862983226776:94>>, tensor<512x!quant.uniform<i32:f32, 0.0010025452356785536>>) -> tensor<1x14x14x512x!quant.uniform<u8:f32, 0.023528477177023888>>
    %48 = "tfl.pseudo_qconst"() {qtype = tensor<512x1x1x512x!quant.uniform<u8<1:255>:f32, 0.0049632852897047997:127>>, value = dense<"hex_value_removed_for_legibility_this_model_will_not_run_correctly_without_it"> : tensor<512x1x1x512xi8>} : () -> tensor<512x1x1x512x!quant.uniform<u8<1:255>:f32, 0.0049632852897047997:127>>
    %49 = "tfl.pseudo_qconst"() {qtype = tensor<512x!quant.uniform<i32:f32, 1.1677854490699247E-4>>, value = dense<"hex_value_removed_for_legibility_this_model_will_not_run_correctly_without_it"> : tensor<512xi32>} : () -> tensor<512x!quant.uniform<i32:f32, 1.1677854490699247E-4>>
    %50 = "tfl.conv_2d"(%47, %48, %49) {dilation_h_factor = 1 : i32, dilation_w_factor = 1 : i32, fused_activation_function = "NONE", padding = "SAME", stride_h = 1 : i32, stride_w = 1 : i32} : (tensor<1x14x14x512x!quant.uniform<u8:f32, 0.023528477177023888>>, tensor<512x1x1x512x!quant.uniform<u8<1:255>:f32, 0.0049632852897047997:127>>, tensor<512x!quant.uniform<i32:f32, 1.1677854490699247E-4>>) -> tensor<1x14x14x512x!quant.uniform<u8:f32, 0.023528477177023888>>
    %51 = "tfl.pseudo_qconst"() {qtype = tensor<1x3x3x512x!quant.uniform<u8<1:255>:f32, 0.028358859941363335:127>>, value = dense<"hex_value_removed_for_legibility_this_model_will_not_run_correctly_without_it"> : tensor<1x3x3x512xi8>} : () -> tensor<1x3x3x512x!quant.uniform<u8<1:255>:f32, 0.028358859941363335:127>>
    %52 = "tfl.pseudo_qconst"() {qtype = tensor<512x!quant.uniform<i32:f32, 6.6724076168611646E-4>>, value = dense<"hex_value_removed_for_legibility_this_model_will_not_run_correctly_without_it"> : tensor<512xi32>} : () -> tensor<512x!quant.uniform<i32:f32, 6.6724076168611646E-4>>
    %53 = "tfl.depthwise_conv_2d"(%50, %51, %52) {depth_multiplier = 1 : i32, dilation_h_factor = 1 : i32, dilation_w_factor = 1 : i32, fused_activation_function = "NONE", padding = "SAME", stride_h = 1 : i32, stride_w = 1 : i32} : (tensor<1x14x14x512x!quant.uniform<u8:f32, 0.023528477177023888>>, tensor<1x3x3x512x!quant.uniform<u8<1:255>:f32, 0.028358859941363335:127>>, tensor<512x!quant.uniform<i32:f32, 6.6724076168611646E-4>>) -> tensor<1x14x14x512x!quant.uniform<u8:f32, 0.023528477177023888>>
    %54 = "tfl.pseudo_qconst"() {qtype = tensor<512x1x1x512x!quant.uniform<u8<1:255>:f32, 0.0077708959579467773:89>>, value = dense<"hex_value_removed_for_legibility_this_model_will_not_run_correctly_without_it"> : tensor<512x1x1x512xi8>} : () -> tensor<512x1x1x512x!quant.uniform<u8<1:255>:f32, 0.0077708959579467773:89>>
    %55 = "tfl.pseudo_qconst"() {qtype = tensor<512x!quant.uniform<i32:f32, 1.8283734971191734E-4>>, value = dense<"hex_value_removed_for_legibility_this_model_will_not_run_correctly_without_it"> : tensor<512xi32>} : () -> tensor<512x!quant.uniform<i32:f32, 1.8283734971191734E-4>>
    %56 = "tfl.conv_2d"(%53, %54, %55) {dilation_h_factor = 1 : i32, dilation_w_factor = 1 : i32, fused_activation_function = "NONE", padding = "SAME", stride_h = 1 : i32, stride_w = 1 : i32} : (tensor<1x14x14x512x!quant.uniform<u8:f32, 0.023528477177023888>>, tensor<512x1x1x512x!quant.uniform<u8<1:255>:f32, 0.0077708959579467773:89>>, tensor<512x!quant.uniform<i32:f32, 1.8283734971191734E-4>>) -> tensor<1x14x14x512x!quant.uniform<u8:f32, 0.023528477177023888>>
    %57 = "tfl.pseudo_qconst"() {qtype = tensor<1x3x3x512x!quant.uniform<u8<1:255>:f32, 0.024329448118805885:134>>, value = dense<"hex_value_removed_for_legibility_this_model_will_not_run_correctly_without_it"> : tensor<1x3x3x512xi8>} : () -> tensor<1x3x3x512x!quant.uniform<u8<1:255>:f32, 0.024329448118805885:134>>
    %58 = "tfl.pseudo_qconst"() {qtype = tensor<512x!quant.uniform<i32:f32, 5.7243485935032368E-4>>, value = dense<"hex_value_removed_for_legibility_this_model_will_not_run_correctly_without_it"> : tensor<512xi32>} : () -> tensor<512x!quant.uniform<i32:f32, 5.7243485935032368E-4>>
    %59 = "tfl.depthwise_conv_2d"(%56, %57, %58) {depth_multiplier = 1 : i32, dilation_h_factor = 1 : i32, dilation_w_factor = 1 : i32, fused_activation_function = "NONE", padding = "SAME", stride_h = 1 : i32, stride_w = 1 : i32} : (tensor<1x14x14x512x!quant.uniform<u8:f32, 0.023528477177023888>>, tensor<1x3x3x512x!quant.uniform<u8<1:255>:f32, 0.024329448118805885:134>>, tensor<512x!quant.uniform<i32:f32, 5.7243485935032368E-4>>) -> tensor<1x14x14x512x!quant.uniform<u8:f32, 0.023528477177023888>>
    %60 = "tfl.pseudo_qconst"() {qtype = tensor<512x1x1x512x!quant.uniform<u8<1:255>:f32, 0.0096586504951119423:99>>, value = dense<"hex_value_removed_for_legibility_this_model_will_not_run_correctly_without_it"> : tensor<512x1x1x512xi8>} : () -> tensor<512x1x1x512x!quant.uniform<u8<1:255>:f32, 0.0096586504951119423:99>>
    %61 = "tfl.pseudo_qconst"() {qtype = tensor<512x!quant.uniform<i32:f32, 2.2725333110429347E-4>>, value = dense<"hex_value_removed_for_legibility_this_model_will_not_run_correctly_without_it"> : tensor<512xi32>} : () -> tensor<512x!quant.uniform<i32:f32, 2.2725333110429347E-4>>
    %62 = "tfl.conv_2d"(%59, %60, %61) {dilation_h_factor = 1 : i32, dilation_w_factor = 1 : i32, fused_activation_function = "NONE", padding = "SAME", stride_h = 1 : i32, stride_w = 1 : i32} : (tensor<1x14x14x512x!quant.uniform<u8:f32, 0.023528477177023888>>, tensor<512x1x1x512x!quant.uniform<u8<1:255>:f32, 0.0096586504951119423:99>>, tensor<512x!quant.uniform<i32:f32, 2.2725333110429347E-4>>) -> tensor<1x14x14x512x!quant.uniform<u8:f32, 0.023528477177023888>>
    %63 = "tfl.pseudo_qconst"() {qtype = tensor<1x3x3x512x!quant.uniform<u8<1:255>:f32, 0.019366811960935593:106>>, value = dense<"hex_value_removed_for_legibility_this_model_will_not_run_correctly_without_it"> : tensor<1x3x3x512xi8>} : () -> tensor<1x3x3x512x!quant.uniform<u8<1:255>:f32, 0.019366811960935593:106>>
    %64 = "tfl.pseudo_qconst"() {qtype = tensor<512x!quant.uniform<i32:f32, 4.5567160123027861E-4>>, value = dense<"hex_value_removed_for_legibility_this_model_will_not_run_correctly_without_it"> : tensor<512xi32>} : () -> tensor<512x!quant.uniform<i32:f32, 4.5567160123027861E-4>>
    %65 = "tfl.depthwise_conv_2d"(%62, %63, %64) {depth_multiplier = 1 : i32, dilation_h_factor = 1 : i32, dilation_w_factor = 1 : i32, fused_activation_function = "NONE", padding = "SAME", stride_h = 1 : i32, stride_w = 1 : i32} : (tensor<1x14x14x512x!quant.uniform<u8:f32, 0.023528477177023888>>, tensor<1x3x3x512x!quant.uniform<u8<1:255>:f32, 0.019366811960935593:106>>, tensor<512x!quant.uniform<i32:f32, 4.5567160123027861E-4>>) -> tensor<1x14x14x512x!quant.uniform<u8:f32, 0.023528477177023888>>
    %66 = "tfl.pseudo_qconst"() {qtype = tensor<512x1x1x512x!quant.uniform<u8<1:255>:f32, 0.0054469937458634377:153>>, value = dense<"hex_value_removed_for_legibility_this_model_will_not_run_correctly_without_it"> : tensor<512x1x1x512xi8>} : () -> tensor<512x1x1x512x!quant.uniform<u8<1:255>:f32, 0.0054469937458634377:153>>
    %67 = "tfl.pseudo_qconst"() {qtype = tensor<512x!quant.uniform<i32:f32, 1.2815947411581874E-4>>, value = dense<"hex_value_removed_for_legibility_this_model_will_not_run_correctly_without_it"> : tensor<512xi32>} : () -> tensor<512x!quant.uniform<i32:f32, 1.2815947411581874E-4>>
    %68 = "tfl.conv_2d"(%65, %66, %67) {dilation_h_factor = 1 : i32, dilation_w_factor = 1 : i32, fused_activation_function = "NONE", padding = "SAME", stride_h = 1 : i32, stride_w = 1 : i32} : (tensor<1x14x14x512x!quant.uniform<u8:f32, 0.023528477177023888>>, tensor<512x1x1x512x!quant.uniform<u8<1:255>:f32, 0.0054469937458634377:153>>, tensor<512x!quant.uniform<i32:f32, 1.2815947411581874E-4>>) -> tensor<1x14x14x512x!quant.uniform<u8:f32, 0.023528477177023888>>
    %69 = "tfl.pseudo_qconst"() {qtype = tensor<1x3x3x512x!quant.uniform<u8<1:255>:f32, 0.0078355949372053146:126>>, value = dense<"hex_value_removed_for_legibility_this_model_will_not_run_correctly_without_it"> : tensor<1x3x3x512xi8>} : () -> tensor<1x3x3x512x!quant.uniform<u8<1:255>:f32, 0.0078355949372053146:126>>
    %70 = "tfl.pseudo_qconst"() {qtype = tensor<512x!quant.uniform<i32:f32, 1.843596255639568E-4>>, value = dense<"hex_value_removed_for_legibility_this_model_will_not_run_correctly_without_it"> : tensor<512xi32>} : () -> tensor<512x!quant.uniform<i32:f32, 1.843596255639568E-4>>
    %71 = "tfl.depthwise_conv_2d"(%68, %69, %70) {depth_multiplier = 1 : i32, dilation_h_factor = 1 : i32, dilation_w_factor = 1 : i32, fused_activation_function = "NONE", padding = "SAME", stride_h = 2 : i32, stride_w = 2 : i32} : (tensor<1x14x14x512x!quant.uniform<u8:f32, 0.023528477177023888>>, tensor<1x3x3x512x!quant.uniform<u8<1:255>:f32, 0.0078355949372053146:126>>, tensor<512x!quant.uniform<i32:f32, 1.843596255639568E-4>>) -> tensor<1x7x7x512x!quant.uniform<u8:f32, 0.023528477177023888>>
    %72 = "tfl.pseudo_qconst"() {qtype = tensor<1024x1x1x512x!quant.uniform<u8<1:255>:f32, 0.0081792296841740608:130>>, value = dense<"hex_value_removed_for_legibility_this_model_will_not_run_correctly_without_it"> : tensor<1024x1x1x512xi8>} : () -> tensor<1024x1x1x512x!quant.uniform<u8<1:255>:f32, 0.0081792296841740608:130>>
    %73 = "tfl.pseudo_qconst"() {qtype = tensor<1024x!quant.uniform<i32:f32, 1.924448151839897E-4>>, value = dense<"hex_value_removed_for_legibility_this_model_will_not_run_correctly_without_it"> : tensor<1024xi32>} : () -> tensor<1024x!quant.uniform<i32:f32, 1.924448151839897E-4>>
    %74 = "tfl.conv_2d"(%71, %72, %73) {dilation_h_factor = 1 : i32, dilation_w_factor = 1 : i32, fused_activation_function = "NONE", padding = "SAME", stride_h = 1 : i32, stride_w = 1 : i32} : (tensor<1x7x7x512x!quant.uniform<u8:f32, 0.023528477177023888>>, tensor<1024x1x1x512x!quant.uniform<u8<1:255>:f32, 0.0081792296841740608:130>>, tensor<1024x!quant.uniform<i32:f32, 1.924448151839897E-4>>) -> tensor<1x7x7x1024x!quant.uniform<u8:f32, 0.023528477177023888>>
    %75 = "tfl.pseudo_qconst"() {qtype = tensor<1x3x3x1024x!quant.uniform<u8<1:255>:f32, 0.12616927921772003:211>>, value = dense<"hex_value_removed_for_legibility_this_model_will_not_run_correctly_without_it"> : tensor<1x3x3x1024xi8>} : () -> tensor<1x3x3x1024x!quant.uniform<u8<1:255>:f32, 0.12616927921772003:211>>
    %76 = "tfl.pseudo_qconst"() {qtype = tensor<1024x!quant.uniform<i32:f32, 0.0029685709159821272>>, value = dense<"hex_value_removed_for_legibility_this_model_will_not_run_correctly_without_it"> : tensor<1024xi32>} : () -> tensor<1024x!quant.uniform<i32:f32, 0.0029685709159821272>>
    %77 = "tfl.depthwise_conv_2d"(%74, %75, %76) {depth_multiplier = 1 : i32, dilation_h_factor = 1 : i32, dilation_w_factor = 1 : i32, fused_activation_function = "NONE", padding = "SAME", stride_h = 1 : i32, stride_w = 1 : i32} : (tensor<1x7x7x1024x!quant.uniform<u8:f32, 0.023528477177023888>>, tensor<1x3x3x1024x!quant.uniform<u8<1:255>:f32, 0.12616927921772003:211>>, tensor<1024x!quant.uniform<i32:f32, 0.0029685709159821272>>) -> tensor<1x7x7x1024x!quant.uniform<u8:f32, 0.023528477177023888>>
    %78 = "tfl.pseudo_qconst"() {qtype = tensor<1024x1x1x1024x!quant.uniform<u8<1:255>:f32, 0.018048152327537537:95>>, value = dense<"hex_value_removed_for_legibility_this_model_will_not_run_correctly_without_it"> : tensor<1024x1x1x1024xi8>} : () -> tensor<1024x1x1x1024x!quant.uniform<u8<1:255>:f32, 0.018048152327537537:95>>
    %79 = "tfl.pseudo_qconst"() {qtype = tensor<1024x!quant.uniform<i32:f32, 4.2464552097953856E-4>>, value = dense<"hex_value_removed_for_legibility_this_model_will_not_run_correctly_without_it"> : tensor<1024xi32>} : () -> tensor<1024x!quant.uniform<i32:f32, 4.2464552097953856E-4>>
    %80 = "tfl.conv_2d"(%77, %78, %79) {dilation_h_factor = 1 : i32, dilation_w_factor = 1 : i32, fused_activation_function = "NONE", padding = "SAME", stride_h = 1 : i32, stride_w = 1 : i32} : (tensor<1x7x7x1024x!quant.uniform<u8:f32, 0.023528477177023888>>, tensor<1024x1x1x1024x!quant.uniform<u8<1:255>:f32, 0.018048152327537537:95>>, tensor<1024x!quant.uniform<i32:f32, 4.2464552097953856E-4>>) -> tensor<1x7x7x1024x!quant.uniform<u8:f32, 0.023528477177023888>>
    %81 = "tfl.average_pool_2d"(%80) {filter_height = 7 : i32, filter_width = 7 : i32, fused_activation_function = "NONE", padding = "VALID", stride_h = 2 : i32, stride_w = 2 : i32} : (tensor<1x7x7x1024x!quant.uniform<u8:f32, 0.023528477177023888>>) -> tensor<1x1x1x1024x!quant.uniform<u8:f32, 0.023528477177023888>>
    %82 = "tfl.pseudo_qconst"() {qtype = tensor<1001x1x1x1024x!quant.uniform<u8<1:255>:f32, 0.0049866009503602982:74>>, value = dense<"hex_value_removed_for_legibility_this_model_will_not_run_correctly_without_it"> : tensor<1001x1x1x1024xi8>} : () -> tensor<1001x1x1x1024x!quant.uniform<u8<1:255>:f32, 0.0049866009503602982:74>>
    %83 = "tfl.pseudo_qconst"() {qtype = tensor<1001x!quant.uniform<i32:f32, 1.1732712300727144E-4>>, value = dense<"hex_value_removed_for_legibility_this_model_will_not_run_correctly_without_it"> : tensor<1001xi32>} : () -> tensor<1001x!quant.uniform<i32:f32, 1.1732712300727144E-4>>
    %84 = "tfl.conv_2d"(%81, %82, %83) {dilation_h_factor = 1 : i32, dilation_w_factor = 1 : i32, fused_activation_function = "NONE", padding = "SAME", stride_h = 1 : i32, stride_w = 1 : i32} : (tensor<1x1x1x1024x!quant.uniform<u8:f32, 0.023528477177023888>>, tensor<1001x1x1x1024x!quant.uniform<u8<1:255>:f32, 0.0049866009503602982:74>>, tensor<1001x!quant.uniform<i32:f32, 1.1732712300727144E-4>>) -> tensor<1x1x1x1001x!quant.uniform<u8:f32, 0.16609922051429749:66>>
    %85 = "tfl.pseudo_const"() {value = dense<[1, 1001]> : tensor<2xi32>} : () -> tensor<2xi32>
    %86 = "tfl.reshape"(%84, %85) : (tensor<1x1x1x1001x!quant.uniform<u8:f32, 0.16609922051429749:66>>, tensor<2xi32>) -> tensor<1x1001x!quant.uniform<u8:f32, 0.16609922051429749:66>>
    %87 = "tfl.softmax"(%86) {beta = 1.000000e+00 : f32} : (tensor<1x1001x!quant.uniform<u8:f32, 0.16609922051429749:66>>) -> tensor<1x1001x!quant.uniform<u8:f32, 3.906250e-03>>
    return %87 : tensor<1x1001x!quant.uniform<u8:f32, 3.906250e-03>>
  }
}