

module attributes {tfl.description = "TOCO Converted.", tfl.schema_version = 3 : i32} {
  func @main(%arg0: tensor<1x384xi32>, %arg1: tensor<1x384xi32>, %arg2: tensor<1x384xi32>) -> (tensor<1x384xf32>, tensor<1x384xf32>) attributes {tf.entry_function = {inputs = "input_ids,input_mask,segment_ids", outputs = "end_logits,start_logits"}} {
    %0 = "tfl.cast"(%arg1) : (tensor<1x384xi32>) -> tensor<1x384xf32>
    %1 = "tfl.pseudo_const"() {value = dense<[[1, 384, 1]]> : tensor<1x3xi32>} : () -> tensor<1x3xi32>
    %2 = "tfl.reshape"(%arg0, %1) : (tensor<1x384xi32>, tensor<1x3xi32>) -> tensor<1x384x1xi32>
    %3 = "tfl.pseudo_const"() {value = dense<"hex_value_removed_for_legibility_this_model_will_not_run_correctly_without_it"> : tensor<2x512xf32>} : () -> tensor<2x512xf32>
    %4 = "tfl.gather"(%3, %arg2) {axis = 0 : i32} : (tensor<2x512xf32>, tensor<1x384xi32>) -> tensor<1x384x512xf32>
    %5 = "tfl.pseudo_const"() {value = dense<[1, 1, 384]> : tensor<3xi32>} : () -> tensor<3xi32>
    %6 = "tfl.reshape"(%0, %5) : (tensor<1x384xf32>, tensor<3xi32>) -> tensor<1x1x384xf32>
    %7 = "tfl.pseudo_const"() {value = dense<"hex_value_removed_for_legibility_this_model_will_not_run_correctly_without_it"> : tensor<30522x128xf32>} : () -> tensor<30522x128xf32>
    %8 = "tfl.gather"(%7, %2) {axis = 0 : i32} : (tensor<30522x128xf32>, tensor<1x384x1xi32>) -> tensor<1x384x1x128xf32>
    %9 = "tfl.pseudo_const"() {value = dense<1.000000e+00> : tensor<1x384x1xf32>} : () -> tensor<1x384x1xf32>
    %10 = "tfl.mul"(%9, %6) {fused_activation_function = "NONE"} : (tensor<1x384x1xf32>, tensor<1x1x384xf32>) -> tensor<1x384x384xf32>
    %11 = "tfl.pseudo_const"() {value = dense<"hex_value_removed_for_legibility_this_model_will_not_run_correctly_without_it"> : tensor<1x384x512xf32>} : () -> tensor<1x384x512xf32>
    %12 = tfl.add %11, %4 {fused_activation_function = "NONE"} : tensor<1x384x512xf32>
    %13 = "tfl.pseudo_const"() {value = dense<1.000000e+00> : tensor<f32>} : () -> tensor<f32>
    %14 = "tfl.sub"(%13, %10) {fused_activation_function = "NONE"} : (tensor<f32>, tensor<1x384x384xf32>) -> tensor<1x384x384xf32>
    %15 = "tfl.pseudo_const"() {value = dense<1.000000e+00> : tensor<f32>} : () -> tensor<f32>
    %16 = "tfl.sub"(%15, %10) {fused_activation_function = "NONE"} : (tensor<f32>, tensor<1x384x384xf32>) -> tensor<1x384x384xf32>
    %17 = "tfl.pseudo_const"() {value = dense<1.000000e+00> : tensor<f32>} : () -> tensor<f32>
    %18 = "tfl.sub"(%17, %10) {fused_activation_function = "NONE"} : (tensor<f32>, tensor<1x384x384xf32>) -> tensor<1x384x384xf32>
    %19 = "tfl.pseudo_const"() {value = dense<1.000000e+00> : tensor<f32>} : () -> tensor<f32>
    %20 = "tfl.sub"(%19, %10) {fused_activation_function = "NONE"} : (tensor<f32>, tensor<1x384x384xf32>) -> tensor<1x384x384xf32>
    %21 = "tfl.pseudo_const"() {value = dense<1.000000e+00> : tensor<f32>} : () -> tensor<f32>
    %22 = "tfl.sub"(%21, %10) {fused_activation_function = "NONE"} : (tensor<f32>, tensor<1x384x384xf32>) -> tensor<1x384x384xf32>
    %23 = "tfl.pseudo_const"() {value = dense<1.000000e+00> : tensor<f32>} : () -> tensor<f32>
    %24 = "tfl.sub"(%23, %10) {fused_activation_function = "NONE"} : (tensor<f32>, tensor<1x384x384xf32>) -> tensor<1x384x384xf32>
    %25 = "tfl.pseudo_const"() {value = dense<1.000000e+00> : tensor<f32>} : () -> tensor<f32>
    %26 = "tfl.sub"(%25, %10) {fused_activation_function = "NONE"} : (tensor<f32>, tensor<1x384x384xf32>) -> tensor<1x384x384xf32>
    %27 = "tfl.pseudo_const"() {value = dense<1.000000e+00> : tensor<f32>} : () -> tensor<f32>
    %28 = "tfl.sub"(%27, %10) {fused_activation_function = "NONE"} : (tensor<f32>, tensor<1x384x384xf32>) -> tensor<1x384x384xf32>
    %29 = "tfl.pseudo_const"() {value = dense<1.000000e+00> : tensor<f32>} : () -> tensor<f32>
    %30 = "tfl.sub"(%29, %10) {fused_activation_function = "NONE"} : (tensor<f32>, tensor<1x384x384xf32>) -> tensor<1x384x384xf32>
    %31 = "tfl.pseudo_const"() {value = dense<1.000000e+00> : tensor<f32>} : () -> tensor<f32>
    %32 = "tfl.sub"(%31, %10) {fused_activation_function = "NONE"} : (tensor<f32>, tensor<1x384x384xf32>) -> tensor<1x384x384xf32>
    %33 = "tfl.pseudo_const"() {value = dense<1.000000e+00> : tensor<f32>} : () -> tensor<f32>
    %34 = "tfl.sub"(%33, %10) {fused_activation_function = "NONE"} : (tensor<f32>, tensor<1x384x384xf32>) -> tensor<1x384x384xf32>
    %35 = "tfl.pseudo_const"() {value = dense<1.000000e+00> : tensor<f32>} : () -> tensor<f32>
    %36 = "tfl.sub"(%35, %10) {fused_activation_function = "NONE"} : (tensor<f32>, tensor<1x384x384xf32>) -> tensor<1x384x384xf32>
    %37 = "tfl.pseudo_const"() {value = dense<1.000000e+00> : tensor<f32>} : () -> tensor<f32>
    %38 = "tfl.sub"(%37, %10) {fused_activation_function = "NONE"} : (tensor<f32>, tensor<1x384x384xf32>) -> tensor<1x384x384xf32>
    %39 = "tfl.pseudo_const"() {value = dense<1.000000e+00> : tensor<f32>} : () -> tensor<f32>
    %40 = "tfl.sub"(%39, %10) {fused_activation_function = "NONE"} : (tensor<f32>, tensor<1x384x384xf32>) -> tensor<1x384x384xf32>
    %41 = "tfl.pseudo_const"() {value = dense<1.000000e+00> : tensor<f32>} : () -> tensor<f32>
    %42 = "tfl.sub"(%41, %10) {fused_activation_function = "NONE"} : (tensor<f32>, tensor<1x384x384xf32>) -> tensor<1x384x384xf32>
    %43 = "tfl.pseudo_const"() {value = dense<1.000000e+00> : tensor<f32>} : () -> tensor<f32>
    %44 = "tfl.sub"(%43, %10) {fused_activation_function = "NONE"} : (tensor<f32>, tensor<1x384x384xf32>) -> tensor<1x384x384xf32>
    %45 = "tfl.pseudo_const"() {value = dense<1.000000e+00> : tensor<f32>} : () -> tensor<f32>
    %46 = "tfl.sub"(%45, %10) {fused_activation_function = "NONE"} : (tensor<f32>, tensor<1x384x384xf32>) -> tensor<1x384x384xf32>
    %47 = "tfl.pseudo_const"() {value = dense<1.000000e+00> : tensor<f32>} : () -> tensor<f32>
    %48 = "tfl.sub"(%47, %10) {fused_activation_function = "NONE"} : (tensor<f32>, tensor<1x384x384xf32>) -> tensor<1x384x384xf32>
    %49 = "tfl.pseudo_const"() {value = dense<1.000000e+00> : tensor<f32>} : () -> tensor<f32>
    %50 = "tfl.sub"(%49, %10) {fused_activation_function = "NONE"} : (tensor<f32>, tensor<1x384x384xf32>) -> tensor<1x384x384xf32>
    %51 = "tfl.pseudo_const"() {value = dense<1.000000e+00> : tensor<f32>} : () -> tensor<f32>
    %52 = "tfl.sub"(%51, %10) {fused_activation_function = "NONE"} : (tensor<f32>, tensor<1x384x384xf32>) -> tensor<1x384x384xf32>
    %53 = "tfl.pseudo_const"() {value = dense<1.000000e+00> : tensor<f32>} : () -> tensor<f32>
    %54 = "tfl.sub"(%53, %10) {fused_activation_function = "NONE"} : (tensor<f32>, tensor<1x384x384xf32>) -> tensor<1x384x384xf32>
    %55 = "tfl.pseudo_const"() {value = dense<1.000000e+00> : tensor<f32>} : () -> tensor<f32>
    %56 = "tfl.sub"(%55, %10) {fused_activation_function = "NONE"} : (tensor<f32>, tensor<1x384x384xf32>) -> tensor<1x384x384xf32>
    %57 = "tfl.pseudo_const"() {value = dense<1.000000e+00> : tensor<f32>} : () -> tensor<f32>
    %58 = "tfl.sub"(%57, %10) {fused_activation_function = "NONE"} : (tensor<f32>, tensor<1x384x384xf32>) -> tensor<1x384x384xf32>
    %59 = "tfl.pseudo_const"() {value = dense<1.000000e+00> : tensor<f32>} : () -> tensor<f32>
    %60 = "tfl.sub"(%59, %10) {fused_activation_function = "NONE"} : (tensor<f32>, tensor<1x384x384xf32>) -> tensor<1x384x384xf32>
    %61 = "tfl.pseudo_const"() {value = dense<[1, 384, 128]> : tensor<3xi32>} : () -> tensor<3xi32>
    %62 = "tfl.reshape"(%8, %61) : (tensor<1x384x1x128xf32>, tensor<3xi32>) -> tensor<1x384x128xf32>
    %63 = "tfl.pseudo_const"() {value = dense<-1.000000e+04> : tensor<f32>} : () -> tensor<f32>
    %64 = "tfl.mul"(%14, %63) {fused_activation_function = "NONE"} : (tensor<1x384x384xf32>, tensor<f32>) -> tensor<1x384x384xf32>
    %65 = "tfl.pseudo_const"() {value = dense<-1.000000e+04> : tensor<f32>} : () -> tensor<f32>
    %66 = "tfl.mul"(%16, %65) {fused_activation_function = "NONE"} : (tensor<1x384x384xf32>, tensor<f32>) -> tensor<1x384x384xf32>
    %67 = "tfl.pseudo_const"() {value = dense<-1.000000e+04> : tensor<f32>} : () -> tensor<f32>
    %68 = "tfl.mul"(%18, %67) {fused_activation_function = "NONE"} : (tensor<1x384x384xf32>, tensor<f32>) -> tensor<1x384x384xf32>
    %69 = "tfl.pseudo_const"() {value = dense<-1.000000e+04> : tensor<f32>} : () -> tensor<f32>
    %70 = "tfl.mul"(%20, %69) {fused_activation_function = "NONE"} : (tensor<1x384x384xf32>, tensor<f32>) -> tensor<1x384x384xf32>
    %71 = "tfl.pseudo_const"() {value = dense<-1.000000e+04> : tensor<f32>} : () -> tensor<f32>
    %72 = "tfl.mul"(%22, %71) {fused_activation_function = "NONE"} : (tensor<1x384x384xf32>, tensor<f32>) -> tensor<1x384x384xf32>
    %73 = "tfl.pseudo_const"() {value = dense<-1.000000e+04> : tensor<f32>} : () -> tensor<f32>
    %74 = "tfl.mul"(%24, %73) {fused_activation_function = "NONE"} : (tensor<1x384x384xf32>, tensor<f32>) -> tensor<1x384x384xf32>
    %75 = "tfl.pseudo_const"() {value = dense<-1.000000e+04> : tensor<f32>} : () -> tensor<f32>
    %76 = "tfl.mul"(%26, %75) {fused_activation_function = "NONE"} : (tensor<1x384x384xf32>, tensor<f32>) -> tensor<1x384x384xf32>
    %77 = "tfl.pseudo_const"() {value = dense<-1.000000e+04> : tensor<f32>} : () -> tensor<f32>
    %78 = "tfl.mul"(%28, %77) {fused_activation_function = "NONE"} : (tensor<1x384x384xf32>, tensor<f32>) -> tensor<1x384x384xf32>
    %79 = "tfl.pseudo_const"() {value = dense<-1.000000e+04> : tensor<f32>} : () -> tensor<f32>
    %80 = "tfl.mul"(%30, %79) {fused_activation_function = "NONE"} : (tensor<1x384x384xf32>, tensor<f32>) -> tensor<1x384x384xf32>
    %81 = "tfl.pseudo_const"() {value = dense<-1.000000e+04> : tensor<f32>} : () -> tensor<f32>
    %82 = "tfl.mul"(%32, %81) {fused_activation_function = "NONE"} : (tensor<1x384x384xf32>, tensor<f32>) -> tensor<1x384x384xf32>
    %83 = "tfl.pseudo_const"() {value = dense<-1.000000e+04> : tensor<f32>} : () -> tensor<f32>
    %84 = "tfl.mul"(%34, %83) {fused_activation_function = "NONE"} : (tensor<1x384x384xf32>, tensor<f32>) -> tensor<1x384x384xf32>
    %85 = "tfl.pseudo_const"() {value = dense<-1.000000e+04> : tensor<f32>} : () -> tensor<f32>
    %86 = "tfl.mul"(%36, %85) {fused_activation_function = "NONE"} : (tensor<1x384x384xf32>, tensor<f32>) -> tensor<1x384x384xf32>
    %87 = "tfl.pseudo_const"() {value = dense<-1.000000e+04> : tensor<f32>} : () -> tensor<f32>
    %88 = "tfl.mul"(%38, %87) {fused_activation_function = "NONE"} : (tensor<1x384x384xf32>, tensor<f32>) -> tensor<1x384x384xf32>
    %89 = "tfl.pseudo_const"() {value = dense<-1.000000e+04> : tensor<f32>} : () -> tensor<f32>
    %90 = "tfl.mul"(%40, %89) {fused_activation_function = "NONE"} : (tensor<1x384x384xf32>, tensor<f32>) -> tensor<1x384x384xf32>
    %91 = "tfl.pseudo_const"() {value = dense<-1.000000e+04> : tensor<f32>} : () -> tensor<f32>
    %92 = "tfl.mul"(%42, %91) {fused_activation_function = "NONE"} : (tensor<1x384x384xf32>, tensor<f32>) -> tensor<1x384x384xf32>
    %93 = "tfl.pseudo_const"() {value = dense<-1.000000e+04> : tensor<f32>} : () -> tensor<f32>
    %94 = "tfl.mul"(%44, %93) {fused_activation_function = "NONE"} : (tensor<1x384x384xf32>, tensor<f32>) -> tensor<1x384x384xf32>
    %95 = "tfl.pseudo_const"() {value = dense<-1.000000e+04> : tensor<f32>} : () -> tensor<f32>
    %96 = "tfl.mul"(%46, %95) {fused_activation_function = "NONE"} : (tensor<1x384x384xf32>, tensor<f32>) -> tensor<1x384x384xf32>
    %97 = "tfl.pseudo_const"() {value = dense<-1.000000e+04> : tensor<f32>} : () -> tensor<f32>
    %98 = "tfl.mul"(%48, %97) {fused_activation_function = "NONE"} : (tensor<1x384x384xf32>, tensor<f32>) -> tensor<1x384x384xf32>
    %99 = "tfl.pseudo_const"() {value = dense<-1.000000e+04> : tensor<f32>} : () -> tensor<f32>
    %100 = "tfl.mul"(%50, %99) {fused_activation_function = "NONE"} : (tensor<1x384x384xf32>, tensor<f32>) -> tensor<1x384x384xf32>
    %101 = "tfl.pseudo_const"() {value = dense<-1.000000e+04> : tensor<f32>} : () -> tensor<f32>
    %102 = "tfl.mul"(%52, %101) {fused_activation_function = "NONE"} : (tensor<1x384x384xf32>, tensor<f32>) -> tensor<1x384x384xf32>
    %103 = "tfl.pseudo_const"() {value = dense<-1.000000e+04> : tensor<f32>} : () -> tensor<f32>
    %104 = "tfl.mul"(%54, %103) {fused_activation_function = "NONE"} : (tensor<1x384x384xf32>, tensor<f32>) -> tensor<1x384x384xf32>
    %105 = "tfl.pseudo_const"() {value = dense<-1.000000e+04> : tensor<f32>} : () -> tensor<f32>
    %106 = "tfl.mul"(%56, %105) {fused_activation_function = "NONE"} : (tensor<1x384x384xf32>, tensor<f32>) -> tensor<1x384x384xf32>
    %107 = "tfl.pseudo_const"() {value = dense<-1.000000e+04> : tensor<f32>} : () -> tensor<f32>
    %108 = "tfl.mul"(%58, %107) {fused_activation_function = "NONE"} : (tensor<1x384x384xf32>, tensor<f32>) -> tensor<1x384x384xf32>
    %109 = "tfl.pseudo_const"() {value = dense<-1.000000e+04> : tensor<f32>} : () -> tensor<f32>
    %110 = "tfl.mul"(%60, %109) {fused_activation_function = "NONE"} : (tensor<1x384x384xf32>, tensor<f32>) -> tensor<1x384x384xf32>
    %111 = "tfl.pseudo_const"() {value = dense<[0, 1, 0]> : tensor<3xi32>} : () -> tensor<3xi32>
    %112 = "tfl.pseudo_const"() {value = dense<[0, 0, 128]> : tensor<3xi32>} : () -> tensor<3xi32>
    %113 = "tfl.pseudo_const"() {value = dense<1> : tensor<3xi32>} : () -> tensor<3xi32>
    %114 = "tfl.strided_slice"(%62, %111, %112, %113) {begin_mask = 5 : i32, ellipsis_mask = 0 : i32, end_mask = 7 : i32, new_axis_mask = 0 : i32, shrink_axis_mask = 0 : i32} : (tensor<1x384x128xf32>, tensor<3xi32>, tensor<3xi32>, tensor<3xi32>) -> tensor<1x383x128xf32>
    %115 = "tfl.pseudo_const"() {value = dense<0> : tensor<3xi32>} : () -> tensor<3xi32>
    %116 = "tfl.pseudo_const"() {value = dense<[0, -1, 128]> : tensor<3xi32>} : () -> tensor<3xi32>
    %117 = "tfl.pseudo_const"() {value = dense<1> : tensor<3xi32>} : () -> tensor<3xi32>
    %118 = "tfl.strided_slice"(%62, %115, %116, %117) {begin_mask = 7 : i32, ellipsis_mask = 0 : i32, end_mask = 5 : i32, new_axis_mask = 0 : i32, shrink_axis_mask = 0 : i32} : (tensor<1x384x128xf32>, tensor<3xi32>, tensor<3xi32>, tensor<3xi32>) -> tensor<1x383x128xf32>
    %119 = "tfl.pseudo_const"() {value = dense<[[1, 1, 384, 384]]> : tensor<1x4xi32>} : () -> tensor<1x4xi32>
    %120 = "tfl.reshape"(%64, %119) : (tensor<1x384x384xf32>, tensor<1x4xi32>) -> tensor<1x1x384x384xf32>
    %121 = "tfl.pseudo_const"() {value = dense<[[1, 1, 384, 384]]> : tensor<1x4xi32>} : () -> tensor<1x4xi32>
    %122 = "tfl.reshape"(%66, %121) : (tensor<1x384x384xf32>, tensor<1x4xi32>) -> tensor<1x1x384x384xf32>
    %123 = "tfl.pseudo_const"() {value = dense<[[1, 1, 384, 384]]> : tensor<1x4xi32>} : () -> tensor<1x4xi32>
    %124 = "tfl.reshape"(%68, %123) : (tensor<1x384x384xf32>, tensor<1x4xi32>) -> tensor<1x1x384x384xf32>
    %125 = "tfl.pseudo_const"() {value = dense<[[1, 1, 384, 384]]> : tensor<1x4xi32>} : () -> tensor<1x4xi32>
    %126 = "tfl.reshape"(%70, %125) : (tensor<1x384x384xf32>, tensor<1x4xi32>) -> tensor<1x1x384x384xf32>
    %127 = "tfl.pseudo_const"() {value = dense<[[1, 1, 384, 384]]> : tensor<1x4xi32>} : () -> tensor<1x4xi32>
    %128 = "tfl.reshape"(%72, %127) : (tensor<1x384x384xf32>, tensor<1x4xi32>) -> tensor<1x1x384x384xf32>
    %129 = "tfl.pseudo_const"() {value = dense<[[1, 1, 384, 384]]> : tensor<1x4xi32>} : () -> tensor<1x4xi32>
    %130 = "tfl.reshape"(%74, %129) : (tensor<1x384x384xf32>, tensor<1x4xi32>) -> tensor<1x1x384x384xf32>
    %131 = "tfl.pseudo_const"() {value = dense<[[1, 1, 384, 384]]> : tensor<1x4xi32>} : () -> tensor<1x4xi32>
    %132 = "tfl.reshape"(%76, %131) : (tensor<1x384x384xf32>, tensor<1x4xi32>) -> tensor<1x1x384x384xf32>
    %133 = "tfl.pseudo_const"() {value = dense<[[1, 1, 384, 384]]> : tensor<1x4xi32>} : () -> tensor<1x4xi32>
    %134 = "tfl.reshape"(%78, %133) : (tensor<1x384x384xf32>, tensor<1x4xi32>) -> tensor<1x1x384x384xf32>
    %135 = "tfl.pseudo_const"() {value = dense<[[1, 1, 384, 384]]> : tensor<1x4xi32>} : () -> tensor<1x4xi32>
    %136 = "tfl.reshape"(%80, %135) : (tensor<1x384x384xf32>, tensor<1x4xi32>) -> tensor<1x1x384x384xf32>
    %137 = "tfl.pseudo_const"() {value = dense<[[1, 1, 384, 384]]> : tensor<1x4xi32>} : () -> tensor<1x4xi32>
    %138 = "tfl.reshape"(%82, %137) : (tensor<1x384x384xf32>, tensor<1x4xi32>) -> tensor<1x1x384x384xf32>
    %139 = "tfl.pseudo_const"() {value = dense<[[1, 1, 384, 384]]> : tensor<1x4xi32>} : () -> tensor<1x4xi32>
    %140 = "tfl.reshape"(%84, %139) : (tensor<1x384x384xf32>, tensor<1x4xi32>) -> tensor<1x1x384x384xf32>
    %141 = "tfl.pseudo_const"() {value = dense<[[1, 1, 384, 384]]> : tensor<1x4xi32>} : () -> tensor<1x4xi32>
    %142 = "tfl.reshape"(%86, %141) : (tensor<1x384x384xf32>, tensor<1x4xi32>) -> tensor<1x1x384x384xf32>
    %143 = "tfl.pseudo_const"() {value = dense<[[1, 1, 384, 384]]> : tensor<1x4xi32>} : () -> tensor<1x4xi32>
    %144 = "tfl.reshape"(%88, %143) : (tensor<1x384x384xf32>, tensor<1x4xi32>) -> tensor<1x1x384x384xf32>
    %145 = "tfl.pseudo_const"() {value = dense<[[1, 1, 384, 384]]> : tensor<1x4xi32>} : () -> tensor<1x4xi32>
    %146 = "tfl.reshape"(%90, %145) : (tensor<1x384x384xf32>, tensor<1x4xi32>) -> tensor<1x1x384x384xf32>
    %147 = "tfl.pseudo_const"() {value = dense<[[1, 1, 384, 384]]> : tensor<1x4xi32>} : () -> tensor<1x4xi32>
    %148 = "tfl.reshape"(%92, %147) : (tensor<1x384x384xf32>, tensor<1x4xi32>) -> tensor<1x1x384x384xf32>
    %149 = "tfl.pseudo_const"() {value = dense<[[1, 1, 384, 384]]> : tensor<1x4xi32>} : () -> tensor<1x4xi32>
    %150 = "tfl.reshape"(%94, %149) : (tensor<1x384x384xf32>, tensor<1x4xi32>) -> tensor<1x1x384x384xf32>
    %151 = "tfl.pseudo_const"() {value = dense<[[1, 1, 384, 384]]> : tensor<1x4xi32>} : () -> tensor<1x4xi32>
    %152 = "tfl.reshape"(%96, %151) : (tensor<1x384x384xf32>, tensor<1x4xi32>) -> tensor<1x1x384x384xf32>
    %153 = "tfl.pseudo_const"() {value = dense<[[1, 1, 384, 384]]> : tensor<1x4xi32>} : () -> tensor<1x4xi32>
    %154 = "tfl.reshape"(%98, %153) : (tensor<1x384x384xf32>, tensor<1x4xi32>) -> tensor<1x1x384x384xf32>
    %155 = "tfl.pseudo_const"() {value = dense<[[1, 1, 384, 384]]> : tensor<1x4xi32>} : () -> tensor<1x4xi32>
    %156 = "tfl.reshape"(%100, %155) : (tensor<1x384x384xf32>, tensor<1x4xi32>) -> tensor<1x1x384x384xf32>
    %157 = "tfl.pseudo_const"() {value = dense<[[1, 1, 384, 384]]> : tensor<1x4xi32>} : () -> tensor<1x4xi32>
    %158 = "tfl.reshape"(%102, %157) : (tensor<1x384x384xf32>, tensor<1x4xi32>) -> tensor<1x1x384x384xf32>
    %159 = "tfl.pseudo_const"() {value = dense<[[1, 1, 384, 384]]> : tensor<1x4xi32>} : () -> tensor<1x4xi32>
    %160 = "tfl.reshape"(%104, %159) : (tensor<1x384x384xf32>, tensor<1x4xi32>) -> tensor<1x1x384x384xf32>
    %161 = "tfl.pseudo_const"() {value = dense<[[1, 1, 384, 384]]> : tensor<1x4xi32>} : () -> tensor<1x4xi32>
    %162 = "tfl.reshape"(%106, %161) : (tensor<1x384x384xf32>, tensor<1x4xi32>) -> tensor<1x1x384x384xf32>
    %163 = "tfl.pseudo_const"() {value = dense<[[1, 1, 384, 384]]> : tensor<1x4xi32>} : () -> tensor<1x4xi32>
    %164 = "tfl.reshape"(%108, %163) : (tensor<1x384x384xf32>, tensor<1x4xi32>) -> tensor<1x1x384x384xf32>
    %165 = "tfl.pseudo_const"() {value = dense<[[1, 1, 384, 384]]> : tensor<1x4xi32>} : () -> tensor<1x4xi32>
    %166 = "tfl.reshape"(%110, %165) : (tensor<1x384x384xf32>, tensor<1x4xi32>) -> tensor<1x1x384x384xf32>
    %167 = "tfl.pseudo_const"() {value = dense<[[0, 0], [0, 1], [0, 0]]> : tensor<3x2xi32>} : () -> tensor<3x2xi32>
    %168 = "tfl.pad"(%114, %167) : (tensor<1x383x128xf32>, tensor<3x2xi32>) -> tensor<1x384x128xf32>
    %169 = "tfl.pseudo_const"() {value = dense<[[0, 0], [1, 0], [0, 0]]> : tensor<3x2xi32>} : () -> tensor<3x2xi32>
    %170 = "tfl.pad"(%118, %169) : (tensor<1x383x128xf32>, tensor<3x2xi32>) -> tensor<1x384x128xf32>
    %171 = "tfl.concatenation"(%168, %62, %170) {axis = 2 : i32, fused_activation_function = "NONE"} : (tensor<1x384x128xf32>, tensor<1x384x128xf32>, tensor<1x384x128xf32>) -> tensor<1x384x384xf32>
    %172 = "tfl.pseudo_const"() {value = dense<"hex_value_removed_for_legibility_this_model_will_not_run_correctly_without_it"> : tensor<512x384xf32>} : () -> tensor<512x384xf32>
    %173 = "tfl.pseudo_const"() {value = dense<"hex_value_removed_for_legibility_this_model_will_not_run_correctly_without_it"> : tensor<512xf32>} : () -> tensor<512xf32>
    %174 = "tfl.fully_connected"(%171, %172, %173) {fused_activation_function = "NONE", keep_num_dims = false, weights_format = "DEFAULT"} : (tensor<1x384x384xf32>, tensor<512x384xf32>, tensor<512xf32>) -> tensor<384x512xf32>
    %175 = "tfl.pseudo_const"() {value = dense<[1, 384, 512]> : tensor<3xi32>} : () -> tensor<3xi32>
    %176 = "tfl.reshape"(%174, %175) : (tensor<384x512xf32>, tensor<3xi32>) -> tensor<1x384x512xf32>
    %177 = tfl.add %176, %12 {fused_activation_function = "NONE"} : tensor<1x384x512xf32>
    %178 = "tfl.pseudo_const"() {value = dense<"hex_value_removed_for_legibility_this_model_will_not_run_correctly_without_it"> : tensor<512xf32>} : () -> tensor<512xf32>
    %179 = "tfl.mul"(%177, %178) {fused_activation_function = "NONE"} : (tensor<1x384x512xf32>, tensor<512xf32>) -> tensor<1x384x512xf32>
    %180 = "tfl.pseudo_const"() {value = dense<"hex_value_removed_for_legibility_this_model_will_not_run_correctly_without_it"> : tensor<512xf32>} : () -> tensor<512xf32>
    %181 = "tfl.add"(%179, %180) {fused_activation_function = "NONE"} : (tensor<1x384x512xf32>, tensor<512xf32>) -> tensor<1x384x512xf32>
    %182 = "tfl.pseudo_const"() {value = dense<"hex_value_removed_for_legibility_this_model_will_not_run_correctly_without_it"> : tensor<128x512xf32>} : () -> tensor<128x512xf32>
    %183 = "tfl.pseudo_const"() {value = dense<"hex_value_removed_for_legibility_this_model_will_not_run_correctly_without_it"> : tensor<128xf32>} : () -> tensor<128xf32>
    %184 = "tfl.fully_connected"(%181, %182, %183) {fused_activation_function = "NONE", keep_num_dims = false, weights_format = "DEFAULT"} : (tensor<1x384x512xf32>, tensor<128x512xf32>, tensor<128xf32>) -> tensor<384x128xf32>
    %185 = "tfl.pseudo_const"() {value = dense<"hex_value_removed_for_legibility_this_model_will_not_run_correctly_without_it"> : tensor<128x512xf32>} : () -> tensor<128x512xf32>
    %186 = "tfl.pseudo_const"() {value = dense<"hex_value_removed_for_legibility_this_model_will_not_run_correctly_without_it"> : tensor<128xf32>} : () -> tensor<128xf32>
    %187 = "tfl.fully_connected"(%181, %185, %186) {fused_activation_function = "NONE", keep_num_dims = false, weights_format = "DEFAULT"} : (tensor<1x384x512xf32>, tensor<128x512xf32>, tensor<128xf32>) -> tensor<384x128xf32>
    %188 = "tfl.pseudo_const"() {value = dense<"hex_value_removed_for_legibility_this_model_will_not_run_correctly_without_it"> : tensor<128x512xf32>} : () -> tensor<128x512xf32>
    %189 = "tfl.pseudo_const"() {value = dense<"hex_value_removed_for_legibility_this_model_will_not_run_correctly_without_it"> : tensor<128xf32>} : () -> tensor<128xf32>
    %190 = "tfl.fully_connected"(%181, %188, %189) {fused_activation_function = "NONE", keep_num_dims = false, weights_format = "DEFAULT"} : (tensor<1x384x512xf32>, tensor<128x512xf32>, tensor<128xf32>) -> tensor<384x128xf32>
    %191 = "tfl.pseudo_const"() {value = dense<[1, 384, 128]> : tensor<3xi32>} : () -> tensor<3xi32>
    %192 = "tfl.reshape"(%184, %191) : (tensor<384x128xf32>, tensor<3xi32>) -> tensor<1x384x128xf32>
    %193 = "tfl.pseudo_const"() {value = dense<[1, 384, 128]> : tensor<3xi32>} : () -> tensor<3xi32>
    %194 = "tfl.reshape"(%187, %193) : (tensor<384x128xf32>, tensor<3xi32>) -> tensor<1x384x128xf32>
    %195 = "tfl.pseudo_const"() {value = dense<[1, 384, 128]> : tensor<3xi32>} : () -> tensor<3xi32>
    %196 = "tfl.reshape"(%190, %195) : (tensor<384x128xf32>, tensor<3xi32>) -> tensor<1x384x128xf32>
    %197 = "tfl.pseudo_const"() {value = dense<"hex_value_removed_for_legibility_this_model_will_not_run_correctly_without_it"> : tensor<128x128xf32>} : () -> tensor<128x128xf32>
    %198 = "tfl.pseudo_const"() {value = dense<"hex_value_removed_for_legibility_this_model_will_not_run_correctly_without_it"> : tensor<128xf32>} : () -> tensor<128xf32>
    %199 = "tfl.fully_connected"(%194, %197, %198) {fused_activation_function = "NONE", keep_num_dims = false, weights_format = "DEFAULT"} : (tensor<1x384x128xf32>, tensor<128x128xf32>, tensor<128xf32>) -> tensor<384x128xf32>
    %200 = "tfl.pseudo_const"() {value = dense<"hex_value_removed_for_legibility_this_model_will_not_run_correctly_without_it"> : tensor<128x128xf32>} : () -> tensor<128x128xf32>
    %201 = "tfl.pseudo_const"() {value = dense<"hex_value_removed_for_legibility_this_model_will_not_run_correctly_without_it"> : tensor<128xf32>} : () -> tensor<128xf32>
    %202 = "tfl.fully_connected"(%194, %200, %201) {fused_activation_function = "NONE", keep_num_dims = false, weights_format = "DEFAULT"} : (tensor<1x384x128xf32>, tensor<128x128xf32>, tensor<128xf32>) -> tensor<384x128xf32>
    %203 = "tfl.pseudo_const"() {value = dense<"hex_value_removed_for_legibility_this_model_will_not_run_correctly_without_it"> : tensor<128x128xf32>} : () -> tensor<128x128xf32>
    %204 = "tfl.pseudo_const"() {value = dense<"hex_value_removed_for_legibility_this_model_will_not_run_correctly_without_it"> : tensor<128xf32>} : () -> tensor<128xf32>
    %205 = "tfl.fully_connected"(%196, %203, %204) {fused_activation_function = "NONE", keep_num_dims = false, weights_format = "DEFAULT"} : (tensor<1x384x128xf32>, tensor<128x128xf32>, tensor<128xf32>) -> tensor<384x128xf32>
    %206 = "tfl.pseudo_const"() {value = dense<[1, 384, 4, 32]> : tensor<4xi32>} : () -> tensor<4xi32>
    %207 = "tfl.reshape"(%199, %206) : (tensor<384x128xf32>, tensor<4xi32>) -> tensor<1x384x4x32xf32>
    %208 = "tfl.pseudo_const"() {value = dense<[1, 384, 4, 32]> : tensor<4xi32>} : () -> tensor<4xi32>
    %209 = "tfl.reshape"(%202, %208) : (tensor<384x128xf32>, tensor<4xi32>) -> tensor<1x384x4x32xf32>
    %210 = "tfl.pseudo_const"() {value = dense<[1, 384, 4, 32]> : tensor<4xi32>} : () -> tensor<4xi32>
    %211 = "tfl.reshape"(%205, %210) : (tensor<384x128xf32>, tensor<4xi32>) -> tensor<1x384x4x32xf32>
    %212 = "tfl.pseudo_const"() {value = dense<[0, 2, 1, 3]> : tensor<4xi32>} : () -> tensor<4xi32>
    %213 = "tfl.transpose"(%207, %212) : (tensor<1x384x4x32xf32>, tensor<4xi32>) -> tensor<1x4x384x32xf32>
    %214 = "tfl.pseudo_const"() {value = dense<[0, 2, 1, 3]> : tensor<4xi32>} : () -> tensor<4xi32>
    %215 = "tfl.transpose"(%209, %214) : (tensor<1x384x4x32xf32>, tensor<4xi32>) -> tensor<1x4x384x32xf32>
    %216 = "tfl.pseudo_const"() {value = dense<[0, 2, 1, 3]> : tensor<4xi32>} : () -> tensor<4xi32>
    %217 = "tfl.transpose"(%211, %216) : (tensor<1x384x4x32xf32>, tensor<4xi32>) -> tensor<1x4x384x32xf32>
    %218 = "tfl.pseudo_const"() {value = dense<[0, 1, 3, 2]> : tensor<4xi32>} : () -> tensor<4xi32>
    %219 = "tfl.transpose"(%215, %218) : (tensor<1x4x384x32xf32>, tensor<4xi32>) -> tensor<1x4x32x384xf32>
    %220 = "tfl.pseudo_const"() {value = dense<[4, 384, 32]> : tensor<3xi32>} : () -> tensor<3xi32>
    %221 = "tfl.reshape"(%213, %220) : (tensor<1x4x384x32xf32>, tensor<3xi32>) -> tensor<4x384x32xf32>
    %222 = "tfl.pseudo_const"() {value = dense<0> : tensor<3xi32>} : () -> tensor<3xi32>
    %223 = "tfl.pseudo_const"() {value = dense<[1, 384, 32]> : tensor<3xi32>} : () -> tensor<3xi32>
    %224 = "tfl.slice"(%221, %222, %223) : (tensor<4x384x32xf32>, tensor<3xi32>, tensor<3xi32>) -> tensor<1x384x32xf32>
    %225 = "tfl.pseudo_const"() {value = dense<[1, 0, 0]> : tensor<3xi32>} : () -> tensor<3xi32>
    %226 = "tfl.pseudo_const"() {value = dense<[1, 384, 32]> : tensor<3xi32>} : () -> tensor<3xi32>
    %227 = "tfl.slice"(%221, %225, %226) : (tensor<4x384x32xf32>, tensor<3xi32>, tensor<3xi32>) -> tensor<1x384x32xf32>
    %228 = "tfl.pseudo_const"() {value = dense<[2, 0, 0]> : tensor<3xi32>} : () -> tensor<3xi32>
    %229 = "tfl.pseudo_const"() {value = dense<[1, 384, 32]> : tensor<3xi32>} : () -> tensor<3xi32>
    %230 = "tfl.slice"(%221, %228, %229) : (tensor<4x384x32xf32>, tensor<3xi32>, tensor<3xi32>) -> tensor<1x384x32xf32>
    %231 = "tfl.pseudo_const"() {value = dense<[3, 0, 0]> : tensor<3xi32>} : () -> tensor<3xi32>
    %232 = "tfl.pseudo_const"() {value = dense<[1, 384, 32]> : tensor<3xi32>} : () -> tensor<3xi32>
    %233 = "tfl.slice"(%221, %231, %232) : (tensor<4x384x32xf32>, tensor<3xi32>, tensor<3xi32>) -> tensor<1x384x32xf32>
    %234 = "tfl.pseudo_const"() {value = dense<[4, 32, 384]> : tensor<3xi32>} : () -> tensor<3xi32>
    %235 = "tfl.reshape"(%219, %234) : (tensor<1x4x32x384xf32>, tensor<3xi32>) -> tensor<4x32x384xf32>
    %236 = "tfl.pseudo_const"() {value = dense<0> : tensor<3xi32>} : () -> tensor<3xi32>
    %237 = "tfl.pseudo_const"() {value = dense<[1, 32, 384]> : tensor<3xi32>} : () -> tensor<3xi32>
    %238 = "tfl.slice"(%235, %236, %237) : (tensor<4x32x384xf32>, tensor<3xi32>, tensor<3xi32>) -> tensor<1x32x384xf32>
    %239 = "tfl.pseudo_const"() {value = dense<[2, 1, 0]> : tensor<3xi32>} : () -> tensor<3xi32>
    %240 = "tfl.transpose"(%238, %239) : (tensor<1x32x384xf32>, tensor<3xi32>) -> tensor<384x32x1xf32>
    %241 = "tfl.pseudo_const"() {value = dense<[1, 0, 0]> : tensor<3xi32>} : () -> tensor<3xi32>
    %242 = "tfl.pseudo_const"() {value = dense<[1, 32, 384]> : tensor<3xi32>} : () -> tensor<3xi32>
    %243 = "tfl.slice"(%235, %241, %242) : (tensor<4x32x384xf32>, tensor<3xi32>, tensor<3xi32>) -> tensor<1x32x384xf32>
    %244 = "tfl.pseudo_const"() {value = dense<[2, 1, 0]> : tensor<3xi32>} : () -> tensor<3xi32>
    %245 = "tfl.transpose"(%243, %244) : (tensor<1x32x384xf32>, tensor<3xi32>) -> tensor<384x32x1xf32>
    %246 = "tfl.pseudo_const"() {value = dense<[2, 0, 0]> : tensor<3xi32>} : () -> tensor<3xi32>
    %247 = "tfl.pseudo_const"() {value = dense<[1, 32, 384]> : tensor<3xi32>} : () -> tensor<3xi32>
    %248 = "tfl.slice"(%235, %246, %247) : (tensor<4x32x384xf32>, tensor<3xi32>, tensor<3xi32>) -> tensor<1x32x384xf32>
    %249 = "tfl.pseudo_const"() {value = dense<[2, 1, 0]> : tensor<3xi32>} : () -> tensor<3xi32>
    %250 = "tfl.transpose"(%248, %249) : (tensor<1x32x384xf32>, tensor<3xi32>) -> tensor<384x32x1xf32>
    %251 = "tfl.pseudo_const"() {value = dense<[3, 0, 0]> : tensor<3xi32>} : () -> tensor<3xi32>
    %252 = "tfl.pseudo_const"() {value = dense<[1, 32, 384]> : tensor<3xi32>} : () -> tensor<3xi32>
    %253 = "tfl.slice"(%235, %251, %252) : (tensor<4x32x384xf32>, tensor<3xi32>, tensor<3xi32>) -> tensor<1x32x384xf32>
    %254 = "tfl.pseudo_const"() {value = dense<[2, 1, 0]> : tensor<3xi32>} : () -> tensor<3xi32>
    %255 = "tfl.transpose"(%253, %254) : (tensor<1x32x384xf32>, tensor<3xi32>) -> tensor<384x32x1xf32>
    %256 = "tfl.pseudo_const"() {value = dense<[384, 32]> : tensor<2xi32>} : () -> tensor<2xi32>
    %257 = "tfl.reshape"(%240, %256) : (tensor<384x32x1xf32>, tensor<2xi32>) -> tensor<384x32xf32>
    %258 = "tfl.pseudo_const"() {value = dense<0.000000e+00> : tensor<384xf32>} : () -> tensor<384xf32>
    %259 = "tfl.fully_connected"(%224, %257, %258) {fused_activation_function = "NONE", keep_num_dims = false, weights_format = "DEFAULT"} : (tensor<1x384x32xf32>, tensor<384x32xf32>, tensor<384xf32>) -> tensor<384x384xf32>
    %260 = "tfl.pseudo_const"() {value = dense<[384, 32]> : tensor<2xi32>} : () -> tensor<2xi32>
    %261 = "tfl.reshape"(%245, %260) : (tensor<384x32x1xf32>, tensor<2xi32>) -> tensor<384x32xf32>
    %262 = "tfl.fully_connected"(%227, %261, %258) {fused_activation_function = "NONE", keep_num_dims = false, weights_format = "DEFAULT"} : (tensor<1x384x32xf32>, tensor<384x32xf32>, tensor<384xf32>) -> tensor<384x384xf32>
    %263 = "tfl.pseudo_const"() {value = dense<[384, 32]> : tensor<2xi32>} : () -> tensor<2xi32>
    %264 = "tfl.reshape"(%250, %263) : (tensor<384x32x1xf32>, tensor<2xi32>) -> tensor<384x32xf32>
    %265 = "tfl.fully_connected"(%230, %264, %258) {fused_activation_function = "NONE", keep_num_dims = false, weights_format = "DEFAULT"} : (tensor<1x384x32xf32>, tensor<384x32xf32>, tensor<384xf32>) -> tensor<384x384xf32>
    %266 = "tfl.pseudo_const"() {value = dense<[384, 32]> : tensor<2xi32>} : () -> tensor<2xi32>
    %267 = "tfl.reshape"(%255, %266) : (tensor<384x32x1xf32>, tensor<2xi32>) -> tensor<384x32xf32>
    %268 = "tfl.fully_connected"(%233, %267, %258) {fused_activation_function = "NONE", keep_num_dims = false, weights_format = "DEFAULT"} : (tensor<1x384x32xf32>, tensor<384x32xf32>, tensor<384xf32>) -> tensor<384x384xf32>
    %269 = "tfl.pack"(%259, %262, %265, %268) {axis = 0 : i32, values_count = 4 : i32} : (tensor<384x384xf32>, tensor<384x384xf32>, tensor<384x384xf32>, tensor<384x384xf32>) -> tensor<4x384x384xf32>
    %270 = "tfl.pseudo_const"() {value = dense<0.176776692> : tensor<f32>} : () -> tensor<f32>
    %271 = "tfl.mul"(%269, %270) {fused_activation_function = "NONE"} : (tensor<4x384x384xf32>, tensor<f32>) -> tensor<4x384x384xf32>
    %272 = "tfl.pseudo_const"() {value = dense<[1, 4, 384, 384]> : tensor<4xi32>} : () -> tensor<4xi32>
    %273 = "tfl.reshape"(%271, %272) : (tensor<4x384x384xf32>, tensor<4xi32>) -> tensor<1x4x384x384xf32>
    %274 = "tfl.add"(%273, %120) {fused_activation_function = "NONE"} : (tensor<1x4x384x384xf32>, tensor<1x1x384x384xf32>) -> tensor<1x4x384x384xf32>
    %275 = "tfl.softmax"(%274) {beta = 1.000000e+00 : f32} : (tensor<1x4x384x384xf32>) -> tensor<1x4x384x384xf32>
    %276 = "tfl.pseudo_const"() {value = dense<[4, 384, 384]> : tensor<3xi32>} : () -> tensor<3xi32>
    %277 = "tfl.reshape"(%275, %276) : (tensor<1x4x384x384xf32>, tensor<3xi32>) -> tensor<4x384x384xf32>
    %278 = "tfl.pseudo_const"() {value = dense<0> : tensor<3xi32>} : () -> tensor<3xi32>
    %279 = "tfl.pseudo_const"() {value = dense<[1, 384, 384]> : tensor<3xi32>} : () -> tensor<3xi32>
    %280 = "tfl.slice"(%277, %278, %279) : (tensor<4x384x384xf32>, tensor<3xi32>, tensor<3xi32>) -> tensor<1x384x384xf32>
    %281 = "tfl.pseudo_const"() {value = dense<[1, 0, 0]> : tensor<3xi32>} : () -> tensor<3xi32>
    %282 = "tfl.pseudo_const"() {value = dense<[1, 384, 384]> : tensor<3xi32>} : () -> tensor<3xi32>
    %283 = "tfl.slice"(%277, %281, %282) : (tensor<4x384x384xf32>, tensor<3xi32>, tensor<3xi32>) -> tensor<1x384x384xf32>
    %284 = "tfl.pseudo_const"() {value = dense<[2, 0, 0]> : tensor<3xi32>} : () -> tensor<3xi32>
    %285 = "tfl.pseudo_const"() {value = dense<[1, 384, 384]> : tensor<3xi32>} : () -> tensor<3xi32>
    %286 = "tfl.slice"(%277, %284, %285) : (tensor<4x384x384xf32>, tensor<3xi32>, tensor<3xi32>) -> tensor<1x384x384xf32>
    %287 = "tfl.pseudo_const"() {value = dense<[3, 0, 0]> : tensor<3xi32>} : () -> tensor<3xi32>
    %288 = "tfl.pseudo_const"() {value = dense<[1, 384, 384]> : tensor<3xi32>} : () -> tensor<3xi32>
    %289 = "tfl.slice"(%277, %287, %288) : (tensor<4x384x384xf32>, tensor<3xi32>, tensor<3xi32>) -> tensor<1x384x384xf32>
    %290 = "tfl.pseudo_const"() {value = dense<[4, 384, 32]> : tensor<3xi32>} : () -> tensor<3xi32>
    %291 = "tfl.reshape"(%217, %290) : (tensor<1x4x384x32xf32>, tensor<3xi32>) -> tensor<4x384x32xf32>
    %292 = "tfl.pseudo_const"() {value = dense<0> : tensor<3xi32>} : () -> tensor<3xi32>
    %293 = "tfl.pseudo_const"() {value = dense<[1, 384, 32]> : tensor<3xi32>} : () -> tensor<3xi32>
    %294 = "tfl.slice"(%291, %292, %293) : (tensor<4x384x32xf32>, tensor<3xi32>, tensor<3xi32>) -> tensor<1x384x32xf32>
    %295 = "tfl.pseudo_const"() {value = dense<[2, 1, 0]> : tensor<3xi32>} : () -> tensor<3xi32>
    %296 = "tfl.transpose"(%294, %295) : (tensor<1x384x32xf32>, tensor<3xi32>) -> tensor<32x384x1xf32>
    %297 = "tfl.pseudo_const"() {value = dense<[1, 0, 0]> : tensor<3xi32>} : () -> tensor<3xi32>
    %298 = "tfl.pseudo_const"() {value = dense<[1, 384, 32]> : tensor<3xi32>} : () -> tensor<3xi32>
    %299 = "tfl.slice"(%291, %297, %298) : (tensor<4x384x32xf32>, tensor<3xi32>, tensor<3xi32>) -> tensor<1x384x32xf32>
    %300 = "tfl.pseudo_const"() {value = dense<[2, 1, 0]> : tensor<3xi32>} : () -> tensor<3xi32>
    %301 = "tfl.transpose"(%299, %300) : (tensor<1x384x32xf32>, tensor<3xi32>) -> tensor<32x384x1xf32>
    %302 = "tfl.pseudo_const"() {value = dense<[2, 0, 0]> : tensor<3xi32>} : () -> tensor<3xi32>
    %303 = "tfl.pseudo_const"() {value = dense<[1, 384, 32]> : tensor<3xi32>} : () -> tensor<3xi32>
    %304 = "tfl.slice"(%291, %302, %303) : (tensor<4x384x32xf32>, tensor<3xi32>, tensor<3xi32>) -> tensor<1x384x32xf32>
    %305 = "tfl.pseudo_const"() {value = dense<[2, 1, 0]> : tensor<3xi32>} : () -> tensor<3xi32>
    %306 = "tfl.transpose"(%304, %305) : (tensor<1x384x32xf32>, tensor<3xi32>) -> tensor<32x384x1xf32>
    %307 = "tfl.pseudo_const"() {value = dense<[3, 0, 0]> : tensor<3xi32>} : () -> tensor<3xi32>
    %308 = "tfl.pseudo_const"() {value = dense<[1, 384, 32]> : tensor<3xi32>} : () -> tensor<3xi32>
    %309 = "tfl.slice"(%291, %307, %308) : (tensor<4x384x32xf32>, tensor<3xi32>, tensor<3xi32>) -> tensor<1x384x32xf32>
    %310 = "tfl.pseudo_const"() {value = dense<[2, 1, 0]> : tensor<3xi32>} : () -> tensor<3xi32>
    %311 = "tfl.transpose"(%309, %310) : (tensor<1x384x32xf32>, tensor<3xi32>) -> tensor<32x384x1xf32>
    %312 = "tfl.pseudo_const"() {value = dense<[32, 384]> : tensor<2xi32>} : () -> tensor<2xi32>
    %313 = "tfl.reshape"(%296, %312) : (tensor<32x384x1xf32>, tensor<2xi32>) -> tensor<32x384xf32>
    %314 = "tfl.pseudo_const"() {value = dense<0.000000e+00> : tensor<32xf32>} : () -> tensor<32xf32>
    %315 = "tfl.fully_connected"(%280, %313, %314) {fused_activation_function = "NONE", keep_num_dims = false, weights_format = "DEFAULT"} : (tensor<1x384x384xf32>, tensor<32x384xf32>, tensor<32xf32>) -> tensor<384x32xf32>
    %316 = "tfl.pseudo_const"() {value = dense<[32, 384]> : tensor<2xi32>} : () -> tensor<2xi32>
    %317 = "tfl.reshape"(%301, %316) : (tensor<32x384x1xf32>, tensor<2xi32>) -> tensor<32x384xf32>
    %318 = "tfl.fully_connected"(%283, %317, %314) {fused_activation_function = "NONE", keep_num_dims = false, weights_format = "DEFAULT"} : (tensor<1x384x384xf32>, tensor<32x384xf32>, tensor<32xf32>) -> tensor<384x32xf32>
    %319 = "tfl.pseudo_const"() {value = dense<[32, 384]> : tensor<2xi32>} : () -> tensor<2xi32>
    %320 = "tfl.reshape"(%306, %319) : (tensor<32x384x1xf32>, tensor<2xi32>) -> tensor<32x384xf32>
    %321 = "tfl.fully_connected"(%286, %320, %314) {fused_activation_function = "NONE", keep_num_dims = false, weights_format = "DEFAULT"} : (tensor<1x384x384xf32>, tensor<32x384xf32>, tensor<32xf32>) -> tensor<384x32xf32>
    %322 = "tfl.pseudo_const"() {value = dense<[32, 384]> : tensor<2xi32>} : () -> tensor<2xi32>
    %323 = "tfl.reshape"(%311, %322) : (tensor<32x384x1xf32>, tensor<2xi32>) -> tensor<32x384xf32>
    %324 = "tfl.fully_connected"(%289, %323, %314) {fused_activation_function = "NONE", keep_num_dims = false, weights_format = "DEFAULT"} : (tensor<1x384x384xf32>, tensor<32x384xf32>, tensor<32xf32>) -> tensor<384x32xf32>
    %325 = "tfl.pack"(%315, %318, %321, %324) {axis = 0 : i32, values_count = 4 : i32} : (tensor<384x32xf32>, tensor<384x32xf32>, tensor<384x32xf32>, tensor<384x32xf32>) -> tensor<4x384x32xf32>
    %326 = "tfl.pseudo_const"() {value = dense<[1, 0, 2]> : tensor<3xi32>} : () -> tensor<3xi32>
    %327 = "tfl.transpose"(%325, %326) : (tensor<4x384x32xf32>, tensor<3xi32>) -> tensor<384x4x32xf32>
    %328 = "tfl.pseudo_const"() {value = dense<[1, 384, 4, 32]> : tensor<4xi32>} : () -> tensor<4xi32>
    %329 = "tfl.reshape"(%327, %328) : (tensor<384x4x32xf32>, tensor<4xi32>) -> tensor<1x384x4x32xf32>
    %330 = "tfl.pseudo_const"() {value = dense<"hex_value_removed_for_legibility_this_model_will_not_run_correctly_without_it"> : tensor<128x128xf32>} : () -> tensor<128x128xf32>
    %331 = "tfl.pseudo_const"() {value = dense<"hex_value_removed_for_legibility_this_model_will_not_run_correctly_without_it"> : tensor<128xf32>} : () -> tensor<128xf32>
    %332 = "tfl.fully_connected"(%329, %330, %331) {fused_activation_function = "NONE", keep_num_dims = false, weights_format = "DEFAULT"} : (tensor<1x384x4x32xf32>, tensor<128x128xf32>, tensor<128xf32>) -> tensor<384x128xf32>
    %333 = "tfl.pseudo_const"() {value = dense<[1, 384, 128]> : tensor<3xi32>} : () -> tensor<3xi32>
    %334 = "tfl.reshape"(%332, %333) : (tensor<384x128xf32>, tensor<3xi32>) -> tensor<1x384x128xf32>
    %335 = tfl.add %334, %192 {fused_activation_function = "NONE"} : tensor<1x384x128xf32>
    %336 = "tfl.pseudo_const"() {value = dense<"hex_value_removed_for_legibility_this_model_will_not_run_correctly_without_it"> : tensor<128xf32>} : () -> tensor<128xf32>
    %337 = "tfl.mul"(%335, %336) {fused_activation_function = "NONE"} : (tensor<1x384x128xf32>, tensor<128xf32>) -> tensor<1x384x128xf32>
    %338 = "tfl.pseudo_const"() {value = dense<"hex_value_removed_for_legibility_this_model_will_not_run_correctly_without_it"> : tensor<128xf32>} : () -> tensor<128xf32>
    %339 = "tfl.add"(%337, %338) {fused_activation_function = "NONE"} : (tensor<1x384x128xf32>, tensor<128xf32>) -> tensor<1x384x128xf32>
    %340 = "tfl.pseudo_const"() {value = dense<"hex_value_removed_for_legibility_this_model_will_not_run_correctly_without_it"> : tensor<512x128xf32>} : () -> tensor<512x128xf32>
    %341 = "tfl.pseudo_const"() {value = dense<"hex_value_removed_for_legibility_this_model_will_not_run_correctly_without_it"> : tensor<512xf32>} : () -> tensor<512xf32>
    %342 = "tfl.fully_connected"(%339, %340, %341) {fused_activation_function = "RELU", keep_num_dims = false, weights_format = "DEFAULT"} : (tensor<1x384x128xf32>, tensor<512x128xf32>, tensor<512xf32>) -> tensor<384x512xf32>
    %343 = "tfl.pseudo_const"() {value = dense<"hex_value_removed_for_legibility_this_model_will_not_run_correctly_without_it"> : tensor<128x512xf32>} : () -> tensor<128x512xf32>
    %344 = "tfl.pseudo_const"() {value = dense<"hex_value_removed_for_legibility_this_model_will_not_run_correctly_without_it"> : tensor<128xf32>} : () -> tensor<128xf32>
    %345 = "tfl.fully_connected"(%342, %343, %344) {fused_activation_function = "NONE", keep_num_dims = false, weights_format = "DEFAULT"} : (tensor<384x512xf32>, tensor<128x512xf32>, tensor<128xf32>) -> tensor<384x128xf32>
    %346 = "tfl.pseudo_const"() {value = dense<[1, 384, 128]> : tensor<3xi32>} : () -> tensor<3xi32>
    %347 = "tfl.reshape"(%345, %346) : (tensor<384x128xf32>, tensor<3xi32>) -> tensor<1x384x128xf32>
    %348 = tfl.add %347, %339 {fused_activation_function = "NONE"} : tensor<1x384x128xf32>
    %349 = "tfl.pseudo_const"() {value = dense<"hex_value_removed_for_legibility_this_model_will_not_run_correctly_without_it"> : tensor<128xf32>} : () -> tensor<128xf32>
    %350 = "tfl.mul"(%348, %349) {fused_activation_function = "NONE"} : (tensor<1x384x128xf32>, tensor<128xf32>) -> tensor<1x384x128xf32>
    %351 = "tfl.pseudo_const"() {value = dense<"hex_value_removed_for_legibility_this_model_will_not_run_correctly_without_it"> : tensor<128xf32>} : () -> tensor<128xf32>
    %352 = "tfl.add"(%350, %351) {fused_activation_function = "NONE"} : (tensor<1x384x128xf32>, tensor<128xf32>) -> tensor<1x384x128xf32>
    %353 = "tfl.pseudo_const"() {value = dense<"hex_value_removed_for_legibility_this_model_will_not_run_correctly_without_it"> : tensor<512x128xf32>} : () -> tensor<512x128xf32>
    %354 = "tfl.pseudo_const"() {value = dense<"hex_value_removed_for_legibility_this_model_will_not_run_correctly_without_it"> : tensor<512xf32>} : () -> tensor<512xf32>
    %355 = "tfl.fully_connected"(%352, %353, %354) {fused_activation_function = "RELU", keep_num_dims = false, weights_format = "DEFAULT"} : (tensor<1x384x128xf32>, tensor<512x128xf32>, tensor<512xf32>) -> tensor<384x512xf32>
    %356 = "tfl.pseudo_const"() {value = dense<"hex_value_removed_for_legibility_this_model_will_not_run_correctly_without_it"> : tensor<128x512xf32>} : () -> tensor<128x512xf32>
    %357 = "tfl.pseudo_const"() {value = dense<"hex_value_removed_for_legibility_this_model_will_not_run_correctly_without_it"> : tensor<128xf32>} : () -> tensor<128xf32>
    %358 = "tfl.fully_connected"(%355, %356, %357) {fused_activation_function = "NONE", keep_num_dims = false, weights_format = "DEFAULT"} : (tensor<384x512xf32>, tensor<128x512xf32>, tensor<128xf32>) -> tensor<384x128xf32>
    %359 = "tfl.pseudo_const"() {value = dense<[1, 384, 128]> : tensor<3xi32>} : () -> tensor<3xi32>
    %360 = "tfl.reshape"(%358, %359) : (tensor<384x128xf32>, tensor<3xi32>) -> tensor<1x384x128xf32>
    %361 = tfl.add %360, %352 {fused_activation_function = "NONE"} : tensor<1x384x128xf32>
    %362 = "tfl.pseudo_const"() {value = dense<"hex_value_removed_for_legibility_this_model_will_not_run_correctly_without_it"> : tensor<128xf32>} : () -> tensor<128xf32>
    %363 = "tfl.mul"(%361, %362) {fused_activation_function = "NONE"} : (tensor<1x384x128xf32>, tensor<128xf32>) -> tensor<1x384x128xf32>
    %364 = "tfl.pseudo_const"() {value = dense<"hex_value_removed_for_legibility_this_model_will_not_run_correctly_without_it"> : tensor<128xf32>} : () -> tensor<128xf32>
    %365 = "tfl.add"(%363, %364) {fused_activation_function = "NONE"} : (tensor<1x384x128xf32>, tensor<128xf32>) -> tensor<1x384x128xf32>
    %366 = "tfl.pseudo_const"() {value = dense<"hex_value_removed_for_legibility_this_model_will_not_run_correctly_without_it"> : tensor<512x128xf32>} : () -> tensor<512x128xf32>
    %367 = "tfl.pseudo_const"() {value = dense<"hex_value_removed_for_legibility_this_model_will_not_run_correctly_without_it"> : tensor<512xf32>} : () -> tensor<512xf32>
    %368 = "tfl.fully_connected"(%365, %366, %367) {fused_activation_function = "RELU", keep_num_dims = false, weights_format = "DEFAULT"} : (tensor<1x384x128xf32>, tensor<512x128xf32>, tensor<512xf32>) -> tensor<384x512xf32>
    %369 = "tfl.pseudo_const"() {value = dense<"hex_value_removed_for_legibility_this_model_will_not_run_correctly_without_it"> : tensor<128x512xf32>} : () -> tensor<128x512xf32>
    %370 = "tfl.pseudo_const"() {value = dense<"hex_value_removed_for_legibility_this_model_will_not_run_correctly_without_it"> : tensor<128xf32>} : () -> tensor<128xf32>
    %371 = "tfl.fully_connected"(%368, %369, %370) {fused_activation_function = "NONE", keep_num_dims = false, weights_format = "DEFAULT"} : (tensor<384x512xf32>, tensor<128x512xf32>, tensor<128xf32>) -> tensor<384x128xf32>
    %372 = "tfl.pseudo_const"() {value = dense<[1, 384, 128]> : tensor<3xi32>} : () -> tensor<3xi32>
    %373 = "tfl.reshape"(%371, %372) : (tensor<384x128xf32>, tensor<3xi32>) -> tensor<1x384x128xf32>
    %374 = tfl.add %373, %365 {fused_activation_function = "NONE"} : tensor<1x384x128xf32>
    %375 = "tfl.pseudo_const"() {value = dense<"hex_value_removed_for_legibility_this_model_will_not_run_correctly_without_it"> : tensor<128xf32>} : () -> tensor<128xf32>
    %376 = "tfl.mul"(%374, %375) {fused_activation_function = "NONE"} : (tensor<1x384x128xf32>, tensor<128xf32>) -> tensor<1x384x128xf32>
    %377 = "tfl.pseudo_const"() {value = dense<"hex_value_removed_for_legibility_this_model_will_not_run_correctly_without_it"> : tensor<128xf32>} : () -> tensor<128xf32>
    %378 = "tfl.add"(%376, %377) {fused_activation_function = "NONE"} : (tensor<1x384x128xf32>, tensor<128xf32>) -> tensor<1x384x128xf32>
    %379 = "tfl.pseudo_const"() {value = dense<"hex_value_removed_for_legibility_this_model_will_not_run_correctly_without_it"> : tensor<512x128xf32>} : () -> tensor<512x128xf32>
    %380 = "tfl.pseudo_const"() {value = dense<"hex_value_removed_for_legibility_this_model_will_not_run_correctly_without_it"> : tensor<512xf32>} : () -> tensor<512xf32>
    %381 = "tfl.fully_connected"(%378, %379, %380) {fused_activation_function = "RELU", keep_num_dims = false, weights_format = "DEFAULT"} : (tensor<1x384x128xf32>, tensor<512x128xf32>, tensor<512xf32>) -> tensor<384x512xf32>
    %382 = "tfl.pseudo_const"() {value = dense<"hex_value_removed_for_legibility_this_model_will_not_run_correctly_without_it"> : tensor<128x512xf32>} : () -> tensor<128x512xf32>
    %383 = "tfl.pseudo_const"() {value = dense<"hex_value_removed_for_legibility_this_model_will_not_run_correctly_without_it"> : tensor<128xf32>} : () -> tensor<128xf32>
    %384 = "tfl.fully_connected"(%381, %382, %383) {fused_activation_function = "NONE", keep_num_dims = false, weights_format = "DEFAULT"} : (tensor<384x512xf32>, tensor<128x512xf32>, tensor<128xf32>) -> tensor<384x128xf32>
    %385 = "tfl.pseudo_const"() {value = dense<[1, 384, 128]> : tensor<3xi32>} : () -> tensor<3xi32>
    %386 = "tfl.reshape"(%384, %385) : (tensor<384x128xf32>, tensor<3xi32>) -> tensor<1x384x128xf32>
    %387 = tfl.add %386, %378 {fused_activation_function = "NONE"} : tensor<1x384x128xf32>
    %388 = "tfl.pseudo_const"() {value = dense<"hex_value_removed_for_legibility_this_model_will_not_run_correctly_without_it"> : tensor<128xf32>} : () -> tensor<128xf32>
    %389 = "tfl.mul"(%387, %388) {fused_activation_function = "NONE"} : (tensor<1x384x128xf32>, tensor<128xf32>) -> tensor<1x384x128xf32>
    %390 = "tfl.pseudo_const"() {value = dense<"hex_value_removed_for_legibility_this_model_will_not_run_correctly_without_it"> : tensor<128xf32>} : () -> tensor<128xf32>
    %391 = "tfl.add"(%389, %390) {fused_activation_function = "NONE"} : (tensor<1x384x128xf32>, tensor<128xf32>) -> tensor<1x384x128xf32>
    %392 = "tfl.pseudo_const"() {value = dense<"hex_value_removed_for_legibility_this_model_will_not_run_correctly_without_it"> : tensor<512x128xf32>} : () -> tensor<512x128xf32>
    %393 = "tfl.pseudo_const"() {value = dense<"hex_value_removed_for_legibility_this_model_will_not_run_correctly_without_it"> : tensor<512xf32>} : () -> tensor<512xf32>
    %394 = "tfl.fully_connected"(%391, %392, %393) {fused_activation_function = "NONE", keep_num_dims = false, weights_format = "DEFAULT"} : (tensor<1x384x128xf32>, tensor<512x128xf32>, tensor<512xf32>) -> tensor<384x512xf32>
    %395 = "tfl.pseudo_const"() {value = dense<[1, 384, 512]> : tensor<3xi32>} : () -> tensor<3xi32>
    %396 = "tfl.reshape"(%394, %395) : (tensor<384x512xf32>, tensor<3xi32>) -> tensor<1x384x512xf32>
    %397 = tfl.add %396, %181 {fused_activation_function = "NONE"} : tensor<1x384x512xf32>
    %398 = "tfl.pseudo_const"() {value = dense<"hex_value_removed_for_legibility_this_model_will_not_run_correctly_without_it"> : tensor<512xf32>} : () -> tensor<512xf32>
    %399 = "tfl.mul"(%397, %398) {fused_activation_function = "NONE"} : (tensor<1x384x512xf32>, tensor<512xf32>) -> tensor<1x384x512xf32>
    %400 = "tfl.pseudo_const"() {value = dense<"hex_value_removed_for_legibility_this_model_will_not_run_correctly_without_it"> : tensor<512xf32>} : () -> tensor<512xf32>
    %401 = "tfl.add"(%399, %400) {fused_activation_function = "NONE"} : (tensor<1x384x512xf32>, tensor<512xf32>) -> tensor<1x384x512xf32>
    %402 = "tfl.pseudo_const"() {value = dense<"hex_value_removed_for_legibility_this_model_will_not_run_correctly_without_it"> : tensor<128x512xf32>} : () -> tensor<128x512xf32>
    %403 = "tfl.pseudo_const"() {value = dense<"hex_value_removed_for_legibility_this_model_will_not_run_correctly_without_it"> : tensor<128xf32>} : () -> tensor<128xf32>
    %404 = "tfl.fully_connected"(%401, %402, %403) {fused_activation_function = "NONE", keep_num_dims = false, weights_format = "DEFAULT"} : (tensor<1x384x512xf32>, tensor<128x512xf32>, tensor<128xf32>) -> tensor<384x128xf32>
    %405 = "tfl.pseudo_const"() {value = dense<"hex_value_removed_for_legibility_this_model_will_not_run_correctly_without_it"> : tensor<128x512xf32>} : () -> tensor<128x512xf32>
    %406 = "tfl.pseudo_const"() {value = dense<"hex_value_removed_for_legibility_this_model_will_not_run_correctly_without_it"> : tensor<128xf32>} : () -> tensor<128xf32>
    %407 = "tfl.fully_connected"(%401, %405, %406) {fused_activation_function = "NONE", keep_num_dims = false, weights_format = "DEFAULT"} : (tensor<1x384x512xf32>, tensor<128x512xf32>, tensor<128xf32>) -> tensor<384x128xf32>
    %408 = "tfl.pseudo_const"() {value = dense<"hex_value_removed_for_legibility_this_model_will_not_run_correctly_without_it"> : tensor<128x512xf32>} : () -> tensor<128x512xf32>
    %409 = "tfl.pseudo_const"() {value = dense<"hex_value_removed_for_legibility_this_model_will_not_run_correctly_without_it"> : tensor<128xf32>} : () -> tensor<128xf32>
    %410 = "tfl.fully_connected"(%401, %408, %409) {fused_activation_function = "NONE", keep_num_dims = false, weights_format = "DEFAULT"} : (tensor<1x384x512xf32>, tensor<128x512xf32>, tensor<128xf32>) -> tensor<384x128xf32>
    %411 = "tfl.pseudo_const"() {value = dense<[1, 384, 128]> : tensor<3xi32>} : () -> tensor<3xi32>
    %412 = "tfl.reshape"(%404, %411) : (tensor<384x128xf32>, tensor<3xi32>) -> tensor<1x384x128xf32>
    %413 = "tfl.pseudo_const"() {value = dense<[1, 384, 128]> : tensor<3xi32>} : () -> tensor<3xi32>
    %414 = "tfl.reshape"(%407, %413) : (tensor<384x128xf32>, tensor<3xi32>) -> tensor<1x384x128xf32>
    %415 = "tfl.pseudo_const"() {value = dense<[1, 384, 128]> : tensor<3xi32>} : () -> tensor<3xi32>
    %416 = "tfl.reshape"(%410, %415) : (tensor<384x128xf32>, tensor<3xi32>) -> tensor<1x384x128xf32>
    %417 = "tfl.pseudo_const"() {value = dense<"hex_value_removed_for_legibility_this_model_will_not_run_correctly_without_it"> : tensor<128x128xf32>} : () -> tensor<128x128xf32>
    %418 = "tfl.pseudo_const"() {value = dense<"hex_value_removed_for_legibility_this_model_will_not_run_correctly_without_it"> : tensor<128xf32>} : () -> tensor<128xf32>
    %419 = "tfl.fully_connected"(%414, %417, %418) {fused_activation_function = "NONE", keep_num_dims = false, weights_format = "DEFAULT"} : (tensor<1x384x128xf32>, tensor<128x128xf32>, tensor<128xf32>) -> tensor<384x128xf32>
    %420 = "tfl.pseudo_const"() {value = dense<"hex_value_removed_for_legibility_this_model_will_not_run_correctly_without_it"> : tensor<128x128xf32>} : () -> tensor<128x128xf32>
    %421 = "tfl.pseudo_const"() {value = dense<"hex_value_removed_for_legibility_this_model_will_not_run_correctly_without_it"> : tensor<128xf32>} : () -> tensor<128xf32>
    %422 = "tfl.fully_connected"(%414, %420, %421) {fused_activation_function = "NONE", keep_num_dims = false, weights_format = "DEFAULT"} : (tensor<1x384x128xf32>, tensor<128x128xf32>, tensor<128xf32>) -> tensor<384x128xf32>
    %423 = "tfl.pseudo_const"() {value = dense<"hex_value_removed_for_legibility_this_model_will_not_run_correctly_without_it"> : tensor<128x128xf32>} : () -> tensor<128x128xf32>
    %424 = "tfl.pseudo_const"() {value = dense<"hex_value_removed_for_legibility_this_model_will_not_run_correctly_without_it"> : tensor<128xf32>} : () -> tensor<128xf32>
    %425 = "tfl.fully_connected"(%416, %423, %424) {fused_activation_function = "NONE", keep_num_dims = false, weights_format = "DEFAULT"} : (tensor<1x384x128xf32>, tensor<128x128xf32>, tensor<128xf32>) -> tensor<384x128xf32>
    %426 = "tfl.pseudo_const"() {value = dense<[1, 384, 4, 32]> : tensor<4xi32>} : () -> tensor<4xi32>
    %427 = "tfl.reshape"(%419, %426) : (tensor<384x128xf32>, tensor<4xi32>) -> tensor<1x384x4x32xf32>
    %428 = "tfl.pseudo_const"() {value = dense<[1, 384, 4, 32]> : tensor<4xi32>} : () -> tensor<4xi32>
    %429 = "tfl.reshape"(%422, %428) : (tensor<384x128xf32>, tensor<4xi32>) -> tensor<1x384x4x32xf32>
    %430 = "tfl.pseudo_const"() {value = dense<[1, 384, 4, 32]> : tensor<4xi32>} : () -> tensor<4xi32>
    %431 = "tfl.reshape"(%425, %430) : (tensor<384x128xf32>, tensor<4xi32>) -> tensor<1x384x4x32xf32>
    %432 = "tfl.pseudo_const"() {value = dense<[0, 2, 1, 3]> : tensor<4xi32>} : () -> tensor<4xi32>
    %433 = "tfl.transpose"(%427, %432) : (tensor<1x384x4x32xf32>, tensor<4xi32>) -> tensor<1x4x384x32xf32>
    %434 = "tfl.pseudo_const"() {value = dense<[0, 2, 1, 3]> : tensor<4xi32>} : () -> tensor<4xi32>
    %435 = "tfl.transpose"(%429, %434) : (tensor<1x384x4x32xf32>, tensor<4xi32>) -> tensor<1x4x384x32xf32>
    %436 = "tfl.pseudo_const"() {value = dense<[0, 2, 1, 3]> : tensor<4xi32>} : () -> tensor<4xi32>
    %437 = "tfl.transpose"(%431, %436) : (tensor<1x384x4x32xf32>, tensor<4xi32>) -> tensor<1x4x384x32xf32>
    %438 = "tfl.pseudo_const"() {value = dense<[0, 1, 3, 2]> : tensor<4xi32>} : () -> tensor<4xi32>
    %439 = "tfl.transpose"(%435, %438) : (tensor<1x4x384x32xf32>, tensor<4xi32>) -> tensor<1x4x32x384xf32>
    %440 = "tfl.pseudo_const"() {value = dense<[4, 384, 32]> : tensor<3xi32>} : () -> tensor<3xi32>
    %441 = "tfl.reshape"(%433, %440) : (tensor<1x4x384x32xf32>, tensor<3xi32>) -> tensor<4x384x32xf32>
    %442 = "tfl.pseudo_const"() {value = dense<0> : tensor<3xi32>} : () -> tensor<3xi32>
    %443 = "tfl.pseudo_const"() {value = dense<[1, 384, 32]> : tensor<3xi32>} : () -> tensor<3xi32>
    %444 = "tfl.slice"(%441, %442, %443) : (tensor<4x384x32xf32>, tensor<3xi32>, tensor<3xi32>) -> tensor<1x384x32xf32>
    %445 = "tfl.pseudo_const"() {value = dense<[1, 0, 0]> : tensor<3xi32>} : () -> tensor<3xi32>
    %446 = "tfl.pseudo_const"() {value = dense<[1, 384, 32]> : tensor<3xi32>} : () -> tensor<3xi32>
    %447 = "tfl.slice"(%441, %445, %446) : (tensor<4x384x32xf32>, tensor<3xi32>, tensor<3xi32>) -> tensor<1x384x32xf32>
    %448 = "tfl.pseudo_const"() {value = dense<[2, 0, 0]> : tensor<3xi32>} : () -> tensor<3xi32>
    %449 = "tfl.pseudo_const"() {value = dense<[1, 384, 32]> : tensor<3xi32>} : () -> tensor<3xi32>
    %450 = "tfl.slice"(%441, %448, %449) : (tensor<4x384x32xf32>, tensor<3xi32>, tensor<3xi32>) -> tensor<1x384x32xf32>
    %451 = "tfl.pseudo_const"() {value = dense<[3, 0, 0]> : tensor<3xi32>} : () -> tensor<3xi32>
    %452 = "tfl.pseudo_const"() {value = dense<[1, 384, 32]> : tensor<3xi32>} : () -> tensor<3xi32>
    %453 = "tfl.slice"(%441, %451, %452) : (tensor<4x384x32xf32>, tensor<3xi32>, tensor<3xi32>) -> tensor<1x384x32xf32>
    %454 = "tfl.pseudo_const"() {value = dense<[4, 32, 384]> : tensor<3xi32>} : () -> tensor<3xi32>
    %455 = "tfl.reshape"(%439, %454) : (tensor<1x4x32x384xf32>, tensor<3xi32>) -> tensor<4x32x384xf32>
    %456 = "tfl.pseudo_const"() {value = dense<0> : tensor<3xi32>} : () -> tensor<3xi32>
    %457 = "tfl.pseudo_const"() {value = dense<[1, 32, 384]> : tensor<3xi32>} : () -> tensor<3xi32>
    %458 = "tfl.slice"(%455, %456, %457) : (tensor<4x32x384xf32>, tensor<3xi32>, tensor<3xi32>) -> tensor<1x32x384xf32>
    %459 = "tfl.pseudo_const"() {value = dense<[2, 1, 0]> : tensor<3xi32>} : () -> tensor<3xi32>
    %460 = "tfl.transpose"(%458, %459) : (tensor<1x32x384xf32>, tensor<3xi32>) -> tensor<384x32x1xf32>
    %461 = "tfl.pseudo_const"() {value = dense<[1, 0, 0]> : tensor<3xi32>} : () -> tensor<3xi32>
    %462 = "tfl.pseudo_const"() {value = dense<[1, 32, 384]> : tensor<3xi32>} : () -> tensor<3xi32>
    %463 = "tfl.slice"(%455, %461, %462) : (tensor<4x32x384xf32>, tensor<3xi32>, tensor<3xi32>) -> tensor<1x32x384xf32>
    %464 = "tfl.pseudo_const"() {value = dense<[2, 1, 0]> : tensor<3xi32>} : () -> tensor<3xi32>
    %465 = "tfl.transpose"(%463, %464) : (tensor<1x32x384xf32>, tensor<3xi32>) -> tensor<384x32x1xf32>
    %466 = "tfl.pseudo_const"() {value = dense<[2, 0, 0]> : tensor<3xi32>} : () -> tensor<3xi32>
    %467 = "tfl.pseudo_const"() {value = dense<[1, 32, 384]> : tensor<3xi32>} : () -> tensor<3xi32>
    %468 = "tfl.slice"(%455, %466, %467) : (tensor<4x32x384xf32>, tensor<3xi32>, tensor<3xi32>) -> tensor<1x32x384xf32>
    %469 = "tfl.pseudo_const"() {value = dense<[2, 1, 0]> : tensor<3xi32>} : () -> tensor<3xi32>
    %470 = "tfl.transpose"(%468, %469) : (tensor<1x32x384xf32>, tensor<3xi32>) -> tensor<384x32x1xf32>
    %471 = "tfl.pseudo_const"() {value = dense<[3, 0, 0]> : tensor<3xi32>} : () -> tensor<3xi32>
    %472 = "tfl.pseudo_const"() {value = dense<[1, 32, 384]> : tensor<3xi32>} : () -> tensor<3xi32>
    %473 = "tfl.slice"(%455, %471, %472) : (tensor<4x32x384xf32>, tensor<3xi32>, tensor<3xi32>) -> tensor<1x32x384xf32>
    %474 = "tfl.pseudo_const"() {value = dense<[2, 1, 0]> : tensor<3xi32>} : () -> tensor<3xi32>
    %475 = "tfl.transpose"(%473, %474) : (tensor<1x32x384xf32>, tensor<3xi32>) -> tensor<384x32x1xf32>
    %476 = "tfl.pseudo_const"() {value = dense<[384, 32]> : tensor<2xi32>} : () -> tensor<2xi32>
    %477 = "tfl.reshape"(%460, %476) : (tensor<384x32x1xf32>, tensor<2xi32>) -> tensor<384x32xf32>
    %478 = "tfl.fully_connected"(%444, %477, %258) {fused_activation_function = "NONE", keep_num_dims = false, weights_format = "DEFAULT"} : (tensor<1x384x32xf32>, tensor<384x32xf32>, tensor<384xf32>) -> tensor<384x384xf32>
    %479 = "tfl.pseudo_const"() {value = dense<[384, 32]> : tensor<2xi32>} : () -> tensor<2xi32>
    %480 = "tfl.reshape"(%465, %479) : (tensor<384x32x1xf32>, tensor<2xi32>) -> tensor<384x32xf32>
    %481 = "tfl.fully_connected"(%447, %480, %258) {fused_activation_function = "NONE", keep_num_dims = false, weights_format = "DEFAULT"} : (tensor<1x384x32xf32>, tensor<384x32xf32>, tensor<384xf32>) -> tensor<384x384xf32>
    %482 = "tfl.pseudo_const"() {value = dense<[384, 32]> : tensor<2xi32>} : () -> tensor<2xi32>
    %483 = "tfl.reshape"(%470, %482) : (tensor<384x32x1xf32>, tensor<2xi32>) -> tensor<384x32xf32>
    %484 = "tfl.fully_connected"(%450, %483, %258) {fused_activation_function = "NONE", keep_num_dims = false, weights_format = "DEFAULT"} : (tensor<1x384x32xf32>, tensor<384x32xf32>, tensor<384xf32>) -> tensor<384x384xf32>
    %485 = "tfl.pseudo_const"() {value = dense<[384, 32]> : tensor<2xi32>} : () -> tensor<2xi32>
    %486 = "tfl.reshape"(%475, %485) : (tensor<384x32x1xf32>, tensor<2xi32>) -> tensor<384x32xf32>
    %487 = "tfl.fully_connected"(%453, %486, %258) {fused_activation_function = "NONE", keep_num_dims = false, weights_format = "DEFAULT"} : (tensor<1x384x32xf32>, tensor<384x32xf32>, tensor<384xf32>) -> tensor<384x384xf32>
    %488 = "tfl.pack"(%478, %481, %484, %487) {axis = 0 : i32, values_count = 4 : i32} : (tensor<384x384xf32>, tensor<384x384xf32>, tensor<384x384xf32>, tensor<384x384xf32>) -> tensor<4x384x384xf32>
    %489 = "tfl.pseudo_const"() {value = dense<0.176776692> : tensor<f32>} : () -> tensor<f32>
    %490 = "tfl.mul"(%488, %489) {fused_activation_function = "NONE"} : (tensor<4x384x384xf32>, tensor<f32>) -> tensor<4x384x384xf32>
    %491 = "tfl.pseudo_const"() {value = dense<[1, 4, 384, 384]> : tensor<4xi32>} : () -> tensor<4xi32>
    %492 = "tfl.reshape"(%490, %491) : (tensor<4x384x384xf32>, tensor<4xi32>) -> tensor<1x4x384x384xf32>
    %493 = "tfl.add"(%492, %122) {fused_activation_function = "NONE"} : (tensor<1x4x384x384xf32>, tensor<1x1x384x384xf32>) -> tensor<1x4x384x384xf32>
    %494 = "tfl.softmax"(%493) {beta = 1.000000e+00 : f32} : (tensor<1x4x384x384xf32>) -> tensor<1x4x384x384xf32>
    %495 = "tfl.pseudo_const"() {value = dense<[4, 384, 384]> : tensor<3xi32>} : () -> tensor<3xi32>
    %496 = "tfl.reshape"(%494, %495) : (tensor<1x4x384x384xf32>, tensor<3xi32>) -> tensor<4x384x384xf32>
    %497 = "tfl.pseudo_const"() {value = dense<0> : tensor<3xi32>} : () -> tensor<3xi32>
    %498 = "tfl.pseudo_const"() {value = dense<[1, 384, 384]> : tensor<3xi32>} : () -> tensor<3xi32>
    %499 = "tfl.slice"(%496, %497, %498) : (tensor<4x384x384xf32>, tensor<3xi32>, tensor<3xi32>) -> tensor<1x384x384xf32>
    %500 = "tfl.pseudo_const"() {value = dense<[1, 0, 0]> : tensor<3xi32>} : () -> tensor<3xi32>
    %501 = "tfl.pseudo_const"() {value = dense<[1, 384, 384]> : tensor<3xi32>} : () -> tensor<3xi32>
    %502 = "tfl.slice"(%496, %500, %501) : (tensor<4x384x384xf32>, tensor<3xi32>, tensor<3xi32>) -> tensor<1x384x384xf32>
    %503 = "tfl.pseudo_const"() {value = dense<[2, 0, 0]> : tensor<3xi32>} : () -> tensor<3xi32>
    %504 = "tfl.pseudo_const"() {value = dense<[1, 384, 384]> : tensor<3xi32>} : () -> tensor<3xi32>
    %505 = "tfl.slice"(%496, %503, %504) : (tensor<4x384x384xf32>, tensor<3xi32>, tensor<3xi32>) -> tensor<1x384x384xf32>
    %506 = "tfl.pseudo_const"() {value = dense<[3, 0, 0]> : tensor<3xi32>} : () -> tensor<3xi32>
    %507 = "tfl.pseudo_const"() {value = dense<[1, 384, 384]> : tensor<3xi32>} : () -> tensor<3xi32>
    %508 = "tfl.slice"(%496, %506, %507) : (tensor<4x384x384xf32>, tensor<3xi32>, tensor<3xi32>) -> tensor<1x384x384xf32>
    %509 = "tfl.pseudo_const"() {value = dense<[4, 384, 32]> : tensor<3xi32>} : () -> tensor<3xi32>
    %510 = "tfl.reshape"(%437, %509) : (tensor<1x4x384x32xf32>, tensor<3xi32>) -> tensor<4x384x32xf32>
    %511 = "tfl.pseudo_const"() {value = dense<0> : tensor<3xi32>} : () -> tensor<3xi32>
    %512 = "tfl.pseudo_const"() {value = dense<[1, 384, 32]> : tensor<3xi32>} : () -> tensor<3xi32>
    %513 = "tfl.slice"(%510, %511, %512) : (tensor<4x384x32xf32>, tensor<3xi32>, tensor<3xi32>) -> tensor<1x384x32xf32>
    %514 = "tfl.pseudo_const"() {value = dense<[2, 1, 0]> : tensor<3xi32>} : () -> tensor<3xi32>
    %515 = "tfl.transpose"(%513, %514) : (tensor<1x384x32xf32>, tensor<3xi32>) -> tensor<32x384x1xf32>
    %516 = "tfl.pseudo_const"() {value = dense<[1, 0, 0]> : tensor<3xi32>} : () -> tensor<3xi32>
    %517 = "tfl.pseudo_const"() {value = dense<[1, 384, 32]> : tensor<3xi32>} : () -> tensor<3xi32>
    %518 = "tfl.slice"(%510, %516, %517) : (tensor<4x384x32xf32>, tensor<3xi32>, tensor<3xi32>) -> tensor<1x384x32xf32>
    %519 = "tfl.pseudo_const"() {value = dense<[2, 1, 0]> : tensor<3xi32>} : () -> tensor<3xi32>
    %520 = "tfl.transpose"(%518, %519) : (tensor<1x384x32xf32>, tensor<3xi32>) -> tensor<32x384x1xf32>
    %521 = "tfl.pseudo_const"() {value = dense<[2, 0, 0]> : tensor<3xi32>} : () -> tensor<3xi32>
    %522 = "tfl.pseudo_const"() {value = dense<[1, 384, 32]> : tensor<3xi32>} : () -> tensor<3xi32>
    %523 = "tfl.slice"(%510, %521, %522) : (tensor<4x384x32xf32>, tensor<3xi32>, tensor<3xi32>) -> tensor<1x384x32xf32>
    %524 = "tfl.pseudo_const"() {value = dense<[2, 1, 0]> : tensor<3xi32>} : () -> tensor<3xi32>
    %525 = "tfl.transpose"(%523, %524) : (tensor<1x384x32xf32>, tensor<3xi32>) -> tensor<32x384x1xf32>
    %526 = "tfl.pseudo_const"() {value = dense<[3, 0, 0]> : tensor<3xi32>} : () -> tensor<3xi32>
    %527 = "tfl.pseudo_const"() {value = dense<[1, 384, 32]> : tensor<3xi32>} : () -> tensor<3xi32>
    %528 = "tfl.slice"(%510, %526, %527) : (tensor<4x384x32xf32>, tensor<3xi32>, tensor<3xi32>) -> tensor<1x384x32xf32>
    %529 = "tfl.pseudo_const"() {value = dense<[2, 1, 0]> : tensor<3xi32>} : () -> tensor<3xi32>
    %530 = "tfl.transpose"(%528, %529) : (tensor<1x384x32xf32>, tensor<3xi32>) -> tensor<32x384x1xf32>
    %531 = "tfl.pseudo_const"() {value = dense<[32, 384]> : tensor<2xi32>} : () -> tensor<2xi32>
    %532 = "tfl.reshape"(%515, %531) : (tensor<32x384x1xf32>, tensor<2xi32>) -> tensor<32x384xf32>
    %533 = "tfl.fully_connected"(%499, %532, %314) {fused_activation_function = "NONE", keep_num_dims = false, weights_format = "DEFAULT"} : (tensor<1x384x384xf32>, tensor<32x384xf32>, tensor<32xf32>) -> tensor<384x32xf32>
    %534 = "tfl.pseudo_const"() {value = dense<[32, 384]> : tensor<2xi32>} : () -> tensor<2xi32>
    %535 = "tfl.reshape"(%520, %534) : (tensor<32x384x1xf32>, tensor<2xi32>) -> tensor<32x384xf32>
    %536 = "tfl.fully_connected"(%502, %535, %314) {fused_activation_function = "NONE", keep_num_dims = false, weights_format = "DEFAULT"} : (tensor<1x384x384xf32>, tensor<32x384xf32>, tensor<32xf32>) -> tensor<384x32xf32>
    %537 = "tfl.pseudo_const"() {value = dense<[32, 384]> : tensor<2xi32>} : () -> tensor<2xi32>
    %538 = "tfl.reshape"(%525, %537) : (tensor<32x384x1xf32>, tensor<2xi32>) -> tensor<32x384xf32>
    %539 = "tfl.fully_connected"(%505, %538, %314) {fused_activation_function = "NONE", keep_num_dims = false, weights_format = "DEFAULT"} : (tensor<1x384x384xf32>, tensor<32x384xf32>, tensor<32xf32>) -> tensor<384x32xf32>
    %540 = "tfl.pseudo_const"() {value = dense<[32, 384]> : tensor<2xi32>} : () -> tensor<2xi32>
    %541 = "tfl.reshape"(%530, %540) : (tensor<32x384x1xf32>, tensor<2xi32>) -> tensor<32x384xf32>
    %542 = "tfl.fully_connected"(%508, %541, %314) {fused_activation_function = "NONE", keep_num_dims = false, weights_format = "DEFAULT"} : (tensor<1x384x384xf32>, tensor<32x384xf32>, tensor<32xf32>) -> tensor<384x32xf32>
    %543 = "tfl.pack"(%533, %536, %539, %542) {axis = 0 : i32, values_count = 4 : i32} : (tensor<384x32xf32>, tensor<384x32xf32>, tensor<384x32xf32>, tensor<384x32xf32>) -> tensor<4x384x32xf32>
    %544 = "tfl.pseudo_const"() {value = dense<[1, 0, 2]> : tensor<3xi32>} : () -> tensor<3xi32>
    %545 = "tfl.transpose"(%543, %544) : (tensor<4x384x32xf32>, tensor<3xi32>) -> tensor<384x4x32xf32>
    %546 = "tfl.pseudo_const"() {value = dense<[1, 384, 4, 32]> : tensor<4xi32>} : () -> tensor<4xi32>
    %547 = "tfl.reshape"(%545, %546) : (tensor<384x4x32xf32>, tensor<4xi32>) -> tensor<1x384x4x32xf32>
    %548 = "tfl.pseudo_const"() {value = dense<"hex_value_removed_for_legibility_this_model_will_not_run_correctly_without_it"> : tensor<128x128xf32>} : () -> tensor<128x128xf32>
    %549 = "tfl.pseudo_const"() {value = dense<"hex_value_removed_for_legibility_this_model_will_not_run_correctly_without_it"> : tensor<128xf32>} : () -> tensor<128xf32>
    %550 = "tfl.fully_connected"(%547, %548, %549) {fused_activation_function = "NONE", keep_num_dims = false, weights_format = "DEFAULT"} : (tensor<1x384x4x32xf32>, tensor<128x128xf32>, tensor<128xf32>) -> tensor<384x128xf32>
    %551 = "tfl.pseudo_const"() {value = dense<[1, 384, 128]> : tensor<3xi32>} : () -> tensor<3xi32>
    %552 = "tfl.reshape"(%550, %551) : (tensor<384x128xf32>, tensor<3xi32>) -> tensor<1x384x128xf32>
    %553 = tfl.add %552, %412 {fused_activation_function = "NONE"} : tensor<1x384x128xf32>
    %554 = "tfl.pseudo_const"() {value = dense<"hex_value_removed_for_legibility_this_model_will_not_run_correctly_without_it"> : tensor<128xf32>} : () -> tensor<128xf32>
    %555 = "tfl.mul"(%553, %554) {fused_activation_function = "NONE"} : (tensor<1x384x128xf32>, tensor<128xf32>) -> tensor<1x384x128xf32>
    %556 = "tfl.pseudo_const"() {value = dense<"hex_value_removed_for_legibility_this_model_will_not_run_correctly_without_it"> : tensor<128xf32>} : () -> tensor<128xf32>
    %557 = "tfl.add"(%555, %556) {fused_activation_function = "NONE"} : (tensor<1x384x128xf32>, tensor<128xf32>) -> tensor<1x384x128xf32>
    %558 = "tfl.pseudo_const"() {value = dense<"hex_value_removed_for_legibility_this_model_will_not_run_correctly_without_it"> : tensor<512x128xf32>} : () -> tensor<512x128xf32>
    %559 = "tfl.pseudo_const"() {value = dense<"hex_value_removed_for_legibility_this_model_will_not_run_correctly_without_it"> : tensor<512xf32>} : () -> tensor<512xf32>
    %560 = "tfl.fully_connected"(%557, %558, %559) {fused_activation_function = "RELU", keep_num_dims = false, weights_format = "DEFAULT"} : (tensor<1x384x128xf32>, tensor<512x128xf32>, tensor<512xf32>) -> tensor<384x512xf32>
    %561 = "tfl.pseudo_const"() {value = dense<"hex_value_removed_for_legibility_this_model_will_not_run_correctly_without_it"> : tensor<128x512xf32>} : () -> tensor<128x512xf32>
    %562 = "tfl.pseudo_const"() {value = dense<"hex_value_removed_for_legibility_this_model_will_not_run_correctly_without_it"> : tensor<128xf32>} : () -> tensor<128xf32>
    %563 = "tfl.fully_connected"(%560, %561, %562) {fused_activation_function = "NONE", keep_num_dims = false, weights_format = "DEFAULT"} : (tensor<384x512xf32>, tensor<128x512xf32>, tensor<128xf32>) -> tensor<384x128xf32>
    %564 = "tfl.pseudo_const"() {value = dense<[1, 384, 128]> : tensor<3xi32>} : () -> tensor<3xi32>
    %565 = "tfl.reshape"(%563, %564) : (tensor<384x128xf32>, tensor<3xi32>) -> tensor<1x384x128xf32>
    %566 = tfl.add %565, %557 {fused_activation_function = "NONE"} : tensor<1x384x128xf32>
    %567 = "tfl.pseudo_const"() {value = dense<"hex_value_removed_for_legibility_this_model_will_not_run_correctly_without_it"> : tensor<128xf32>} : () -> tensor<128xf32>
    %568 = "tfl.mul"(%566, %567) {fused_activation_function = "NONE"} : (tensor<1x384x128xf32>, tensor<128xf32>) -> tensor<1x384x128xf32>
    %569 = "tfl.pseudo_const"() {value = dense<"hex_value_removed_for_legibility_this_model_will_not_run_correctly_without_it"> : tensor<128xf32>} : () -> tensor<128xf32>
    %570 = "tfl.add"(%568, %569) {fused_activation_function = "NONE"} : (tensor<1x384x128xf32>, tensor<128xf32>) -> tensor<1x384x128xf32>
    %571 = "tfl.pseudo_const"() {value = dense<"hex_value_removed_for_legibility_this_model_will_not_run_correctly_without_it"> : tensor<512x128xf32>} : () -> tensor<512x128xf32>
    %572 = "tfl.pseudo_const"() {value = dense<"hex_value_removed_for_legibility_this_model_will_not_run_correctly_without_it"> : tensor<512xf32>} : () -> tensor<512xf32>
    %573 = "tfl.fully_connected"(%570, %571, %572) {fused_activation_function = "RELU", keep_num_dims = false, weights_format = "DEFAULT"} : (tensor<1x384x128xf32>, tensor<512x128xf32>, tensor<512xf32>) -> tensor<384x512xf32>
    %574 = "tfl.pseudo_const"() {value = dense<"hex_value_removed_for_legibility_this_model_will_not_run_correctly_without_it"> : tensor<128x512xf32>} : () -> tensor<128x512xf32>
    %575 = "tfl.pseudo_const"() {value = dense<"hex_value_removed_for_legibility_this_model_will_not_run_correctly_without_it"> : tensor<128xf32>} : () -> tensor<128xf32>
    %576 = "tfl.fully_connected"(%573, %574, %575) {fused_activation_function = "NONE", keep_num_dims = false, weights_format = "DEFAULT"} : (tensor<384x512xf32>, tensor<128x512xf32>, tensor<128xf32>) -> tensor<384x128xf32>
    %577 = "tfl.pseudo_const"() {value = dense<[1, 384, 128]> : tensor<3xi32>} : () -> tensor<3xi32>
    %578 = "tfl.reshape"(%576, %577) : (tensor<384x128xf32>, tensor<3xi32>) -> tensor<1x384x128xf32>
    %579 = tfl.add %578, %570 {fused_activation_function = "NONE"} : tensor<1x384x128xf32>
    %580 = "tfl.pseudo_const"() {value = dense<"hex_value_removed_for_legibility_this_model_will_not_run_correctly_without_it"> : tensor<128xf32>} : () -> tensor<128xf32>
    %581 = "tfl.mul"(%579, %580) {fused_activation_function = "NONE"} : (tensor<1x384x128xf32>, tensor<128xf32>) -> tensor<1x384x128xf32>
    %582 = "tfl.pseudo_const"() {value = dense<"hex_value_removed_for_legibility_this_model_will_not_run_correctly_without_it"> : tensor<128xf32>} : () -> tensor<128xf32>
    %583 = "tfl.add"(%581, %582) {fused_activation_function = "NONE"} : (tensor<1x384x128xf32>, tensor<128xf32>) -> tensor<1x384x128xf32>
    %584 = "tfl.pseudo_const"() {value = dense<"hex_value_removed_for_legibility_this_model_will_not_run_correctly_without_it"> : tensor<512x128xf32>} : () -> tensor<512x128xf32>
    %585 = "tfl.pseudo_const"() {value = dense<"hex_value_removed_for_legibility_this_model_will_not_run_correctly_without_it"> : tensor<512xf32>} : () -> tensor<512xf32>
    %586 = "tfl.fully_connected"(%583, %584, %585) {fused_activation_function = "RELU", keep_num_dims = false, weights_format = "DEFAULT"} : (tensor<1x384x128xf32>, tensor<512x128xf32>, tensor<512xf32>) -> tensor<384x512xf32>
    %587 = "tfl.pseudo_const"() {value = dense<"hex_value_removed_for_legibility_this_model_will_not_run_correctly_without_it"> : tensor<128x512xf32>} : () -> tensor<128x512xf32>
    %588 = "tfl.pseudo_const"() {value = dense<"hex_value_removed_for_legibility_this_model_will_not_run_correctly_without_it"> : tensor<128xf32>} : () -> tensor<128xf32>
    %589 = "tfl.fully_connected"(%586, %587, %588) {fused_activation_function = "NONE", keep_num_dims = false, weights_format = "DEFAULT"} : (tensor<384x512xf32>, tensor<128x512xf32>, tensor<128xf32>) -> tensor<384x128xf32>
    %590 = "tfl.pseudo_const"() {value = dense<[1, 384, 128]> : tensor<3xi32>} : () -> tensor<3xi32>
    %591 = "tfl.reshape"(%589, %590) : (tensor<384x128xf32>, tensor<3xi32>) -> tensor<1x384x128xf32>
    %592 = tfl.add %591, %583 {fused_activation_function = "NONE"} : tensor<1x384x128xf32>
    %593 = "tfl.pseudo_const"() {value = dense<"hex_value_removed_for_legibility_this_model_will_not_run_correctly_without_it"> : tensor<128xf32>} : () -> tensor<128xf32>
    %594 = "tfl.mul"(%592, %593) {fused_activation_function = "NONE"} : (tensor<1x384x128xf32>, tensor<128xf32>) -> tensor<1x384x128xf32>
    %595 = "tfl.pseudo_const"() {value = dense<"hex_value_removed_for_legibility_this_model_will_not_run_correctly_without_it"> : tensor<128xf32>} : () -> tensor<128xf32>
    %596 = "tfl.add"(%594, %595) {fused_activation_function = "NONE"} : (tensor<1x384x128xf32>, tensor<128xf32>) -> tensor<1x384x128xf32>
    %597 = "tfl.pseudo_const"() {value = dense<"hex_value_removed_for_legibility_this_model_will_not_run_correctly_without_it"> : tensor<512x128xf32>} : () -> tensor<512x128xf32>
    %598 = "tfl.pseudo_const"() {value = dense<"hex_value_removed_for_legibility_this_model_will_not_run_correctly_without_it"> : tensor<512xf32>} : () -> tensor<512xf32>
    %599 = "tfl.fully_connected"(%596, %597, %598) {fused_activation_function = "RELU", keep_num_dims = false, weights_format = "DEFAULT"} : (tensor<1x384x128xf32>, tensor<512x128xf32>, tensor<512xf32>) -> tensor<384x512xf32>
    %600 = "tfl.pseudo_const"() {value = dense<"hex_value_removed_for_legibility_this_model_will_not_run_correctly_without_it"> : tensor<128x512xf32>} : () -> tensor<128x512xf32>
    %601 = "tfl.pseudo_const"() {value = dense<"hex_value_removed_for_legibility_this_model_will_not_run_correctly_without_it"> : tensor<128xf32>} : () -> tensor<128xf32>
    %602 = "tfl.fully_connected"(%599, %600, %601) {fused_activation_function = "NONE", keep_num_dims = false, weights_format = "DEFAULT"} : (tensor<384x512xf32>, tensor<128x512xf32>, tensor<128xf32>) -> tensor<384x128xf32>
    %603 = "tfl.pseudo_const"() {value = dense<[1, 384, 128]> : tensor<3xi32>} : () -> tensor<3xi32>
    %604 = "tfl.reshape"(%602, %603) : (tensor<384x128xf32>, tensor<3xi32>) -> tensor<1x384x128xf32>
    %605 = tfl.add %604, %596 {fused_activation_function = "NONE"} : tensor<1x384x128xf32>
    %606 = "tfl.pseudo_const"() {value = dense<"hex_value_removed_for_legibility_this_model_will_not_run_correctly_without_it"> : tensor<128xf32>} : () -> tensor<128xf32>
    %607 = "tfl.mul"(%605, %606) {fused_activation_function = "NONE"} : (tensor<1x384x128xf32>, tensor<128xf32>) -> tensor<1x384x128xf32>
    %608 = "tfl.pseudo_const"() {value = dense<"hex_value_removed_for_legibility_this_model_will_not_run_correctly_without_it"> : tensor<128xf32>} : () -> tensor<128xf32>
    %609 = "tfl.add"(%607, %608) {fused_activation_function = "NONE"} : (tensor<1x384x128xf32>, tensor<128xf32>) -> tensor<1x384x128xf32>
    %610 = "tfl.pseudo_const"() {value = dense<"hex_value_removed_for_legibility_this_model_will_not_run_correctly_without_it"> : tensor<512x128xf32>} : () -> tensor<512x128xf32>
    %611 = "tfl.pseudo_const"() {value = dense<"hex_value_removed_for_legibility_this_model_will_not_run_correctly_without_it"> : tensor<512xf32>} : () -> tensor<512xf32>
    %612 = "tfl.fully_connected"(%609, %610, %611) {fused_activation_function = "NONE", keep_num_dims = false, weights_format = "DEFAULT"} : (tensor<1x384x128xf32>, tensor<512x128xf32>, tensor<512xf32>) -> tensor<384x512xf32>
    %613 = "tfl.pseudo_const"() {value = dense<[1, 384, 512]> : tensor<3xi32>} : () -> tensor<3xi32>
    %614 = "tfl.reshape"(%612, %613) : (tensor<384x512xf32>, tensor<3xi32>) -> tensor<1x384x512xf32>
    %615 = tfl.add %614, %401 {fused_activation_function = "NONE"} : tensor<1x384x512xf32>
    %616 = "tfl.pseudo_const"() {value = dense<"hex_value_removed_for_legibility_this_model_will_not_run_correctly_without_it"> : tensor<512xf32>} : () -> tensor<512xf32>
    %617 = "tfl.mul"(%615, %616) {fused_activation_function = "NONE"} : (tensor<1x384x512xf32>, tensor<512xf32>) -> tensor<1x384x512xf32>
    %618 = "tfl.pseudo_const"() {value = dense<"hex_value_removed_for_legibility_this_model_will_not_run_correctly_without_it"> : tensor<512xf32>} : () -> tensor<512xf32>
    %619 = "tfl.add"(%617, %618) {fused_activation_function = "NONE"} : (tensor<1x384x512xf32>, tensor<512xf32>) -> tensor<1x384x512xf32>
    %620 = "tfl.pseudo_const"() {value = dense<"hex_value_removed_for_legibility_this_model_will_not_run_correctly_without_it"> : tensor<128x512xf32>} : () -> tensor<128x512xf32>
    %621 = "tfl.pseudo_const"() {value = dense<"hex_value_removed_for_legibility_this_model_will_not_run_correctly_without_it"> : tensor<128xf32>} : () -> tensor<128xf32>
    %622 = "tfl.fully_connected"(%619, %620, %621) {fused_activation_function = "NONE", keep_num_dims = false, weights_format = "DEFAULT"} : (tensor<1x384x512xf32>, tensor<128x512xf32>, tensor<128xf32>) -> tensor<384x128xf32>
    %623 = "tfl.pseudo_const"() {value = dense<"hex_value_removed_for_legibility_this_model_will_not_run_correctly_without_it"> : tensor<128x512xf32>} : () -> tensor<128x512xf32>
    %624 = "tfl.pseudo_const"() {value = dense<"hex_value_removed_for_legibility_this_model_will_not_run_correctly_without_it"> : tensor<128xf32>} : () -> tensor<128xf32>
    %625 = "tfl.fully_connected"(%619, %623, %624) {fused_activation_function = "NONE", keep_num_dims = false, weights_format = "DEFAULT"} : (tensor<1x384x512xf32>, tensor<128x512xf32>, tensor<128xf32>) -> tensor<384x128xf32>
    %626 = "tfl.pseudo_const"() {value = dense<"hex_value_removed_for_legibility_this_model_will_not_run_correctly_without_it"> : tensor<128x512xf32>} : () -> tensor<128x512xf32>
    %627 = "tfl.pseudo_const"() {value = dense<"hex_value_removed_for_legibility_this_model_will_not_run_correctly_without_it"> : tensor<128xf32>} : () -> tensor<128xf32>
    %628 = "tfl.fully_connected"(%619, %626, %627) {fused_activation_function = "NONE", keep_num_dims = false, weights_format = "DEFAULT"} : (tensor<1x384x512xf32>, tensor<128x512xf32>, tensor<128xf32>) -> tensor<384x128xf32>
    %629 = "tfl.pseudo_const"() {value = dense<[1, 384, 128]> : tensor<3xi32>} : () -> tensor<3xi32>
    %630 = "tfl.reshape"(%622, %629) : (tensor<384x128xf32>, tensor<3xi32>) -> tensor<1x384x128xf32>
    %631 = "tfl.pseudo_const"() {value = dense<[1, 384, 128]> : tensor<3xi32>} : () -> tensor<3xi32>
    %632 = "tfl.reshape"(%625, %631) : (tensor<384x128xf32>, tensor<3xi32>) -> tensor<1x384x128xf32>
    %633 = "tfl.pseudo_const"() {value = dense<[1, 384, 128]> : tensor<3xi32>} : () -> tensor<3xi32>
    %634 = "tfl.reshape"(%628, %633) : (tensor<384x128xf32>, tensor<3xi32>) -> tensor<1x384x128xf32>
    %635 = "tfl.pseudo_const"() {value = dense<"hex_value_removed_for_legibility_this_model_will_not_run_correctly_without_it"> : tensor<128x128xf32>} : () -> tensor<128x128xf32>
    %636 = "tfl.pseudo_const"() {value = dense<"hex_value_removed_for_legibility_this_model_will_not_run_correctly_without_it"> : tensor<128xf32>} : () -> tensor<128xf32>
    %637 = "tfl.fully_connected"(%632, %635, %636) {fused_activation_function = "NONE", keep_num_dims = false, weights_format = "DEFAULT"} : (tensor<1x384x128xf32>, tensor<128x128xf32>, tensor<128xf32>) -> tensor<384x128xf32>
    %638 = "tfl.pseudo_const"() {value = dense<"hex_value_removed_for_legibility_this_model_will_not_run_correctly_without_it"> : tensor<128x128xf32>} : () -> tensor<128x128xf32>
    %639 = "tfl.pseudo_const"() {value = dense<"hex_value_removed_for_legibility_this_model_will_not_run_correctly_without_it"> : tensor<128xf32>} : () -> tensor<128xf32>
    %640 = "tfl.fully_connected"(%632, %638, %639) {fused_activation_function = "NONE", keep_num_dims = false, weights_format = "DEFAULT"} : (tensor<1x384x128xf32>, tensor<128x128xf32>, tensor<128xf32>) -> tensor<384x128xf32>
    %641 = "tfl.pseudo_const"() {value = dense<"hex_value_removed_for_legibility_this_model_will_not_run_correctly_without_it"> : tensor<128x128xf32>} : () -> tensor<128x128xf32>
    %642 = "tfl.pseudo_const"() {value = dense<"hex_value_removed_for_legibility_this_model_will_not_run_correctly_without_it"> : tensor<128xf32>} : () -> tensor<128xf32>
    %643 = "tfl.fully_connected"(%634, %641, %642) {fused_activation_function = "NONE", keep_num_dims = false, weights_format = "DEFAULT"} : (tensor<1x384x128xf32>, tensor<128x128xf32>, tensor<128xf32>) -> tensor<384x128xf32>
    %644 = "tfl.pseudo_const"() {value = dense<[1, 384, 4, 32]> : tensor<4xi32>} : () -> tensor<4xi32>
    %645 = "tfl.reshape"(%637, %644) : (tensor<384x128xf32>, tensor<4xi32>) -> tensor<1x384x4x32xf32>
    %646 = "tfl.pseudo_const"() {value = dense<[1, 384, 4, 32]> : tensor<4xi32>} : () -> tensor<4xi32>
    %647 = "tfl.reshape"(%640, %646) : (tensor<384x128xf32>, tensor<4xi32>) -> tensor<1x384x4x32xf32>
    %648 = "tfl.pseudo_const"() {value = dense<[1, 384, 4, 32]> : tensor<4xi32>} : () -> tensor<4xi32>
    %649 = "tfl.reshape"(%643, %648) : (tensor<384x128xf32>, tensor<4xi32>) -> tensor<1x384x4x32xf32>
    %650 = "tfl.pseudo_const"() {value = dense<[0, 2, 1, 3]> : tensor<4xi32>} : () -> tensor<4xi32>
    %651 = "tfl.transpose"(%645, %650) : (tensor<1x384x4x32xf32>, tensor<4xi32>) -> tensor<1x4x384x32xf32>
    %652 = "tfl.pseudo_const"() {value = dense<[0, 2, 1, 3]> : tensor<4xi32>} : () -> tensor<4xi32>
    %653 = "tfl.transpose"(%647, %652) : (tensor<1x384x4x32xf32>, tensor<4xi32>) -> tensor<1x4x384x32xf32>
    %654 = "tfl.pseudo_const"() {value = dense<[0, 2, 1, 3]> : tensor<4xi32>} : () -> tensor<4xi32>
    %655 = "tfl.transpose"(%649, %654) : (tensor<1x384x4x32xf32>, tensor<4xi32>) -> tensor<1x4x384x32xf32>
    %656 = "tfl.pseudo_const"() {value = dense<[0, 1, 3, 2]> : tensor<4xi32>} : () -> tensor<4xi32>
    %657 = "tfl.transpose"(%653, %656) : (tensor<1x4x384x32xf32>, tensor<4xi32>) -> tensor<1x4x32x384xf32>
    %658 = "tfl.pseudo_const"() {value = dense<[4, 384, 32]> : tensor<3xi32>} : () -> tensor<3xi32>
    %659 = "tfl.reshape"(%651, %658) : (tensor<1x4x384x32xf32>, tensor<3xi32>) -> tensor<4x384x32xf32>
    %660 = "tfl.pseudo_const"() {value = dense<0> : tensor<3xi32>} : () -> tensor<3xi32>
    %661 = "tfl.pseudo_const"() {value = dense<[1, 384, 32]> : tensor<3xi32>} : () -> tensor<3xi32>
    %662 = "tfl.slice"(%659, %660, %661) : (tensor<4x384x32xf32>, tensor<3xi32>, tensor<3xi32>) -> tensor<1x384x32xf32>
    %663 = "tfl.pseudo_const"() {value = dense<[1, 0, 0]> : tensor<3xi32>} : () -> tensor<3xi32>
    %664 = "tfl.pseudo_const"() {value = dense<[1, 384, 32]> : tensor<3xi32>} : () -> tensor<3xi32>
    %665 = "tfl.slice"(%659, %663, %664) : (tensor<4x384x32xf32>, tensor<3xi32>, tensor<3xi32>) -> tensor<1x384x32xf32>
    %666 = "tfl.pseudo_const"() {value = dense<[2, 0, 0]> : tensor<3xi32>} : () -> tensor<3xi32>
    %667 = "tfl.pseudo_const"() {value = dense<[1, 384, 32]> : tensor<3xi32>} : () -> tensor<3xi32>
    %668 = "tfl.slice"(%659, %666, %667) : (tensor<4x384x32xf32>, tensor<3xi32>, tensor<3xi32>) -> tensor<1x384x32xf32>
    %669 = "tfl.pseudo_const"() {value = dense<[3, 0, 0]> : tensor<3xi32>} : () -> tensor<3xi32>
    %670 = "tfl.pseudo_const"() {value = dense<[1, 384, 32]> : tensor<3xi32>} : () -> tensor<3xi32>
    %671 = "tfl.slice"(%659, %669, %670) : (tensor<4x384x32xf32>, tensor<3xi32>, tensor<3xi32>) -> tensor<1x384x32xf32>
    %672 = "tfl.pseudo_const"() {value = dense<[4, 32, 384]> : tensor<3xi32>} : () -> tensor<3xi32>
    %673 = "tfl.reshape"(%657, %672) : (tensor<1x4x32x384xf32>, tensor<3xi32>) -> tensor<4x32x384xf32>
    %674 = "tfl.pseudo_const"() {value = dense<0> : tensor<3xi32>} : () -> tensor<3xi32>
    %675 = "tfl.pseudo_const"() {value = dense<[1, 32, 384]> : tensor<3xi32>} : () -> tensor<3xi32>
    %676 = "tfl.slice"(%673, %674, %675) : (tensor<4x32x384xf32>, tensor<3xi32>, tensor<3xi32>) -> tensor<1x32x384xf32>
    %677 = "tfl.pseudo_const"() {value = dense<[2, 1, 0]> : tensor<3xi32>} : () -> tensor<3xi32>
    %678 = "tfl.transpose"(%676, %677) : (tensor<1x32x384xf32>, tensor<3xi32>) -> tensor<384x32x1xf32>
    %679 = "tfl.pseudo_const"() {value = dense<[1, 0, 0]> : tensor<3xi32>} : () -> tensor<3xi32>
    %680 = "tfl.pseudo_const"() {value = dense<[1, 32, 384]> : tensor<3xi32>} : () -> tensor<3xi32>
    %681 = "tfl.slice"(%673, %679, %680) : (tensor<4x32x384xf32>, tensor<3xi32>, tensor<3xi32>) -> tensor<1x32x384xf32>
    %682 = "tfl.pseudo_const"() {value = dense<[2, 1, 0]> : tensor<3xi32>} : () -> tensor<3xi32>
    %683 = "tfl.transpose"(%681, %682) : (tensor<1x32x384xf32>, tensor<3xi32>) -> tensor<384x32x1xf32>
    %684 = "tfl.pseudo_const"() {value = dense<[2, 0, 0]> : tensor<3xi32>} : () -> tensor<3xi32>
    %685 = "tfl.pseudo_const"() {value = dense<[1, 32, 384]> : tensor<3xi32>} : () -> tensor<3xi32>
    %686 = "tfl.slice"(%673, %684, %685) : (tensor<4x32x384xf32>, tensor<3xi32>, tensor<3xi32>) -> tensor<1x32x384xf32>
    %687 = "tfl.pseudo_const"() {value = dense<[2, 1, 0]> : tensor<3xi32>} : () -> tensor<3xi32>
    %688 = "tfl.transpose"(%686, %687) : (tensor<1x32x384xf32>, tensor<3xi32>) -> tensor<384x32x1xf32>
    %689 = "tfl.pseudo_const"() {value = dense<[3, 0, 0]> : tensor<3xi32>} : () -> tensor<3xi32>
    %690 = "tfl.pseudo_const"() {value = dense<[1, 32, 384]> : tensor<3xi32>} : () -> tensor<3xi32>
    %691 = "tfl.slice"(%673, %689, %690) : (tensor<4x32x384xf32>, tensor<3xi32>, tensor<3xi32>) -> tensor<1x32x384xf32>
    %692 = "tfl.pseudo_const"() {value = dense<[2, 1, 0]> : tensor<3xi32>} : () -> tensor<3xi32>
    %693 = "tfl.transpose"(%691, %692) : (tensor<1x32x384xf32>, tensor<3xi32>) -> tensor<384x32x1xf32>
    %694 = "tfl.pseudo_const"() {value = dense<[384, 32]> : tensor<2xi32>} : () -> tensor<2xi32>
    %695 = "tfl.reshape"(%678, %694) : (tensor<384x32x1xf32>, tensor<2xi32>) -> tensor<384x32xf32>
    %696 = "tfl.fully_connected"(%662, %695, %258) {fused_activation_function = "NONE", keep_num_dims = false, weights_format = "DEFAULT"} : (tensor<1x384x32xf32>, tensor<384x32xf32>, tensor<384xf32>) -> tensor<384x384xf32>
    %697 = "tfl.pseudo_const"() {value = dense<[384, 32]> : tensor<2xi32>} : () -> tensor<2xi32>
    %698 = "tfl.reshape"(%683, %697) : (tensor<384x32x1xf32>, tensor<2xi32>) -> tensor<384x32xf32>
    %699 = "tfl.fully_connected"(%665, %698, %258) {fused_activation_function = "NONE", keep_num_dims = false, weights_format = "DEFAULT"} : (tensor<1x384x32xf32>, tensor<384x32xf32>, tensor<384xf32>) -> tensor<384x384xf32>
    %700 = "tfl.pseudo_const"() {value = dense<[384, 32]> : tensor<2xi32>} : () -> tensor<2xi32>
    %701 = "tfl.reshape"(%688, %700) : (tensor<384x32x1xf32>, tensor<2xi32>) -> tensor<384x32xf32>
    %702 = "tfl.fully_connected"(%668, %701, %258) {fused_activation_function = "NONE", keep_num_dims = false, weights_format = "DEFAULT"} : (tensor<1x384x32xf32>, tensor<384x32xf32>, tensor<384xf32>) -> tensor<384x384xf32>
    %703 = "tfl.pseudo_const"() {value = dense<[384, 32]> : tensor<2xi32>} : () -> tensor<2xi32>
    %704 = "tfl.reshape"(%693, %703) : (tensor<384x32x1xf32>, tensor<2xi32>) -> tensor<384x32xf32>
    %705 = "tfl.fully_connected"(%671, %704, %258) {fused_activation_function = "NONE", keep_num_dims = false, weights_format = "DEFAULT"} : (tensor<1x384x32xf32>, tensor<384x32xf32>, tensor<384xf32>) -> tensor<384x384xf32>
    %706 = "tfl.pack"(%696, %699, %702, %705) {axis = 0 : i32, values_count = 4 : i32} : (tensor<384x384xf32>, tensor<384x384xf32>, tensor<384x384xf32>, tensor<384x384xf32>) -> tensor<4x384x384xf32>
    %707 = "tfl.pseudo_const"() {value = dense<0.176776692> : tensor<f32>} : () -> tensor<f32>
    %708 = "tfl.mul"(%706, %707) {fused_activation_function = "NONE"} : (tensor<4x384x384xf32>, tensor<f32>) -> tensor<4x384x384xf32>
    %709 = "tfl.pseudo_const"() {value = dense<[1, 4, 384, 384]> : tensor<4xi32>} : () -> tensor<4xi32>
    %710 = "tfl.reshape"(%708, %709) : (tensor<4x384x384xf32>, tensor<4xi32>) -> tensor<1x4x384x384xf32>
    %711 = "tfl.add"(%710, %124) {fused_activation_function = "NONE"} : (tensor<1x4x384x384xf32>, tensor<1x1x384x384xf32>) -> tensor<1x4x384x384xf32>
    %712 = "tfl.softmax"(%711) {beta = 1.000000e+00 : f32} : (tensor<1x4x384x384xf32>) -> tensor<1x4x384x384xf32>
    %713 = "tfl.pseudo_const"() {value = dense<[4, 384, 384]> : tensor<3xi32>} : () -> tensor<3xi32>
    %714 = "tfl.reshape"(%712, %713) : (tensor<1x4x384x384xf32>, tensor<3xi32>) -> tensor<4x384x384xf32>
    %715 = "tfl.pseudo_const"() {value = dense<0> : tensor<3xi32>} : () -> tensor<3xi32>
    %716 = "tfl.pseudo_const"() {value = dense<[1, 384, 384]> : tensor<3xi32>} : () -> tensor<3xi32>
    %717 = "tfl.slice"(%714, %715, %716) : (tensor<4x384x384xf32>, tensor<3xi32>, tensor<3xi32>) -> tensor<1x384x384xf32>
    %718 = "tfl.pseudo_const"() {value = dense<[1, 0, 0]> : tensor<3xi32>} : () -> tensor<3xi32>
    %719 = "tfl.pseudo_const"() {value = dense<[1, 384, 384]> : tensor<3xi32>} : () -> tensor<3xi32>
    %720 = "tfl.slice"(%714, %718, %719) : (tensor<4x384x384xf32>, tensor<3xi32>, tensor<3xi32>) -> tensor<1x384x384xf32>
    %721 = "tfl.pseudo_const"() {value = dense<[2, 0, 0]> : tensor<3xi32>} : () -> tensor<3xi32>
    %722 = "tfl.pseudo_const"() {value = dense<[1, 384, 384]> : tensor<3xi32>} : () -> tensor<3xi32>
    %723 = "tfl.slice"(%714, %721, %722) : (tensor<4x384x384xf32>, tensor<3xi32>, tensor<3xi32>) -> tensor<1x384x384xf32>
    %724 = "tfl.pseudo_const"() {value = dense<[3, 0, 0]> : tensor<3xi32>} : () -> tensor<3xi32>
    %725 = "tfl.pseudo_const"() {value = dense<[1, 384, 384]> : tensor<3xi32>} : () -> tensor<3xi32>
    %726 = "tfl.slice"(%714, %724, %725) : (tensor<4x384x384xf32>, tensor<3xi32>, tensor<3xi32>) -> tensor<1x384x384xf32>
    %727 = "tfl.pseudo_const"() {value = dense<[4, 384, 32]> : tensor<3xi32>} : () -> tensor<3xi32>
    %728 = "tfl.reshape"(%655, %727) : (tensor<1x4x384x32xf32>, tensor<3xi32>) -> tensor<4x384x32xf32>
    %729 = "tfl.pseudo_const"() {value = dense<0> : tensor<3xi32>} : () -> tensor<3xi32>
    %730 = "tfl.pseudo_const"() {value = dense<[1, 384, 32]> : tensor<3xi32>} : () -> tensor<3xi32>
    %731 = "tfl.slice"(%728, %729, %730) : (tensor<4x384x32xf32>, tensor<3xi32>, tensor<3xi32>) -> tensor<1x384x32xf32>
    %732 = "tfl.pseudo_const"() {value = dense<[2, 1, 0]> : tensor<3xi32>} : () -> tensor<3xi32>
    %733 = "tfl.transpose"(%731, %732) : (tensor<1x384x32xf32>, tensor<3xi32>) -> tensor<32x384x1xf32>
    %734 = "tfl.pseudo_const"() {value = dense<[1, 0, 0]> : tensor<3xi32>} : () -> tensor<3xi32>
    %735 = "tfl.pseudo_const"() {value = dense<[1, 384, 32]> : tensor<3xi32>} : () -> tensor<3xi32>
    %736 = "tfl.slice"(%728, %734, %735) : (tensor<4x384x32xf32>, tensor<3xi32>, tensor<3xi32>) -> tensor<1x384x32xf32>
    %737 = "tfl.pseudo_const"() {value = dense<[2, 1, 0]> : tensor<3xi32>} : () -> tensor<3xi32>
    %738 = "tfl.transpose"(%736, %737) : (tensor<1x384x32xf32>, tensor<3xi32>) -> tensor<32x384x1xf32>
    %739 = "tfl.pseudo_const"() {value = dense<[2, 0, 0]> : tensor<3xi32>} : () -> tensor<3xi32>
    %740 = "tfl.pseudo_const"() {value = dense<[1, 384, 32]> : tensor<3xi32>} : () -> tensor<3xi32>
    %741 = "tfl.slice"(%728, %739, %740) : (tensor<4x384x32xf32>, tensor<3xi32>, tensor<3xi32>) -> tensor<1x384x32xf32>
    %742 = "tfl.pseudo_const"() {value = dense<[2, 1, 0]> : tensor<3xi32>} : () -> tensor<3xi32>
    %743 = "tfl.transpose"(%741, %742) : (tensor<1x384x32xf32>, tensor<3xi32>) -> tensor<32x384x1xf32>
    %744 = "tfl.pseudo_const"() {value = dense<[3, 0, 0]> : tensor<3xi32>} : () -> tensor<3xi32>
    %745 = "tfl.pseudo_const"() {value = dense<[1, 384, 32]> : tensor<3xi32>} : () -> tensor<3xi32>
    %746 = "tfl.slice"(%728, %744, %745) : (tensor<4x384x32xf32>, tensor<3xi32>, tensor<3xi32>) -> tensor<1x384x32xf32>
    %747 = "tfl.pseudo_const"() {value = dense<[2, 1, 0]> : tensor<3xi32>} : () -> tensor<3xi32>
    %748 = "tfl.transpose"(%746, %747) : (tensor<1x384x32xf32>, tensor<3xi32>) -> tensor<32x384x1xf32>
    %749 = "tfl.pseudo_const"() {value = dense<[32, 384]> : tensor<2xi32>} : () -> tensor<2xi32>
    %750 = "tfl.reshape"(%733, %749) : (tensor<32x384x1xf32>, tensor<2xi32>) -> tensor<32x384xf32>
    %751 = "tfl.fully_connected"(%717, %750, %314) {fused_activation_function = "NONE", keep_num_dims = false, weights_format = "DEFAULT"} : (tensor<1x384x384xf32>, tensor<32x384xf32>, tensor<32xf32>) -> tensor<384x32xf32>
    %752 = "tfl.pseudo_const"() {value = dense<[32, 384]> : tensor<2xi32>} : () -> tensor<2xi32>
    %753 = "tfl.reshape"(%738, %752) : (tensor<32x384x1xf32>, tensor<2xi32>) -> tensor<32x384xf32>
    %754 = "tfl.fully_connected"(%720, %753, %314) {fused_activation_function = "NONE", keep_num_dims = false, weights_format = "DEFAULT"} : (tensor<1x384x384xf32>, tensor<32x384xf32>, tensor<32xf32>) -> tensor<384x32xf32>
    %755 = "tfl.pseudo_const"() {value = dense<[32, 384]> : tensor<2xi32>} : () -> tensor<2xi32>
    %756 = "tfl.reshape"(%743, %755) : (tensor<32x384x1xf32>, tensor<2xi32>) -> tensor<32x384xf32>
    %757 = "tfl.fully_connected"(%723, %756, %314) {fused_activation_function = "NONE", keep_num_dims = false, weights_format = "DEFAULT"} : (tensor<1x384x384xf32>, tensor<32x384xf32>, tensor<32xf32>) -> tensor<384x32xf32>
    %758 = "tfl.pseudo_const"() {value = dense<[32, 384]> : tensor<2xi32>} : () -> tensor<2xi32>
    %759 = "tfl.reshape"(%748, %758) : (tensor<32x384x1xf32>, tensor<2xi32>) -> tensor<32x384xf32>
    %760 = "tfl.fully_connected"(%726, %759, %314) {fused_activation_function = "NONE", keep_num_dims = false, weights_format = "DEFAULT"} : (tensor<1x384x384xf32>, tensor<32x384xf32>, tensor<32xf32>) -> tensor<384x32xf32>
    %761 = "tfl.pack"(%751, %754, %757, %760) {axis = 0 : i32, values_count = 4 : i32} : (tensor<384x32xf32>, tensor<384x32xf32>, tensor<384x32xf32>, tensor<384x32xf32>) -> tensor<4x384x32xf32>
    %762 = "tfl.pseudo_const"() {value = dense<[1, 0, 2]> : tensor<3xi32>} : () -> tensor<3xi32>
    %763 = "tfl.transpose"(%761, %762) : (tensor<4x384x32xf32>, tensor<3xi32>) -> tensor<384x4x32xf32>
    %764 = "tfl.pseudo_const"() {value = dense<[1, 384, 4, 32]> : tensor<4xi32>} : () -> tensor<4xi32>
    %765 = "tfl.reshape"(%763, %764) : (tensor<384x4x32xf32>, tensor<4xi32>) -> tensor<1x384x4x32xf32>
    %766 = "tfl.pseudo_const"() {value = dense<"hex_value_removed_for_legibility_this_model_will_not_run_correctly_without_it"> : tensor<128x128xf32>} : () -> tensor<128x128xf32>
    %767 = "tfl.pseudo_const"() {value = dense<"hex_value_removed_for_legibility_this_model_will_not_run_correctly_without_it"> : tensor<128xf32>} : () -> tensor<128xf32>
    %768 = "tfl.fully_connected"(%765, %766, %767) {fused_activation_function = "NONE", keep_num_dims = false, weights_format = "DEFAULT"} : (tensor<1x384x4x32xf32>, tensor<128x128xf32>, tensor<128xf32>) -> tensor<384x128xf32>
    %769 = "tfl.pseudo_const"() {value = dense<[1, 384, 128]> : tensor<3xi32>} : () -> tensor<3xi32>
    %770 = "tfl.reshape"(%768, %769) : (tensor<384x128xf32>, tensor<3xi32>) -> tensor<1x384x128xf32>
    %771 = tfl.add %770, %630 {fused_activation_function = "NONE"} : tensor<1x384x128xf32>
    %772 = "tfl.pseudo_const"() {value = dense<"hex_value_removed_for_legibility_this_model_will_not_run_correctly_without_it"> : tensor<128xf32>} : () -> tensor<128xf32>
    %773 = "tfl.mul"(%771, %772) {fused_activation_function = "NONE"} : (tensor<1x384x128xf32>, tensor<128xf32>) -> tensor<1x384x128xf32>
    %774 = "tfl.pseudo_const"() {value = dense<"hex_value_removed_for_legibility_this_model_will_not_run_correctly_without_it"> : tensor<128xf32>} : () -> tensor<128xf32>
    %775 = "tfl.add"(%773, %774) {fused_activation_function = "NONE"} : (tensor<1x384x128xf32>, tensor<128xf32>) -> tensor<1x384x128xf32>
    %776 = "tfl.pseudo_const"() {value = dense<"hex_value_removed_for_legibility_this_model_will_not_run_correctly_without_it"> : tensor<512x128xf32>} : () -> tensor<512x128xf32>
    %777 = "tfl.pseudo_const"() {value = dense<"hex_value_removed_for_legibility_this_model_will_not_run_correctly_without_it"> : tensor<512xf32>} : () -> tensor<512xf32>
    %778 = "tfl.fully_connected"(%775, %776, %777) {fused_activation_function = "RELU", keep_num_dims = false, weights_format = "DEFAULT"} : (tensor<1x384x128xf32>, tensor<512x128xf32>, tensor<512xf32>) -> tensor<384x512xf32>
    %779 = "tfl.pseudo_const"() {value = dense<"hex_value_removed_for_legibility_this_model_will_not_run_correctly_without_it"> : tensor<128x512xf32>} : () -> tensor<128x512xf32>
    %780 = "tfl.pseudo_const"() {value = dense<"hex_value_removed_for_legibility_this_model_will_not_run_correctly_without_it"> : tensor<128xf32>} : () -> tensor<128xf32>
    %781 = "tfl.fully_connected"(%778, %779, %780) {fused_activation_function = "NONE", keep_num_dims = false, weights_format = "DEFAULT"} : (tensor<384x512xf32>, tensor<128x512xf32>, tensor<128xf32>) -> tensor<384x128xf32>
    %782 = "tfl.pseudo_const"() {value = dense<[1, 384, 128]> : tensor<3xi32>} : () -> tensor<3xi32>
    %783 = "tfl.reshape"(%781, %782) : (tensor<384x128xf32>, tensor<3xi32>) -> tensor<1x384x128xf32>
    %784 = tfl.add %783, %775 {fused_activation_function = "NONE"} : tensor<1x384x128xf32>
    %785 = "tfl.pseudo_const"() {value = dense<"hex_value_removed_for_legibility_this_model_will_not_run_correctly_without_it"> : tensor<128xf32>} : () -> tensor<128xf32>
    %786 = "tfl.mul"(%784, %785) {fused_activation_function = "NONE"} : (tensor<1x384x128xf32>, tensor<128xf32>) -> tensor<1x384x128xf32>
    %787 = "tfl.pseudo_const"() {value = dense<"hex_value_removed_for_legibility_this_model_will_not_run_correctly_without_it"> : tensor<128xf32>} : () -> tensor<128xf32>
    %788 = "tfl.add"(%786, %787) {fused_activation_function = "NONE"} : (tensor<1x384x128xf32>, tensor<128xf32>) -> tensor<1x384x128xf32>
    %789 = "tfl.pseudo_const"() {value = dense<"hex_value_removed_for_legibility_this_model_will_not_run_correctly_without_it"> : tensor<512x128xf32>} : () -> tensor<512x128xf32>
    %790 = "tfl.pseudo_const"() {value = dense<"hex_value_removed_for_legibility_this_model_will_not_run_correctly_without_it"> : tensor<512xf32>} : () -> tensor<512xf32>
    %791 = "tfl.fully_connected"(%788, %789, %790) {fused_activation_function = "RELU", keep_num_dims = false, weights_format = "DEFAULT"} : (tensor<1x384x128xf32>, tensor<512x128xf32>, tensor<512xf32>) -> tensor<384x512xf32>
    %792 = "tfl.pseudo_const"() {value = dense<"hex_value_removed_for_legibility_this_model_will_not_run_correctly_without_it"> : tensor<128x512xf32>} : () -> tensor<128x512xf32>
    %793 = "tfl.pseudo_const"() {value = dense<"hex_value_removed_for_legibility_this_model_will_not_run_correctly_without_it"> : tensor<128xf32>} : () -> tensor<128xf32>
    %794 = "tfl.fully_connected"(%791, %792, %793) {fused_activation_function = "NONE", keep_num_dims = false, weights_format = "DEFAULT"} : (tensor<384x512xf32>, tensor<128x512xf32>, tensor<128xf32>) -> tensor<384x128xf32>
    %795 = "tfl.pseudo_const"() {value = dense<[1, 384, 128]> : tensor<3xi32>} : () -> tensor<3xi32>
    %796 = "tfl.reshape"(%794, %795) : (tensor<384x128xf32>, tensor<3xi32>) -> tensor<1x384x128xf32>
    %797 = tfl.add %796, %788 {fused_activation_function = "NONE"} : tensor<1x384x128xf32>
    %798 = "tfl.pseudo_const"() {value = dense<"hex_value_removed_for_legibility_this_model_will_not_run_correctly_without_it"> : tensor<128xf32>} : () -> tensor<128xf32>
    %799 = "tfl.mul"(%797, %798) {fused_activation_function = "NONE"} : (tensor<1x384x128xf32>, tensor<128xf32>) -> tensor<1x384x128xf32>
    %800 = "tfl.pseudo_const"() {value = dense<"hex_value_removed_for_legibility_this_model_will_not_run_correctly_without_it"> : tensor<128xf32>} : () -> tensor<128xf32>
    %801 = "tfl.add"(%799, %800) {fused_activation_function = "NONE"} : (tensor<1x384x128xf32>, tensor<128xf32>) -> tensor<1x384x128xf32>
    %802 = "tfl.pseudo_const"() {value = dense<"hex_value_removed_for_legibility_this_model_will_not_run_correctly_without_it"> : tensor<512x128xf32>} : () -> tensor<512x128xf32>
    %803 = "tfl.pseudo_const"() {value = dense<"hex_value_removed_for_legibility_this_model_will_not_run_correctly_without_it"> : tensor<512xf32>} : () -> tensor<512xf32>
    %804 = "tfl.fully_connected"(%801, %802, %803) {fused_activation_function = "RELU", keep_num_dims = false, weights_format = "DEFAULT"} : (tensor<1x384x128xf32>, tensor<512x128xf32>, tensor<512xf32>) -> tensor<384x512xf32>
    %805 = "tfl.pseudo_const"() {value = dense<"hex_value_removed_for_legibility_this_model_will_not_run_correctly_without_it"> : tensor<128x512xf32>} : () -> tensor<128x512xf32>
    %806 = "tfl.pseudo_const"() {value = dense<"hex_value_removed_for_legibility_this_model_will_not_run_correctly_without_it"> : tensor<128xf32>} : () -> tensor<128xf32>
    %807 = "tfl.fully_connected"(%804, %805, %806) {fused_activation_function = "NONE", keep_num_dims = false, weights_format = "DEFAULT"} : (tensor<384x512xf32>, tensor<128x512xf32>, tensor<128xf32>) -> tensor<384x128xf32>
    %808 = "tfl.pseudo_const"() {value = dense<[1, 384, 128]> : tensor<3xi32>} : () -> tensor<3xi32>
    %809 = "tfl.reshape"(%807, %808) : (tensor<384x128xf32>, tensor<3xi32>) -> tensor<1x384x128xf32>
    %810 = tfl.add %809, %801 {fused_activation_function = "NONE"} : tensor<1x384x128xf32>
    %811 = "tfl.pseudo_const"() {value = dense<"hex_value_removed_for_legibility_this_model_will_not_run_correctly_without_it"> : tensor<128xf32>} : () -> tensor<128xf32>
    %812 = "tfl.mul"(%810, %811) {fused_activation_function = "NONE"} : (tensor<1x384x128xf32>, tensor<128xf32>) -> tensor<1x384x128xf32>
    %813 = "tfl.pseudo_const"() {value = dense<"hex_value_removed_for_legibility_this_model_will_not_run_correctly_without_it"> : tensor<128xf32>} : () -> tensor<128xf32>
    %814 = "tfl.add"(%812, %813) {fused_activation_function = "NONE"} : (tensor<1x384x128xf32>, tensor<128xf32>) -> tensor<1x384x128xf32>
    %815 = "tfl.pseudo_const"() {value = dense<"hex_value_removed_for_legibility_this_model_will_not_run_correctly_without_it"> : tensor<512x128xf32>} : () -> tensor<512x128xf32>
    %816 = "tfl.pseudo_const"() {value = dense<"hex_value_removed_for_legibility_this_model_will_not_run_correctly_without_it"> : tensor<512xf32>} : () -> tensor<512xf32>
    %817 = "tfl.fully_connected"(%814, %815, %816) {fused_activation_function = "RELU", keep_num_dims = false, weights_format = "DEFAULT"} : (tensor<1x384x128xf32>, tensor<512x128xf32>, tensor<512xf32>) -> tensor<384x512xf32>
    %818 = "tfl.pseudo_const"() {value = dense<"hex_value_removed_for_legibility_this_model_will_not_run_correctly_without_it"> : tensor<128x512xf32>} : () -> tensor<128x512xf32>
    %819 = "tfl.pseudo_const"() {value = dense<"hex_value_removed_for_legibility_this_model_will_not_run_correctly_without_it"> : tensor<128xf32>} : () -> tensor<128xf32>
    %820 = "tfl.fully_connected"(%817, %818, %819) {fused_activation_function = "NONE", keep_num_dims = false, weights_format = "DEFAULT"} : (tensor<384x512xf32>, tensor<128x512xf32>, tensor<128xf32>) -> tensor<384x128xf32>
    %821 = "tfl.pseudo_const"() {value = dense<[1, 384, 128]> : tensor<3xi32>} : () -> tensor<3xi32>
    %822 = "tfl.reshape"(%820, %821) : (tensor<384x128xf32>, tensor<3xi32>) -> tensor<1x384x128xf32>
    %823 = tfl.add %822, %814 {fused_activation_function = "NONE"} : tensor<1x384x128xf32>
    %824 = "tfl.pseudo_const"() {value = dense<"hex_value_removed_for_legibility_this_model_will_not_run_correctly_without_it"> : tensor<128xf32>} : () -> tensor<128xf32>
    %825 = "tfl.mul"(%823, %824) {fused_activation_function = "NONE"} : (tensor<1x384x128xf32>, tensor<128xf32>) -> tensor<1x384x128xf32>
    %826 = "tfl.pseudo_const"() {value = dense<"hex_value_removed_for_legibility_this_model_will_not_run_correctly_without_it"> : tensor<128xf32>} : () -> tensor<128xf32>
    %827 = "tfl.add"(%825, %826) {fused_activation_function = "NONE"} : (tensor<1x384x128xf32>, tensor<128xf32>) -> tensor<1x384x128xf32>
    %828 = "tfl.pseudo_const"() {value = dense<"hex_value_removed_for_legibility_this_model_will_not_run_correctly_without_it"> : tensor<512x128xf32>} : () -> tensor<512x128xf32>
    %829 = "tfl.pseudo_const"() {value = dense<"hex_value_removed_for_legibility_this_model_will_not_run_correctly_without_it"> : tensor<512xf32>} : () -> tensor<512xf32>
    %830 = "tfl.fully_connected"(%827, %828, %829) {fused_activation_function = "NONE", keep_num_dims = false, weights_format = "DEFAULT"} : (tensor<1x384x128xf32>, tensor<512x128xf32>, tensor<512xf32>) -> tensor<384x512xf32>
    %831 = "tfl.pseudo_const"() {value = dense<[1, 384, 512]> : tensor<3xi32>} : () -> tensor<3xi32>
    %832 = "tfl.reshape"(%830, %831) : (tensor<384x512xf32>, tensor<3xi32>) -> tensor<1x384x512xf32>
    %833 = tfl.add %832, %619 {fused_activation_function = "NONE"} : tensor<1x384x512xf32>
    %834 = "tfl.pseudo_const"() {value = dense<"hex_value_removed_for_legibility_this_model_will_not_run_correctly_without_it"> : tensor<512xf32>} : () -> tensor<512xf32>
    %835 = "tfl.mul"(%833, %834) {fused_activation_function = "NONE"} : (tensor<1x384x512xf32>, tensor<512xf32>) -> tensor<1x384x512xf32>
    %836 = "tfl.pseudo_const"() {value = dense<"hex_value_removed_for_legibility_this_model_will_not_run_correctly_without_it"> : tensor<512xf32>} : () -> tensor<512xf32>
    %837 = "tfl.add"(%835, %836) {fused_activation_function = "NONE"} : (tensor<1x384x512xf32>, tensor<512xf32>) -> tensor<1x384x512xf32>
    %838 = "tfl.pseudo_const"() {value = dense<"hex_value_removed_for_legibility_this_model_will_not_run_correctly_without_it"> : tensor<128x512xf32>} : () -> tensor<128x512xf32>
    %839 = "tfl.pseudo_const"() {value = dense<"hex_value_removed_for_legibility_this_model_will_not_run_correctly_without_it"> : tensor<128xf32>} : () -> tensor<128xf32>
    %840 = "tfl.fully_connected"(%837, %838, %839) {fused_activation_function = "NONE", keep_num_dims = false, weights_format = "DEFAULT"} : (tensor<1x384x512xf32>, tensor<128x512xf32>, tensor<128xf32>) -> tensor<384x128xf32>
    %841 = "tfl.pseudo_const"() {value = dense<"hex_value_removed_for_legibility_this_model_will_not_run_correctly_without_it"> : tensor<128x512xf32>} : () -> tensor<128x512xf32>
    %842 = "tfl.pseudo_const"() {value = dense<"hex_value_removed_for_legibility_this_model_will_not_run_correctly_without_it"> : tensor<128xf32>} : () -> tensor<128xf32>
    %843 = "tfl.fully_connected"(%837, %841, %842) {fused_activation_function = "NONE", keep_num_dims = false, weights_format = "DEFAULT"} : (tensor<1x384x512xf32>, tensor<128x512xf32>, tensor<128xf32>) -> tensor<384x128xf32>
    %844 = "tfl.pseudo_const"() {value = dense<"hex_value_removed_for_legibility_this_model_will_not_run_correctly_without_it"> : tensor<128x512xf32>} : () -> tensor<128x512xf32>
    %845 = "tfl.pseudo_const"() {value = dense<"hex_value_removed_for_legibility_this_model_will_not_run_correctly_without_it"> : tensor<128xf32>} : () -> tensor<128xf32>
    %846 = "tfl.fully_connected"(%837, %844, %845) {fused_activation_function = "NONE", keep_num_dims = false, weights_format = "DEFAULT"} : (tensor<1x384x512xf32>, tensor<128x512xf32>, tensor<128xf32>) -> tensor<384x128xf32>
    %847 = "tfl.pseudo_const"() {value = dense<[1, 384, 128]> : tensor<3xi32>} : () -> tensor<3xi32>
    %848 = "tfl.reshape"(%840, %847) : (tensor<384x128xf32>, tensor<3xi32>) -> tensor<1x384x128xf32>
    %849 = "tfl.pseudo_const"() {value = dense<[1, 384, 128]> : tensor<3xi32>} : () -> tensor<3xi32>
    %850 = "tfl.reshape"(%843, %849) : (tensor<384x128xf32>, tensor<3xi32>) -> tensor<1x384x128xf32>
    %851 = "tfl.pseudo_const"() {value = dense<[1, 384, 128]> : tensor<3xi32>} : () -> tensor<3xi32>
    %852 = "tfl.reshape"(%846, %851) : (tensor<384x128xf32>, tensor<3xi32>) -> tensor<1x384x128xf32>
    %853 = "tfl.pseudo_const"() {value = dense<"hex_value_removed_for_legibility_this_model_will_not_run_correctly_without_it"> : tensor<128x128xf32>} : () -> tensor<128x128xf32>
    %854 = "tfl.pseudo_const"() {value = dense<"hex_value_removed_for_legibility_this_model_will_not_run_correctly_without_it"> : tensor<128xf32>} : () -> tensor<128xf32>
    %855 = "tfl.fully_connected"(%850, %853, %854) {fused_activation_function = "NONE", keep_num_dims = false, weights_format = "DEFAULT"} : (tensor<1x384x128xf32>, tensor<128x128xf32>, tensor<128xf32>) -> tensor<384x128xf32>
    %856 = "tfl.pseudo_const"() {value = dense<"hex_value_removed_for_legibility_this_model_will_not_run_correctly_without_it"> : tensor<128x128xf32>} : () -> tensor<128x128xf32>
    %857 = "tfl.pseudo_const"() {value = dense<"hex_value_removed_for_legibility_this_model_will_not_run_correctly_without_it"> : tensor<128xf32>} : () -> tensor<128xf32>
    %858 = "tfl.fully_connected"(%850, %856, %857) {fused_activation_function = "NONE", keep_num_dims = false, weights_format = "DEFAULT"} : (tensor<1x384x128xf32>, tensor<128x128xf32>, tensor<128xf32>) -> tensor<384x128xf32>
    %859 = "tfl.pseudo_const"() {value = dense<"hex_value_removed_for_legibility_this_model_will_not_run_correctly_without_it"> : tensor<128x128xf32>} : () -> tensor<128x128xf32>
    %860 = "tfl.pseudo_const"() {value = dense<"hex_value_removed_for_legibility_this_model_will_not_run_correctly_without_it"> : tensor<128xf32>} : () -> tensor<128xf32>
    %861 = "tfl.fully_connected"(%852, %859, %860) {fused_activation_function = "NONE", keep_num_dims = false, weights_format = "DEFAULT"} : (tensor<1x384x128xf32>, tensor<128x128xf32>, tensor<128xf32>) -> tensor<384x128xf32>
    %862 = "tfl.pseudo_const"() {value = dense<[1, 384, 4, 32]> : tensor<4xi32>} : () -> tensor<4xi32>
    %863 = "tfl.reshape"(%855, %862) : (tensor<384x128xf32>, tensor<4xi32>) -> tensor<1x384x4x32xf32>
    %864 = "tfl.pseudo_const"() {value = dense<[1, 384, 4, 32]> : tensor<4xi32>} : () -> tensor<4xi32>
    %865 = "tfl.reshape"(%858, %864) : (tensor<384x128xf32>, tensor<4xi32>) -> tensor<1x384x4x32xf32>
    %866 = "tfl.pseudo_const"() {value = dense<[1, 384, 4, 32]> : tensor<4xi32>} : () -> tensor<4xi32>
    %867 = "tfl.reshape"(%861, %866) : (tensor<384x128xf32>, tensor<4xi32>) -> tensor<1x384x4x32xf32>
    %868 = "tfl.pseudo_const"() {value = dense<[0, 2, 1, 3]> : tensor<4xi32>} : () -> tensor<4xi32>
    %869 = "tfl.transpose"(%863, %868) : (tensor<1x384x4x32xf32>, tensor<4xi32>) -> tensor<1x4x384x32xf32>
    %870 = "tfl.pseudo_const"() {value = dense<[0, 2, 1, 3]> : tensor<4xi32>} : () -> tensor<4xi32>
    %871 = "tfl.transpose"(%865, %870) : (tensor<1x384x4x32xf32>, tensor<4xi32>) -> tensor<1x4x384x32xf32>
    %872 = "tfl.pseudo_const"() {value = dense<[0, 2, 1, 3]> : tensor<4xi32>} : () -> tensor<4xi32>
    %873 = "tfl.transpose"(%867, %872) : (tensor<1x384x4x32xf32>, tensor<4xi32>) -> tensor<1x4x384x32xf32>
    %874 = "tfl.pseudo_const"() {value = dense<[0, 1, 3, 2]> : tensor<4xi32>} : () -> tensor<4xi32>
    %875 = "tfl.transpose"(%871, %874) : (tensor<1x4x384x32xf32>, tensor<4xi32>) -> tensor<1x4x32x384xf32>
    %876 = "tfl.pseudo_const"() {value = dense<[4, 384, 32]> : tensor<3xi32>} : () -> tensor<3xi32>
    %877 = "tfl.reshape"(%869, %876) : (tensor<1x4x384x32xf32>, tensor<3xi32>) -> tensor<4x384x32xf32>
    %878 = "tfl.pseudo_const"() {value = dense<0> : tensor<3xi32>} : () -> tensor<3xi32>
    %879 = "tfl.pseudo_const"() {value = dense<[1, 384, 32]> : tensor<3xi32>} : () -> tensor<3xi32>
    %880 = "tfl.slice"(%877, %878, %879) : (tensor<4x384x32xf32>, tensor<3xi32>, tensor<3xi32>) -> tensor<1x384x32xf32>
    %881 = "tfl.pseudo_const"() {value = dense<[1, 0, 0]> : tensor<3xi32>} : () -> tensor<3xi32>
    %882 = "tfl.pseudo_const"() {value = dense<[1, 384, 32]> : tensor<3xi32>} : () -> tensor<3xi32>
    %883 = "tfl.slice"(%877, %881, %882) : (tensor<4x384x32xf32>, tensor<3xi32>, tensor<3xi32>) -> tensor<1x384x32xf32>
    %884 = "tfl.pseudo_const"() {value = dense<[2, 0, 0]> : tensor<3xi32>} : () -> tensor<3xi32>
    %885 = "tfl.pseudo_const"() {value = dense<[1, 384, 32]> : tensor<3xi32>} : () -> tensor<3xi32>
    %886 = "tfl.slice"(%877, %884, %885) : (tensor<4x384x32xf32>, tensor<3xi32>, tensor<3xi32>) -> tensor<1x384x32xf32>
    %887 = "tfl.pseudo_const"() {value = dense<[3, 0, 0]> : tensor<3xi32>} : () -> tensor<3xi32>
    %888 = "tfl.pseudo_const"() {value = dense<[1, 384, 32]> : tensor<3xi32>} : () -> tensor<3xi32>
    %889 = "tfl.slice"(%877, %887, %888) : (tensor<4x384x32xf32>, tensor<3xi32>, tensor<3xi32>) -> tensor<1x384x32xf32>
    %890 = "tfl.pseudo_const"() {value = dense<[4, 32, 384]> : tensor<3xi32>} : () -> tensor<3xi32>
    %891 = "tfl.reshape"(%875, %890) : (tensor<1x4x32x384xf32>, tensor<3xi32>) -> tensor<4x32x384xf32>
    %892 = "tfl.pseudo_const"() {value = dense<0> : tensor<3xi32>} : () -> tensor<3xi32>
    %893 = "tfl.pseudo_const"() {value = dense<[1, 32, 384]> : tensor<3xi32>} : () -> tensor<3xi32>
    %894 = "tfl.slice"(%891, %892, %893) : (tensor<4x32x384xf32>, tensor<3xi32>, tensor<3xi32>) -> tensor<1x32x384xf32>
    %895 = "tfl.pseudo_const"() {value = dense<[2, 1, 0]> : tensor<3xi32>} : () -> tensor<3xi32>
    %896 = "tfl.transpose"(%894, %895) : (tensor<1x32x384xf32>, tensor<3xi32>) -> tensor<384x32x1xf32>
    %897 = "tfl.pseudo_const"() {value = dense<[1, 0, 0]> : tensor<3xi32>} : () -> tensor<3xi32>
    %898 = "tfl.pseudo_const"() {value = dense<[1, 32, 384]> : tensor<3xi32>} : () -> tensor<3xi32>
    %899 = "tfl.slice"(%891, %897, %898) : (tensor<4x32x384xf32>, tensor<3xi32>, tensor<3xi32>) -> tensor<1x32x384xf32>
    %900 = "tfl.pseudo_const"() {value = dense<[2, 1, 0]> : tensor<3xi32>} : () -> tensor<3xi32>
    %901 = "tfl.transpose"(%899, %900) : (tensor<1x32x384xf32>, tensor<3xi32>) -> tensor<384x32x1xf32>
    %902 = "tfl.pseudo_const"() {value = dense<[2, 0, 0]> : tensor<3xi32>} : () -> tensor<3xi32>
    %903 = "tfl.pseudo_const"() {value = dense<[1, 32, 384]> : tensor<3xi32>} : () -> tensor<3xi32>
    %904 = "tfl.slice"(%891, %902, %903) : (tensor<4x32x384xf32>, tensor<3xi32>, tensor<3xi32>) -> tensor<1x32x384xf32>
    %905 = "tfl.pseudo_const"() {value = dense<[2, 1, 0]> : tensor<3xi32>} : () -> tensor<3xi32>
    %906 = "tfl.transpose"(%904, %905) : (tensor<1x32x384xf32>, tensor<3xi32>) -> tensor<384x32x1xf32>
    %907 = "tfl.pseudo_const"() {value = dense<[3, 0, 0]> : tensor<3xi32>} : () -> tensor<3xi32>
    %908 = "tfl.pseudo_const"() {value = dense<[1, 32, 384]> : tensor<3xi32>} : () -> tensor<3xi32>
    %909 = "tfl.slice"(%891, %907, %908) : (tensor<4x32x384xf32>, tensor<3xi32>, tensor<3xi32>) -> tensor<1x32x384xf32>
    %910 = "tfl.pseudo_const"() {value = dense<[2, 1, 0]> : tensor<3xi32>} : () -> tensor<3xi32>
    %911 = "tfl.transpose"(%909, %910) : (tensor<1x32x384xf32>, tensor<3xi32>) -> tensor<384x32x1xf32>
    %912 = "tfl.pseudo_const"() {value = dense<[384, 32]> : tensor<2xi32>} : () -> tensor<2xi32>
    %913 = "tfl.reshape"(%896, %912) : (tensor<384x32x1xf32>, tensor<2xi32>) -> tensor<384x32xf32>
    %914 = "tfl.fully_connected"(%880, %913, %258) {fused_activation_function = "NONE", keep_num_dims = false, weights_format = "DEFAULT"} : (tensor<1x384x32xf32>, tensor<384x32xf32>, tensor<384xf32>) -> tensor<384x384xf32>
    %915 = "tfl.pseudo_const"() {value = dense<[384, 32]> : tensor<2xi32>} : () -> tensor<2xi32>
    %916 = "tfl.reshape"(%901, %915) : (tensor<384x32x1xf32>, tensor<2xi32>) -> tensor<384x32xf32>
    %917 = "tfl.fully_connected"(%883, %916, %258) {fused_activation_function = "NONE", keep_num_dims = false, weights_format = "DEFAULT"} : (tensor<1x384x32xf32>, tensor<384x32xf32>, tensor<384xf32>) -> tensor<384x384xf32>
    %918 = "tfl.pseudo_const"() {value = dense<[384, 32]> : tensor<2xi32>} : () -> tensor<2xi32>
    %919 = "tfl.reshape"(%906, %918) : (tensor<384x32x1xf32>, tensor<2xi32>) -> tensor<384x32xf32>
    %920 = "tfl.fully_connected"(%886, %919, %258) {fused_activation_function = "NONE", keep_num_dims = false, weights_format = "DEFAULT"} : (tensor<1x384x32xf32>, tensor<384x32xf32>, tensor<384xf32>) -> tensor<384x384xf32>
    %921 = "tfl.pseudo_const"() {value = dense<[384, 32]> : tensor<2xi32>} : () -> tensor<2xi32>
    %922 = "tfl.reshape"(%911, %921) : (tensor<384x32x1xf32>, tensor<2xi32>) -> tensor<384x32xf32>
    %923 = "tfl.fully_connected"(%889, %922, %258) {fused_activation_function = "NONE", keep_num_dims = false, weights_format = "DEFAULT"} : (tensor<1x384x32xf32>, tensor<384x32xf32>, tensor<384xf32>) -> tensor<384x384xf32>
    %924 = "tfl.pack"(%914, %917, %920, %923) {axis = 0 : i32, values_count = 4 : i32} : (tensor<384x384xf32>, tensor<384x384xf32>, tensor<384x384xf32>, tensor<384x384xf32>) -> tensor<4x384x384xf32>
    %925 = "tfl.pseudo_const"() {value = dense<0.176776692> : tensor<f32>} : () -> tensor<f32>
    %926 = "tfl.mul"(%924, %925) {fused_activation_function = "NONE"} : (tensor<4x384x384xf32>, tensor<f32>) -> tensor<4x384x384xf32>
    %927 = "tfl.pseudo_const"() {value = dense<[1, 4, 384, 384]> : tensor<4xi32>} : () -> tensor<4xi32>
    %928 = "tfl.reshape"(%926, %927) : (tensor<4x384x384xf32>, tensor<4xi32>) -> tensor<1x4x384x384xf32>
    %929 = "tfl.add"(%928, %126) {fused_activation_function = "NONE"} : (tensor<1x4x384x384xf32>, tensor<1x1x384x384xf32>) -> tensor<1x4x384x384xf32>
    %930 = "tfl.softmax"(%929) {beta = 1.000000e+00 : f32} : (tensor<1x4x384x384xf32>) -> tensor<1x4x384x384xf32>
    %931 = "tfl.pseudo_const"() {value = dense<[4, 384, 384]> : tensor<3xi32>} : () -> tensor<3xi32>
    %932 = "tfl.reshape"(%930, %931) : (tensor<1x4x384x384xf32>, tensor<3xi32>) -> tensor<4x384x384xf32>
    %933 = "tfl.pseudo_const"() {value = dense<0> : tensor<3xi32>} : () -> tensor<3xi32>
    %934 = "tfl.pseudo_const"() {value = dense<[1, 384, 384]> : tensor<3xi32>} : () -> tensor<3xi32>
    %935 = "tfl.slice"(%932, %933, %934) : (tensor<4x384x384xf32>, tensor<3xi32>, tensor<3xi32>) -> tensor<1x384x384xf32>
    %936 = "tfl.pseudo_const"() {value = dense<[1, 0, 0]> : tensor<3xi32>} : () -> tensor<3xi32>
    %937 = "tfl.pseudo_const"() {value = dense<[1, 384, 384]> : tensor<3xi32>} : () -> tensor<3xi32>
    %938 = "tfl.slice"(%932, %936, %937) : (tensor<4x384x384xf32>, tensor<3xi32>, tensor<3xi32>) -> tensor<1x384x384xf32>
    %939 = "tfl.pseudo_const"() {value = dense<[2, 0, 0]> : tensor<3xi32>} : () -> tensor<3xi32>
    %940 = "tfl.pseudo_const"() {value = dense<[1, 384, 384]> : tensor<3xi32>} : () -> tensor<3xi32>
    %941 = "tfl.slice"(%932, %939, %940) : (tensor<4x384x384xf32>, tensor<3xi32>, tensor<3xi32>) -> tensor<1x384x384xf32>
    %942 = "tfl.pseudo_const"() {value = dense<[3, 0, 0]> : tensor<3xi32>} : () -> tensor<3xi32>
    %943 = "tfl.pseudo_const"() {value = dense<[1, 384, 384]> : tensor<3xi32>} : () -> tensor<3xi32>
    %944 = "tfl.slice"(%932, %942, %943) : (tensor<4x384x384xf32>, tensor<3xi32>, tensor<3xi32>) -> tensor<1x384x384xf32>
    %945 = "tfl.pseudo_const"() {value = dense<[4, 384, 32]> : tensor<3xi32>} : () -> tensor<3xi32>
    %946 = "tfl.reshape"(%873, %945) : (tensor<1x4x384x32xf32>, tensor<3xi32>) -> tensor<4x384x32xf32>
    %947 = "tfl.pseudo_const"() {value = dense<0> : tensor<3xi32>} : () -> tensor<3xi32>
    %948 = "tfl.pseudo_const"() {value = dense<[1, 384, 32]> : tensor<3xi32>} : () -> tensor<3xi32>
    %949 = "tfl.slice"(%946, %947, %948) : (tensor<4x384x32xf32>, tensor<3xi32>, tensor<3xi32>) -> tensor<1x384x32xf32>
    %950 = "tfl.pseudo_const"() {value = dense<[2, 1, 0]> : tensor<3xi32>} : () -> tensor<3xi32>
    %951 = "tfl.transpose"(%949, %950) : (tensor<1x384x32xf32>, tensor<3xi32>) -> tensor<32x384x1xf32>
    %952 = "tfl.pseudo_const"() {value = dense<[1, 0, 0]> : tensor<3xi32>} : () -> tensor<3xi32>
    %953 = "tfl.pseudo_const"() {value = dense<[1, 384, 32]> : tensor<3xi32>} : () -> tensor<3xi32>
    %954 = "tfl.slice"(%946, %952, %953) : (tensor<4x384x32xf32>, tensor<3xi32>, tensor<3xi32>) -> tensor<1x384x32xf32>
    %955 = "tfl.pseudo_const"() {value = dense<[2, 1, 0]> : tensor<3xi32>} : () -> tensor<3xi32>
    %956 = "tfl.transpose"(%954, %955) : (tensor<1x384x32xf32>, tensor<3xi32>) -> tensor<32x384x1xf32>
    %957 = "tfl.pseudo_const"() {value = dense<[2, 0, 0]> : tensor<3xi32>} : () -> tensor<3xi32>
    %958 = "tfl.pseudo_const"() {value = dense<[1, 384, 32]> : tensor<3xi32>} : () -> tensor<3xi32>
    %959 = "tfl.slice"(%946, %957, %958) : (tensor<4x384x32xf32>, tensor<3xi32>, tensor<3xi32>) -> tensor<1x384x32xf32>
    %960 = "tfl.pseudo_const"() {value = dense<[2, 1, 0]> : tensor<3xi32>} : () -> tensor<3xi32>
    %961 = "tfl.transpose"(%959, %960) : (tensor<1x384x32xf32>, tensor<3xi32>) -> tensor<32x384x1xf32>
    %962 = "tfl.pseudo_const"() {value = dense<[3, 0, 0]> : tensor<3xi32>} : () -> tensor<3xi32>
    %963 = "tfl.pseudo_const"() {value = dense<[1, 384, 32]> : tensor<3xi32>} : () -> tensor<3xi32>
    %964 = "tfl.slice"(%946, %962, %963) : (tensor<4x384x32xf32>, tensor<3xi32>, tensor<3xi32>) -> tensor<1x384x32xf32>
    %965 = "tfl.pseudo_const"() {value = dense<[2, 1, 0]> : tensor<3xi32>} : () -> tensor<3xi32>
    %966 = "tfl.transpose"(%964, %965) : (tensor<1x384x32xf32>, tensor<3xi32>) -> tensor<32x384x1xf32>
    %967 = "tfl.pseudo_const"() {value = dense<[32, 384]> : tensor<2xi32>} : () -> tensor<2xi32>
    %968 = "tfl.reshape"(%951, %967) : (tensor<32x384x1xf32>, tensor<2xi32>) -> tensor<32x384xf32>
    %969 = "tfl.fully_connected"(%935, %968, %314) {fused_activation_function = "NONE", keep_num_dims = false, weights_format = "DEFAULT"} : (tensor<1x384x384xf32>, tensor<32x384xf32>, tensor<32xf32>) -> tensor<384x32xf32>
    %970 = "tfl.pseudo_const"() {value = dense<[32, 384]> : tensor<2xi32>} : () -> tensor<2xi32>
    %971 = "tfl.reshape"(%956, %970) : (tensor<32x384x1xf32>, tensor<2xi32>) -> tensor<32x384xf32>
    %972 = "tfl.fully_connected"(%938, %971, %314) {fused_activation_function = "NONE", keep_num_dims = false, weights_format = "DEFAULT"} : (tensor<1x384x384xf32>, tensor<32x384xf32>, tensor<32xf32>) -> tensor<384x32xf32>
    %973 = "tfl.pseudo_const"() {value = dense<[32, 384]> : tensor<2xi32>} : () -> tensor<2xi32>
    %974 = "tfl.reshape"(%961, %973) : (tensor<32x384x1xf32>, tensor<2xi32>) -> tensor<32x384xf32>
    %975 = "tfl.fully_connected"(%941, %974, %314) {fused_activation_function = "NONE", keep_num_dims = false, weights_format = "DEFAULT"} : (tensor<1x384x384xf32>, tensor<32x384xf32>, tensor<32xf32>) -> tensor<384x32xf32>
    %976 = "tfl.pseudo_const"() {value = dense<[32, 384]> : tensor<2xi32>} : () -> tensor<2xi32>
    %977 = "tfl.reshape"(%966, %976) : (tensor<32x384x1xf32>, tensor<2xi32>) -> tensor<32x384xf32>
    %978 = "tfl.fully_connected"(%944, %977, %314) {fused_activation_function = "NONE", keep_num_dims = false, weights_format = "DEFAULT"} : (tensor<1x384x384xf32>, tensor<32x384xf32>, tensor<32xf32>) -> tensor<384x32xf32>
    %979 = "tfl.pack"(%969, %972, %975, %978) {axis = 0 : i32, values_count = 4 : i32} : (tensor<384x32xf32>, tensor<384x32xf32>, tensor<384x32xf32>, tensor<384x32xf32>) -> tensor<4x384x32xf32>
    %980 = "tfl.pseudo_const"() {value = dense<[1, 0, 2]> : tensor<3xi32>} : () -> tensor<3xi32>
    %981 = "tfl.transpose"(%979, %980) : (tensor<4x384x32xf32>, tensor<3xi32>) -> tensor<384x4x32xf32>
    %982 = "tfl.pseudo_const"() {value = dense<[1, 384, 4, 32]> : tensor<4xi32>} : () -> tensor<4xi32>
    %983 = "tfl.reshape"(%981, %982) : (tensor<384x4x32xf32>, tensor<4xi32>) -> tensor<1x384x4x32xf32>
    %984 = "tfl.pseudo_const"() {value = dense<"hex_value_removed_for_legibility_this_model_will_not_run_correctly_without_it"> : tensor<128x128xf32>} : () -> tensor<128x128xf32>
    %985 = "tfl.pseudo_const"() {value = dense<"hex_value_removed_for_legibility_this_model_will_not_run_correctly_without_it"> : tensor<128xf32>} : () -> tensor<128xf32>
    %986 = "tfl.fully_connected"(%983, %984, %985) {fused_activation_function = "NONE", keep_num_dims = false, weights_format = "DEFAULT"} : (tensor<1x384x4x32xf32>, tensor<128x128xf32>, tensor<128xf32>) -> tensor<384x128xf32>
    %987 = "tfl.pseudo_const"() {value = dense<[1, 384, 128]> : tensor<3xi32>} : () -> tensor<3xi32>
    %988 = "tfl.reshape"(%986, %987) : (tensor<384x128xf32>, tensor<3xi32>) -> tensor<1x384x128xf32>
    %989 = tfl.add %988, %848 {fused_activation_function = "NONE"} : tensor<1x384x128xf32>
    %990 = "tfl.pseudo_const"() {value = dense<"hex_value_removed_for_legibility_this_model_will_not_run_correctly_without_it"> : tensor<128xf32>} : () -> tensor<128xf32>
    %991 = "tfl.mul"(%989, %990) {fused_activation_function = "NONE"} : (tensor<1x384x128xf32>, tensor<128xf32>) -> tensor<1x384x128xf32>
    %992 = "tfl.pseudo_const"() {value = dense<"hex_value_removed_for_legibility_this_model_will_not_run_correctly_without_it"> : tensor<128xf32>} : () -> tensor<128xf32>
    %993 = "tfl.add"(%991, %992) {fused_activation_function = "NONE"} : (tensor<1x384x128xf32>, tensor<128xf32>) -> tensor<1x384x128xf32>
    %994 = "tfl.pseudo_const"() {value = dense<"hex_value_removed_for_legibility_this_model_will_not_run_correctly_without_it"> : tensor<512x128xf32>} : () -> tensor<512x128xf32>
    %995 = "tfl.pseudo_const"() {value = dense<"hex_value_removed_for_legibility_this_model_will_not_run_correctly_without_it"> : tensor<512xf32>} : () -> tensor<512xf32>
    %996 = "tfl.fully_connected"(%993, %994, %995) {fused_activation_function = "RELU", keep_num_dims = false, weights_format = "DEFAULT"} : (tensor<1x384x128xf32>, tensor<512x128xf32>, tensor<512xf32>) -> tensor<384x512xf32>
    %997 = "tfl.pseudo_const"() {value = dense<"hex_value_removed_for_legibility_this_model_will_not_run_correctly_without_it"> : tensor<128x512xf32>} : () -> tensor<128x512xf32>
    %998 = "tfl.pseudo_const"() {value = dense<"hex_value_removed_for_legibility_this_model_will_not_run_correctly_without_it"> : tensor<128xf32>} : () -> tensor<128xf32>
    %999 = "tfl.fully_connected"(%996, %997, %998) {fused_activation_function = "NONE", keep_num_dims = false, weights_format = "DEFAULT"} : (tensor<384x512xf32>, tensor<128x512xf32>, tensor<128xf32>) -> tensor<384x128xf32>
    %1000 = "tfl.pseudo_const"() {value = dense<[1, 384, 128]> : tensor<3xi32>} : () -> tensor<3xi32>
    %1001 = "tfl.reshape"(%999, %1000) : (tensor<384x128xf32>, tensor<3xi32>) -> tensor<1x384x128xf32>
    %1002 = tfl.add %1001, %993 {fused_activation_function = "NONE"} : tensor<1x384x128xf32>
    %1003 = "tfl.pseudo_const"() {value = dense<"hex_value_removed_for_legibility_this_model_will_not_run_correctly_without_it"> : tensor<128xf32>} : () -> tensor<128xf32>
    %1004 = "tfl.mul"(%1002, %1003) {fused_activation_function = "NONE"} : (tensor<1x384x128xf32>, tensor<128xf32>) -> tensor<1x384x128xf32>
    %1005 = "tfl.pseudo_const"() {value = dense<"hex_value_removed_for_legibility_this_model_will_not_run_correctly_without_it"> : tensor<128xf32>} : () -> tensor<128xf32>
    %1006 = "tfl.add"(%1004, %1005) {fused_activation_function = "NONE"} : (tensor<1x384x128xf32>, tensor<128xf32>) -> tensor<1x384x128xf32>
    %1007 = "tfl.pseudo_const"() {value = dense<"hex_value_removed_for_legibility_this_model_will_not_run_correctly_without_it"> : tensor<512x128xf32>} : () -> tensor<512x128xf32>
    %1008 = "tfl.pseudo_const"() {value = dense<"hex_value_removed_for_legibility_this_model_will_not_run_correctly_without_it"> : tensor<512xf32>} : () -> tensor<512xf32>
    %1009 = "tfl.fully_connected"(%1006, %1007, %1008) {fused_activation_function = "RELU", keep_num_dims = false, weights_format = "DEFAULT"} : (tensor<1x384x128xf32>, tensor<512x128xf32>, tensor<512xf32>) -> tensor<384x512xf32>
    %1010 = "tfl.pseudo_const"() {value = dense<"hex_value_removed_for_legibility_this_model_will_not_run_correctly_without_it"> : tensor<128x512xf32>} : () -> tensor<128x512xf32>
    %1011 = "tfl.pseudo_const"() {value = dense<"hex_value_removed_for_legibility_this_model_will_not_run_correctly_without_it"> : tensor<128xf32>} : () -> tensor<128xf32>
    %1012 = "tfl.fully_connected"(%1009, %1010, %1011) {fused_activation_function = "NONE", keep_num_dims = false, weights_format = "DEFAULT"} : (tensor<384x512xf32>, tensor<128x512xf32>, tensor<128xf32>) -> tensor<384x128xf32>
    %1013 = "tfl.pseudo_const"() {value = dense<[1, 384, 128]> : tensor<3xi32>} : () -> tensor<3xi32>
    %1014 = "tfl.reshape"(%1012, %1013) : (tensor<384x128xf32>, tensor<3xi32>) -> tensor<1x384x128xf32>
    %1015 = tfl.add %1014, %1006 {fused_activation_function = "NONE"} : tensor<1x384x128xf32>
    %1016 = "tfl.pseudo_const"() {value = dense<"hex_value_removed_for_legibility_this_model_will_not_run_correctly_without_it"> : tensor<128xf32>} : () -> tensor<128xf32>
    %1017 = "tfl.mul"(%1015, %1016) {fused_activation_function = "NONE"} : (tensor<1x384x128xf32>, tensor<128xf32>) -> tensor<1x384x128xf32>
    %1018 = "tfl.pseudo_const"() {value = dense<"hex_value_removed_for_legibility_this_model_will_not_run_correctly_without_it"> : tensor<128xf32>} : () -> tensor<128xf32>
    %1019 = "tfl.add"(%1017, %1018) {fused_activation_function = "NONE"} : (tensor<1x384x128xf32>, tensor<128xf32>) -> tensor<1x384x128xf32>
    %1020 = "tfl.pseudo_const"() {value = dense<"hex_value_removed_for_legibility_this_model_will_not_run_correctly_without_it"> : tensor<512x128xf32>} : () -> tensor<512x128xf32>
    %1021 = "tfl.pseudo_const"() {value = dense<"hex_value_removed_for_legibility_this_model_will_not_run_correctly_without_it"> : tensor<512xf32>} : () -> tensor<512xf32>
    %1022 = "tfl.fully_connected"(%1019, %1020, %1021) {fused_activation_function = "RELU", keep_num_dims = false, weights_format = "DEFAULT"} : (tensor<1x384x128xf32>, tensor<512x128xf32>, tensor<512xf32>) -> tensor<384x512xf32>
    %1023 = "tfl.pseudo_const"() {value = dense<"hex_value_removed_for_legibility_this_model_will_not_run_correctly_without_it"> : tensor<128x512xf32>} : () -> tensor<128x512xf32>
    %1024 = "tfl.pseudo_const"() {value = dense<"hex_value_removed_for_legibility_this_model_will_not_run_correctly_without_it"> : tensor<128xf32>} : () -> tensor<128xf32>
    %1025 = "tfl.fully_connected"(%1022, %1023, %1024) {fused_activation_function = "NONE", keep_num_dims = false, weights_format = "DEFAULT"} : (tensor<384x512xf32>, tensor<128x512xf32>, tensor<128xf32>) -> tensor<384x128xf32>
    %1026 = "tfl.pseudo_const"() {value = dense<[1, 384, 128]> : tensor<3xi32>} : () -> tensor<3xi32>
    %1027 = "tfl.reshape"(%1025, %1026) : (tensor<384x128xf32>, tensor<3xi32>) -> tensor<1x384x128xf32>
    %1028 = tfl.add %1027, %1019 {fused_activation_function = "NONE"} : tensor<1x384x128xf32>
    %1029 = "tfl.pseudo_const"() {value = dense<"hex_value_removed_for_legibility_this_model_will_not_run_correctly_without_it"> : tensor<128xf32>} : () -> tensor<128xf32>
    %1030 = "tfl.mul"(%1028, %1029) {fused_activation_function = "NONE"} : (tensor<1x384x128xf32>, tensor<128xf32>) -> tensor<1x384x128xf32>
    %1031 = "tfl.pseudo_const"() {value = dense<"hex_value_removed_for_legibility_this_model_will_not_run_correctly_without_it"> : tensor<128xf32>} : () -> tensor<128xf32>
    %1032 = "tfl.add"(%1030, %1031) {fused_activation_function = "NONE"} : (tensor<1x384x128xf32>, tensor<128xf32>) -> tensor<1x384x128xf32>
    %1033 = "tfl.pseudo_const"() {value = dense<"hex_value_removed_for_legibility_this_model_will_not_run_correctly_without_it"> : tensor<512x128xf32>} : () -> tensor<512x128xf32>
    %1034 = "tfl.pseudo_const"() {value = dense<"hex_value_removed_for_legibility_this_model_will_not_run_correctly_without_it"> : tensor<512xf32>} : () -> tensor<512xf32>
    %1035 = "tfl.fully_connected"(%1032, %1033, %1034) {fused_activation_function = "RELU", keep_num_dims = false, weights_format = "DEFAULT"} : (tensor<1x384x128xf32>, tensor<512x128xf32>, tensor<512xf32>) -> tensor<384x512xf32>
    %1036 = "tfl.pseudo_const"() {value = dense<"hex_value_removed_for_legibility_this_model_will_not_run_correctly_without_it"> : tensor<128x512xf32>} : () -> tensor<128x512xf32>
    %1037 = "tfl.pseudo_const"() {value = dense<"hex_value_removed_for_legibility_this_model_will_not_run_correctly_without_it"> : tensor<128xf32>} : () -> tensor<128xf32>
    %1038 = "tfl.fully_connected"(%1035, %1036, %1037) {fused_activation_function = "NONE", keep_num_dims = false, weights_format = "DEFAULT"} : (tensor<384x512xf32>, tensor<128x512xf32>, tensor<128xf32>) -> tensor<384x128xf32>
    %1039 = "tfl.pseudo_const"() {value = dense<[1, 384, 128]> : tensor<3xi32>} : () -> tensor<3xi32>
    %1040 = "tfl.reshape"(%1038, %1039) : (tensor<384x128xf32>, tensor<3xi32>) -> tensor<1x384x128xf32>
    %1041 = tfl.add %1040, %1032 {fused_activation_function = "NONE"} : tensor<1x384x128xf32>
    %1042 = "tfl.pseudo_const"() {value = dense<"hex_value_removed_for_legibility_this_model_will_not_run_correctly_without_it"> : tensor<128xf32>} : () -> tensor<128xf32>
    %1043 = "tfl.mul"(%1041, %1042) {fused_activation_function = "NONE"} : (tensor<1x384x128xf32>, tensor<128xf32>) -> tensor<1x384x128xf32>
    %1044 = "tfl.pseudo_const"() {value = dense<"hex_value_removed_for_legibility_this_model_will_not_run_correctly_without_it"> : tensor<128xf32>} : () -> tensor<128xf32>
    %1045 = "tfl.add"(%1043, %1044) {fused_activation_function = "NONE"} : (tensor<1x384x128xf32>, tensor<128xf32>) -> tensor<1x384x128xf32>
    %1046 = "tfl.pseudo_const"() {value = dense<"hex_value_removed_for_legibility_this_model_will_not_run_correctly_without_it"> : tensor<512x128xf32>} : () -> tensor<512x128xf32>
    %1047 = "tfl.pseudo_const"() {value = dense<"hex_value_removed_for_legibility_this_model_will_not_run_correctly_without_it"> : tensor<512xf32>} : () -> tensor<512xf32>
    %1048 = "tfl.fully_connected"(%1045, %1046, %1047) {fused_activation_function = "NONE", keep_num_dims = false, weights_format = "DEFAULT"} : (tensor<1x384x128xf32>, tensor<512x128xf32>, tensor<512xf32>) -> tensor<384x512xf32>
    %1049 = "tfl.pseudo_const"() {value = dense<[1, 384, 512]> : tensor<3xi32>} : () -> tensor<3xi32>
    %1050 = "tfl.reshape"(%1048, %1049) : (tensor<384x512xf32>, tensor<3xi32>) -> tensor<1x384x512xf32>
    %1051 = tfl.add %1050, %837 {fused_activation_function = "NONE"} : tensor<1x384x512xf32>
    %1052 = "tfl.pseudo_const"() {value = dense<"hex_value_removed_for_legibility_this_model_will_not_run_correctly_without_it"> : tensor<512xf32>} : () -> tensor<512xf32>
    %1053 = "tfl.mul"(%1051, %1052) {fused_activation_function = "NONE"} : (tensor<1x384x512xf32>, tensor<512xf32>) -> tensor<1x384x512xf32>
    %1054 = "tfl.pseudo_const"() {value = dense<"hex_value_removed_for_legibility_this_model_will_not_run_correctly_without_it"> : tensor<512xf32>} : () -> tensor<512xf32>
    %1055 = "tfl.add"(%1053, %1054) {fused_activation_function = "NONE"} : (tensor<1x384x512xf32>, tensor<512xf32>) -> tensor<1x384x512xf32>
    %1056 = "tfl.pseudo_const"() {value = dense<"hex_value_removed_for_legibility_this_model_will_not_run_correctly_without_it"> : tensor<128x512xf32>} : () -> tensor<128x512xf32>
    %1057 = "tfl.pseudo_const"() {value = dense<"hex_value_removed_for_legibility_this_model_will_not_run_correctly_without_it"> : tensor<128xf32>} : () -> tensor<128xf32>
    %1058 = "tfl.fully_connected"(%1055, %1056, %1057) {fused_activation_function = "NONE", keep_num_dims = false, weights_format = "DEFAULT"} : (tensor<1x384x512xf32>, tensor<128x512xf32>, tensor<128xf32>) -> tensor<384x128xf32>
    %1059 = "tfl.pseudo_const"() {value = dense<"hex_value_removed_for_legibility_this_model_will_not_run_correctly_without_it"> : tensor<128x512xf32>} : () -> tensor<128x512xf32>
    %1060 = "tfl.pseudo_const"() {value = dense<"hex_value_removed_for_legibility_this_model_will_not_run_correctly_without_it"> : tensor<128xf32>} : () -> tensor<128xf32>
    %1061 = "tfl.fully_connected"(%1055, %1059, %1060) {fused_activation_function = "NONE", keep_num_dims = false, weights_format = "DEFAULT"} : (tensor<1x384x512xf32>, tensor<128x512xf32>, tensor<128xf32>) -> tensor<384x128xf32>
    %1062 = "tfl.pseudo_const"() {value = dense<"hex_value_removed_for_legibility_this_model_will_not_run_correctly_without_it"> : tensor<128x512xf32>} : () -> tensor<128x512xf32>
    %1063 = "tfl.pseudo_const"() {value = dense<"hex_value_removed_for_legibility_this_model_will_not_run_correctly_without_it"> : tensor<128xf32>} : () -> tensor<128xf32>
    %1064 = "tfl.fully_connected"(%1055, %1062, %1063) {fused_activation_function = "NONE", keep_num_dims = false, weights_format = "DEFAULT"} : (tensor<1x384x512xf32>, tensor<128x512xf32>, tensor<128xf32>) -> tensor<384x128xf32>
    %1065 = "tfl.pseudo_const"() {value = dense<[1, 384, 128]> : tensor<3xi32>} : () -> tensor<3xi32>
    %1066 = "tfl.reshape"(%1058, %1065) : (tensor<384x128xf32>, tensor<3xi32>) -> tensor<1x384x128xf32>
    %1067 = "tfl.pseudo_const"() {value = dense<[1, 384, 128]> : tensor<3xi32>} : () -> tensor<3xi32>
    %1068 = "tfl.reshape"(%1061, %1067) : (tensor<384x128xf32>, tensor<3xi32>) -> tensor<1x384x128xf32>
    %1069 = "tfl.pseudo_const"() {value = dense<[1, 384, 128]> : tensor<3xi32>} : () -> tensor<3xi32>
    %1070 = "tfl.reshape"(%1064, %1069) : (tensor<384x128xf32>, tensor<3xi32>) -> tensor<1x384x128xf32>
    %1071 = "tfl.pseudo_const"() {value = dense<"hex_value_removed_for_legibility_this_model_will_not_run_correctly_without_it"> : tensor<128x128xf32>} : () -> tensor<128x128xf32>
    %1072 = "tfl.pseudo_const"() {value = dense<"hex_value_removed_for_legibility_this_model_will_not_run_correctly_without_it"> : tensor<128xf32>} : () -> tensor<128xf32>
    %1073 = "tfl.fully_connected"(%1068, %1071, %1072) {fused_activation_function = "NONE", keep_num_dims = false, weights_format = "DEFAULT"} : (tensor<1x384x128xf32>, tensor<128x128xf32>, tensor<128xf32>) -> tensor<384x128xf32>
    %1074 = "tfl.pseudo_const"() {value = dense<"hex_value_removed_for_legibility_this_model_will_not_run_correctly_without_it"> : tensor<128x128xf32>} : () -> tensor<128x128xf32>
    %1075 = "tfl.pseudo_const"() {value = dense<"hex_value_removed_for_legibility_this_model_will_not_run_correctly_without_it"> : tensor<128xf32>} : () -> tensor<128xf32>
    %1076 = "tfl.fully_connected"(%1068, %1074, %1075) {fused_activation_function = "NONE", keep_num_dims = false, weights_format = "DEFAULT"} : (tensor<1x384x128xf32>, tensor<128x128xf32>, tensor<128xf32>) -> tensor<384x128xf32>
    %1077 = "tfl.pseudo_const"() {value = dense<"hex_value_removed_for_legibility_this_model_will_not_run_correctly_without_it"> : tensor<128x128xf32>} : () -> tensor<128x128xf32>
    %1078 = "tfl.pseudo_const"() {value = dense<"hex_value_removed_for_legibility_this_model_will_not_run_correctly_without_it"> : tensor<128xf32>} : () -> tensor<128xf32>
    %1079 = "tfl.fully_connected"(%1070, %1077, %1078) {fused_activation_function = "NONE", keep_num_dims = false, weights_format = "DEFAULT"} : (tensor<1x384x128xf32>, tensor<128x128xf32>, tensor<128xf32>) -> tensor<384x128xf32>
    %1080 = "tfl.pseudo_const"() {value = dense<[1, 384, 4, 32]> : tensor<4xi32>} : () -> tensor<4xi32>
    %1081 = "tfl.reshape"(%1073, %1080) : (tensor<384x128xf32>, tensor<4xi32>) -> tensor<1x384x4x32xf32>
    %1082 = "tfl.pseudo_const"() {value = dense<[1, 384, 4, 32]> : tensor<4xi32>} : () -> tensor<4xi32>
    %1083 = "tfl.reshape"(%1076, %1082) : (tensor<384x128xf32>, tensor<4xi32>) -> tensor<1x384x4x32xf32>
    %1084 = "tfl.pseudo_const"() {value = dense<[1, 384, 4, 32]> : tensor<4xi32>} : () -> tensor<4xi32>
    %1085 = "tfl.reshape"(%1079, %1084) : (tensor<384x128xf32>, tensor<4xi32>) -> tensor<1x384x4x32xf32>
    %1086 = "tfl.pseudo_const"() {value = dense<[0, 2, 1, 3]> : tensor<4xi32>} : () -> tensor<4xi32>
    %1087 = "tfl.transpose"(%1081, %1086) : (tensor<1x384x4x32xf32>, tensor<4xi32>) -> tensor<1x4x384x32xf32>
    %1088 = "tfl.pseudo_const"() {value = dense<[0, 2, 1, 3]> : tensor<4xi32>} : () -> tensor<4xi32>
    %1089 = "tfl.transpose"(%1083, %1088) : (tensor<1x384x4x32xf32>, tensor<4xi32>) -> tensor<1x4x384x32xf32>
    %1090 = "tfl.pseudo_const"() {value = dense<[0, 2, 1, 3]> : tensor<4xi32>} : () -> tensor<4xi32>
    %1091 = "tfl.transpose"(%1085, %1090) : (tensor<1x384x4x32xf32>, tensor<4xi32>) -> tensor<1x4x384x32xf32>
    %1092 = "tfl.pseudo_const"() {value = dense<[0, 1, 3, 2]> : tensor<4xi32>} : () -> tensor<4xi32>
    %1093 = "tfl.transpose"(%1089, %1092) : (tensor<1x4x384x32xf32>, tensor<4xi32>) -> tensor<1x4x32x384xf32>
    %1094 = "tfl.pseudo_const"() {value = dense<[4, 384, 32]> : tensor<3xi32>} : () -> tensor<3xi32>
    %1095 = "tfl.reshape"(%1087, %1094) : (tensor<1x4x384x32xf32>, tensor<3xi32>) -> tensor<4x384x32xf32>
    %1096 = "tfl.pseudo_const"() {value = dense<0> : tensor<3xi32>} : () -> tensor<3xi32>
    %1097 = "tfl.pseudo_const"() {value = dense<[1, 384, 32]> : tensor<3xi32>} : () -> tensor<3xi32>
    %1098 = "tfl.slice"(%1095, %1096, %1097) : (tensor<4x384x32xf32>, tensor<3xi32>, tensor<3xi32>) -> tensor<1x384x32xf32>
    %1099 = "tfl.pseudo_const"() {value = dense<[1, 0, 0]> : tensor<3xi32>} : () -> tensor<3xi32>
    %1100 = "tfl.pseudo_const"() {value = dense<[1, 384, 32]> : tensor<3xi32>} : () -> tensor<3xi32>
    %1101 = "tfl.slice"(%1095, %1099, %1100) : (tensor<4x384x32xf32>, tensor<3xi32>, tensor<3xi32>) -> tensor<1x384x32xf32>
    %1102 = "tfl.pseudo_const"() {value = dense<[2, 0, 0]> : tensor<3xi32>} : () -> tensor<3xi32>
    %1103 = "tfl.pseudo_const"() {value = dense<[1, 384, 32]> : tensor<3xi32>} : () -> tensor<3xi32>
    %1104 = "tfl.slice"(%1095, %1102, %1103) : (tensor<4x384x32xf32>, tensor<3xi32>, tensor<3xi32>) -> tensor<1x384x32xf32>
    %1105 = "tfl.pseudo_const"() {value = dense<[3, 0, 0]> : tensor<3xi32>} : () -> tensor<3xi32>
    %1106 = "tfl.pseudo_const"() {value = dense<[1, 384, 32]> : tensor<3xi32>} : () -> tensor<3xi32>
    %1107 = "tfl.slice"(%1095, %1105, %1106) : (tensor<4x384x32xf32>, tensor<3xi32>, tensor<3xi32>) -> tensor<1x384x32xf32>
    %1108 = "tfl.pseudo_const"() {value = dense<[4, 32, 384]> : tensor<3xi32>} : () -> tensor<3xi32>
    %1109 = "tfl.reshape"(%1093, %1108) : (tensor<1x4x32x384xf32>, tensor<3xi32>) -> tensor<4x32x384xf32>
    %1110 = "tfl.pseudo_const"() {value = dense<0> : tensor<3xi32>} : () -> tensor<3xi32>
    %1111 = "tfl.pseudo_const"() {value = dense<[1, 32, 384]> : tensor<3xi32>} : () -> tensor<3xi32>
    %1112 = "tfl.slice"(%1109, %1110, %1111) : (tensor<4x32x384xf32>, tensor<3xi32>, tensor<3xi32>) -> tensor<1x32x384xf32>
    %1113 = "tfl.pseudo_const"() {value = dense<[2, 1, 0]> : tensor<3xi32>} : () -> tensor<3xi32>
    %1114 = "tfl.transpose"(%1112, %1113) : (tensor<1x32x384xf32>, tensor<3xi32>) -> tensor<384x32x1xf32>
    %1115 = "tfl.pseudo_const"() {value = dense<[1, 0, 0]> : tensor<3xi32>} : () -> tensor<3xi32>
    %1116 = "tfl.pseudo_const"() {value = dense<[1, 32, 384]> : tensor<3xi32>} : () -> tensor<3xi32>
    %1117 = "tfl.slice"(%1109, %1115, %1116) : (tensor<4x32x384xf32>, tensor<3xi32>, tensor<3xi32>) -> tensor<1x32x384xf32>
    %1118 = "tfl.pseudo_const"() {value = dense<[2, 1, 0]> : tensor<3xi32>} : () -> tensor<3xi32>
    %1119 = "tfl.transpose"(%1117, %1118) : (tensor<1x32x384xf32>, tensor<3xi32>) -> tensor<384x32x1xf32>
    %1120 = "tfl.pseudo_const"() {value = dense<[2, 0, 0]> : tensor<3xi32>} : () -> tensor<3xi32>
    %1121 = "tfl.pseudo_const"() {value = dense<[1, 32, 384]> : tensor<3xi32>} : () -> tensor<3xi32>
    %1122 = "tfl.slice"(%1109, %1120, %1121) : (tensor<4x32x384xf32>, tensor<3xi32>, tensor<3xi32>) -> tensor<1x32x384xf32>
    %1123 = "tfl.pseudo_const"() {value = dense<[2, 1, 0]> : tensor<3xi32>} : () -> tensor<3xi32>
    %1124 = "tfl.transpose"(%1122, %1123) : (tensor<1x32x384xf32>, tensor<3xi32>) -> tensor<384x32x1xf32>
    %1125 = "tfl.pseudo_const"() {value = dense<[3, 0, 0]> : tensor<3xi32>} : () -> tensor<3xi32>
    %1126 = "tfl.pseudo_const"() {value = dense<[1, 32, 384]> : tensor<3xi32>} : () -> tensor<3xi32>
    %1127 = "tfl.slice"(%1109, %1125, %1126) : (tensor<4x32x384xf32>, tensor<3xi32>, tensor<3xi32>) -> tensor<1x32x384xf32>
    %1128 = "tfl.pseudo_const"() {value = dense<[2, 1, 0]> : tensor<3xi32>} : () -> tensor<3xi32>
    %1129 = "tfl.transpose"(%1127, %1128) : (tensor<1x32x384xf32>, tensor<3xi32>) -> tensor<384x32x1xf32>
    %1130 = "tfl.pseudo_const"() {value = dense<[384, 32]> : tensor<2xi32>} : () -> tensor<2xi32>
    %1131 = "tfl.reshape"(%1114, %1130) : (tensor<384x32x1xf32>, tensor<2xi32>) -> tensor<384x32xf32>
    %1132 = "tfl.fully_connected"(%1098, %1131, %258) {fused_activation_function = "NONE", keep_num_dims = false, weights_format = "DEFAULT"} : (tensor<1x384x32xf32>, tensor<384x32xf32>, tensor<384xf32>) -> tensor<384x384xf32>
    %1133 = "tfl.pseudo_const"() {value = dense<[384, 32]> : tensor<2xi32>} : () -> tensor<2xi32>
    %1134 = "tfl.reshape"(%1119, %1133) : (tensor<384x32x1xf32>, tensor<2xi32>) -> tensor<384x32xf32>
    %1135 = "tfl.fully_connected"(%1101, %1134, %258) {fused_activation_function = "NONE", keep_num_dims = false, weights_format = "DEFAULT"} : (tensor<1x384x32xf32>, tensor<384x32xf32>, tensor<384xf32>) -> tensor<384x384xf32>
    %1136 = "tfl.pseudo_const"() {value = dense<[384, 32]> : tensor<2xi32>} : () -> tensor<2xi32>
    %1137 = "tfl.reshape"(%1124, %1136) : (tensor<384x32x1xf32>, tensor<2xi32>) -> tensor<384x32xf32>
    %1138 = "tfl.fully_connected"(%1104, %1137, %258) {fused_activation_function = "NONE", keep_num_dims = false, weights_format = "DEFAULT"} : (tensor<1x384x32xf32>, tensor<384x32xf32>, tensor<384xf32>) -> tensor<384x384xf32>
    %1139 = "tfl.pseudo_const"() {value = dense<[384, 32]> : tensor<2xi32>} : () -> tensor<2xi32>
    %1140 = "tfl.reshape"(%1129, %1139) : (tensor<384x32x1xf32>, tensor<2xi32>) -> tensor<384x32xf32>
    %1141 = "tfl.fully_connected"(%1107, %1140, %258) {fused_activation_function = "NONE", keep_num_dims = false, weights_format = "DEFAULT"} : (tensor<1x384x32xf32>, tensor<384x32xf32>, tensor<384xf32>) -> tensor<384x384xf32>
    %1142 = "tfl.pack"(%1132, %1135, %1138, %1141) {axis = 0 : i32, values_count = 4 : i32} : (tensor<384x384xf32>, tensor<384x384xf32>, tensor<384x384xf32>, tensor<384x384xf32>) -> tensor<4x384x384xf32>
    %1143 = "tfl.pseudo_const"() {value = dense<0.176776692> : tensor<f32>} : () -> tensor<f32>
    %1144 = "tfl.mul"(%1142, %1143) {fused_activation_function = "NONE"} : (tensor<4x384x384xf32>, tensor<f32>) -> tensor<4x384x384xf32>
    %1145 = "tfl.pseudo_const"() {value = dense<[1, 4, 384, 384]> : tensor<4xi32>} : () -> tensor<4xi32>
    %1146 = "tfl.reshape"(%1144, %1145) : (tensor<4x384x384xf32>, tensor<4xi32>) -> tensor<1x4x384x384xf32>
    %1147 = "tfl.add"(%1146, %128) {fused_activation_function = "NONE"} : (tensor<1x4x384x384xf32>, tensor<1x1x384x384xf32>) -> tensor<1x4x384x384xf32>
    %1148 = "tfl.softmax"(%1147) {beta = 1.000000e+00 : f32} : (tensor<1x4x384x384xf32>) -> tensor<1x4x384x384xf32>
…
    %5059 = "tfl.fully_connected"(%5025, %5058, %258) {fused_activation_function = "NONE", keep_num_dims = false, weights_format = "DEFAULT"} : (tensor<1x384x32xf32>, tensor<384x32xf32>, tensor<384xf32>) -> tensor<384x384xf32>
    %5060 = "tfl.pseudo_const"() {value = dense<[384, 32]> : tensor<2xi32>} : () -> tensor<2xi32>
    %5061 = "tfl.reshape"(%5048, %5060) : (tensor<384x32x1xf32>, tensor<2xi32>) -> tensor<384x32xf32>
    %5062 = "tfl.fully_connected"(%5028, %5061, %258) {fused_activation_function = "NONE", keep_num_dims = false, weights_format = "DEFAULT"} : (tensor<1x384x32xf32>, tensor<384x32xf32>, tensor<384xf32>) -> tensor<384x384xf32>
    %5063 = "tfl.pseudo_const"() {value = dense<[384, 32]> : tensor<2xi32>} : () -> tensor<2xi32>
    %5064 = "tfl.reshape"(%5053, %5063) : (tensor<384x32x1xf32>, tensor<2xi32>) -> tensor<384x32xf32>
    %5065 = "tfl.fully_connected"(%5031, %5064, %258) {fused_activation_function = "NONE", keep_num_dims = false, weights_format = "DEFAULT"} : (tensor<1x384x32xf32>, tensor<384x32xf32>, tensor<384xf32>) -> tensor<384x384xf32>
    %5066 = "tfl.pack"(%5056, %5059, %5062, %5065) {axis = 0 : i32, values_count = 4 : i32} : (tensor<384x384xf32>, tensor<384x384xf32>, tensor<384x384xf32>, tensor<384x384xf32>) -> tensor<4x384x384xf32>
    %5067 = "tfl.pseudo_const"() {value = dense<0.176776692> : tensor<f32>} : () -> tensor<f32>
    %5068 = "tfl.mul"(%5066, %5067) {fused_activation_function = "NONE"} : (tensor<4x384x384xf32>, tensor<f32>) -> tensor<4x384x384xf32>
    %5069 = "tfl.pseudo_const"() {value = dense<[1, 4, 384, 384]> : tensor<4xi32>} : () -> tensor<4xi32>
    %5070 = "tfl.reshape"(%5068, %5069) : (tensor<4x384x384xf32>, tensor<4xi32>) -> tensor<1x4x384x384xf32>
    %5071 = "tfl.add"(%5070, %164) {fused_activation_function = "NONE"} : (tensor<1x4x384x384xf32>, tensor<1x1x384x384xf32>) -> tensor<1x4x384x384xf32>
    %5072 = "tfl.softmax"(%5071) {beta = 1.000000e+00 : f32} : (tensor<1x4x384x384xf32>) -> tensor<1x4x384x384xf32>
    %5073 = "tfl.pseudo_const"() {value = dense<[4, 384, 384]> : tensor<3xi32>} : () -> tensor<3xi32>
    %5074 = "tfl.reshape"(%5072, %5073) : (tensor<1x4x384x384xf32>, tensor<3xi32>) -> tensor<4x384x384xf32>
    %5075 = "tfl.pseudo_const"() {value = dense<0> : tensor<3xi32>} : () -> tensor<3xi32>
    %5076 = "tfl.pseudo_const"() {value = dense<[1, 384, 384]> : tensor<3xi32>} : () -> tensor<3xi32>
    %5077 = "tfl.slice"(%5074, %5075, %5076) : (tensor<4x384x384xf32>, tensor<3xi32>, tensor<3xi32>) -> tensor<1x384x384xf32>
    %5078 = "tfl.pseudo_const"() {value = dense<[1, 0, 0]> : tensor<3xi32>} : () -> tensor<3xi32>
    %5079 = "tfl.pseudo_const"() {value = dense<[1, 384, 384]> : tensor<3xi32>} : () -> tensor<3xi32>
    %5080 = "tfl.slice"(%5074, %5078, %5079) : (tensor<4x384x384xf32>, tensor<3xi32>, tensor<3xi32>) -> tensor<1x384x384xf32>
    %5081 = "tfl.pseudo_const"() {value = dense<[2, 0, 0]> : tensor<3xi32>} : () -> tensor<3xi32>
    %5082 = "tfl.pseudo_const"() {value = dense<[1, 384, 384]> : tensor<3xi32>} : () -> tensor<3xi32>
    %5083 = "tfl.slice"(%5074, %5081, %5082) : (tensor<4x384x384xf32>, tensor<3xi32>, tensor<3xi32>) -> tensor<1x384x384xf32>
    %5084 = "tfl.pseudo_const"() {value = dense<[3, 0, 0]> : tensor<3xi32>} : () -> tensor<3xi32>
    %5085 = "tfl.pseudo_const"() {value = dense<[1, 384, 384]> : tensor<3xi32>} : () -> tensor<3xi32>
    %5086 = "tfl.slice"(%5074, %5084, %5085) : (tensor<4x384x384xf32>, tensor<3xi32>, tensor<3xi32>) -> tensor<1x384x384xf32>
    %5087 = "tfl.pseudo_const"() {value = dense<[4, 384, 32]> : tensor<3xi32>} : () -> tensor<3xi32>
    %5088 = "tfl.reshape"(%5015, %5087) : (tensor<1x4x384x32xf32>, tensor<3xi32>) -> tensor<4x384x32xf32>
    %5089 = "tfl.pseudo_const"() {value = dense<0> : tensor<3xi32>} : () -> tensor<3xi32>
    %5090 = "tfl.pseudo_const"() {value = dense<[1, 384, 32]> : tensor<3xi32>} : () -> tensor<3xi32>
    %5091 = "tfl.slice"(%5088, %5089, %5090) : (tensor<4x384x32xf32>, tensor<3xi32>, tensor<3xi32>) -> tensor<1x384x32xf32>
    %5092 = "tfl.pseudo_const"() {value = dense<[2, 1, 0]> : tensor<3xi32>} : () -> tensor<3xi32>
    %5093 = "tfl.transpose"(%5091, %5092) : (tensor<1x384x32xf32>, tensor<3xi32>) -> tensor<32x384x1xf32>
    %5094 = "tfl.pseudo_const"() {value = dense<[1, 0, 0]> : tensor<3xi32>} : () -> tensor<3xi32>
    %5095 = "tfl.pseudo_const"() {value = dense<[1, 384, 32]> : tensor<3xi32>} : () -> tensor<3xi32>
    %5096 = "tfl.slice"(%5088, %5094, %5095) : (tensor<4x384x32xf32>, tensor<3xi32>, tensor<3xi32>) -> tensor<1x384x32xf32>
    %5097 = "tfl.pseudo_const"() {value = dense<[2, 1, 0]> : tensor<3xi32>} : () -> tensor<3xi32>
    %5098 = "tfl.transpose"(%5096, %5097) : (tensor<1x384x32xf32>, tensor<3xi32>) -> tensor<32x384x1xf32>
    %5099 = "tfl.pseudo_const"() {value = dense<[2, 0, 0]> : tensor<3xi32>} : () -> tensor<3xi32>
    %5100 = "tfl.pseudo_const"() {value = dense<[1, 384, 32]> : tensor<3xi32>} : () -> tensor<3xi32>
    %5101 = "tfl.slice"(%5088, %5099, %5100) : (tensor<4x384x32xf32>, tensor<3xi32>, tensor<3xi32>) -> tensor<1x384x32xf32>
    %5102 = "tfl.pseudo_const"() {value = dense<[2, 1, 0]> : tensor<3xi32>} : () -> tensor<3xi32>
    %5103 = "tfl.transpose"(%5101, %5102) : (tensor<1x384x32xf32>, tensor<3xi32>) -> tensor<32x384x1xf32>
    %5104 = "tfl.pseudo_const"() {value = dense<[3, 0, 0]> : tensor<3xi32>} : () -> tensor<3xi32>
    %5105 = "tfl.pseudo_const"() {value = dense<[1, 384, 32]> : tensor<3xi32>} : () -> tensor<3xi32>
    %5106 = "tfl.slice"(%5088, %5104, %5105) : (tensor<4x384x32xf32>, tensor<3xi32>, tensor<3xi32>) -> tensor<1x384x32xf32>
    %5107 = "tfl.pseudo_const"() {value = dense<[2, 1, 0]> : tensor<3xi32>} : () -> tensor<3xi32>
    %5108 = "tfl.transpose"(%5106, %5107) : (tensor<1x384x32xf32>, tensor<3xi32>) -> tensor<32x384x1xf32>
    %5109 = "tfl.pseudo_const"() {value = dense<[32, 384]> : tensor<2xi32>} : () -> tensor<2xi32>
    %5110 = "tfl.reshape"(%5093, %5109) : (tensor<32x384x1xf32>, tensor<2xi32>) -> tensor<32x384xf32>
    %5111 = "tfl.fully_connected"(%5077, %5110, %314) {fused_activation_function = "NONE", keep_num_dims = false, weights_format = "DEFAULT"} : (tensor<1x384x384xf32>, tensor<32x384xf32>, tensor<32xf32>) -> tensor<384x32xf32>
    %5112 = "tfl.pseudo_const"() {value = dense<[32, 384]> : tensor<2xi32>} : () -> tensor<2xi32>
    %5113 = "tfl.reshape"(%5098, %5112) : (tensor<32x384x1xf32>, tensor<2xi32>) -> tensor<32x384xf32>
    %5114 = "tfl.fully_connected"(%5080, %5113, %314) {fused_activation_function = "NONE", keep_num_dims = false, weights_format = "DEFAULT"} : (tensor<1x384x384xf32>, tensor<32x384xf32>, tensor<32xf32>) -> tensor<384x32xf32>
    %5115 = "tfl.pseudo_const"() {value = dense<[32, 384]> : tensor<2xi32>} : () -> tensor<2xi32>
    %5116 = "tfl.reshape"(%5103, %5115) : (tensor<32x384x1xf32>, tensor<2xi32>) -> tensor<32x384xf32>
    %5117 = "tfl.fully_connected"(%5083, %5116, %314) {fused_activation_function = "NONE", keep_num_dims = false, weights_format = "DEFAULT"} : (tensor<1x384x384xf32>, tensor<32x384xf32>, tensor<32xf32>) -> tensor<384x32xf32>
    %5118 = "tfl.pseudo_const"() {value = dense<[32, 384]> : tensor<2xi32>} : () -> tensor<2xi32>
    %5119 = "tfl.reshape"(%5108, %5118) : (tensor<32x384x1xf32>, tensor<2xi32>) -> tensor<32x384xf32>
    %5120 = "tfl.fully_connected"(%5086, %5119, %314) {fused_activation_function = "NONE", keep_num_dims = false, weights_format = "DEFAULT"} : (tensor<1x384x384xf32>, tensor<32x384xf32>, tensor<32xf32>) -> tensor<384x32xf32>
    %5121 = "tfl.pack"(%5111, %5114, %5117, %5120) {axis = 0 : i32, values_count = 4 : i32} : (tensor<384x32xf32>, tensor<384x32xf32>, tensor<384x32xf32>, tensor<384x32xf32>) -> tensor<4x384x32xf32>
    %5122 = "tfl.pseudo_const"() {value = dense<[1, 0, 2]> : tensor<3xi32>} : () -> tensor<3xi32>
    %5123 = "tfl.transpose"(%5121, %5122) : (tensor<4x384x32xf32>, tensor<3xi32>) -> tensor<384x4x32xf32>
    %5124 = "tfl.pseudo_const"() {value = dense<[1, 384, 4, 32]> : tensor<4xi32>} : () -> tensor<4xi32>
    %5125 = "tfl.reshape"(%5123, %5124) : (tensor<384x4x32xf32>, tensor<4xi32>) -> tensor<1x384x4x32xf32>
    %5126 = "tfl.pseudo_const"() {value = dense<"hex_value_removed_for_legibility_this_model_will_not_run_correctly_without_it"> : tensor<128x128xf32>} : () -> tensor<128x128xf32>
    %5127 = "tfl.pseudo_const"() {value = dense<"hex_value_removed_for_legibility_this_model_will_not_run_correctly_without_it"> : tensor<128xf32>} : () -> tensor<128xf32>
    %5128 = "tfl.fully_connected"(%5125, %5126, %5127) {fused_activation_function = "NONE", keep_num_dims = false, weights_format = "DEFAULT"} : (tensor<1x384x4x32xf32>, tensor<128x128xf32>, tensor<128xf32>) -> tensor<384x128xf32>
    %5129 = "tfl.pseudo_const"() {value = dense<[1, 384, 128]> : tensor<3xi32>} : () -> tensor<3xi32>
    %5130 = "tfl.reshape"(%5128, %5129) : (tensor<384x128xf32>, tensor<3xi32>) -> tensor<1x384x128xf32>
    %5131 = tfl.add %5130, %4990 {fused_activation_function = "NONE"} : tensor<1x384x128xf32>
    %5132 = "tfl.pseudo_const"() {value = dense<"hex_value_removed_for_legibility_this_model_will_not_run_correctly_without_it"> : tensor<128xf32>} : () -> tensor<128xf32>
    %5133 = "tfl.mul"(%5131, %5132) {fused_activation_function = "NONE"} : (tensor<1x384x128xf32>, tensor<128xf32>) -> tensor<1x384x128xf32>
    %5134 = "tfl.pseudo_const"() {value = dense<"hex_value_removed_for_legibility_this_model_will_not_run_correctly_without_it"> : tensor<128xf32>} : () -> tensor<128xf32>
    %5135 = "tfl.add"(%5133, %5134) {fused_activation_function = "NONE"} : (tensor<1x384x128xf32>, tensor<128xf32>) -> tensor<1x384x128xf32>
    %5136 = "tfl.pseudo_const"() {value = dense<"hex_value_removed_for_legibility_this_model_will_not_run_correctly_without_it"> : tensor<512x128xf32>} : () -> tensor<512x128xf32>
    %5137 = "tfl.pseudo_const"() {value = dense<"hex_value_removed_for_legibility_this_model_will_not_run_correctly_without_it"> : tensor<512xf32>} : () -> tensor<512xf32>
    %5138 = "tfl.fully_connected"(%5135, %5136, %5137) {fused_activation_function = "RELU", keep_num_dims = false, weights_format = "DEFAULT"} : (tensor<1x384x128xf32>, tensor<512x128xf32>, tensor<512xf32>) -> tensor<384x512xf32>
    %5139 = "tfl.pseudo_const"() {value = dense<"hex_value_removed_for_legibility_this_model_will_not_run_correctly_without_it"> : tensor<128x512xf32>} : () -> tensor<128x512xf32>
    %5140 = "tfl.pseudo_const"() {value = dense<"hex_value_removed_for_legibility_this_model_will_not_run_correctly_without_it"> : tensor<128xf32>} : () -> tensor<128xf32>
    %5141 = "tfl.fully_connected"(%5138, %5139, %5140) {fused_activation_function = "NONE", keep_num_dims = false, weights_format = "DEFAULT"} : (tensor<384x512xf32>, tensor<128x512xf32>, tensor<128xf32>) -> tensor<384x128xf32>
    %5142 = "tfl.pseudo_const"() {value = dense<[1, 384, 128]> : tensor<3xi32>} : () -> tensor<3xi32>
    %5143 = "tfl.reshape"(%5141, %5142) : (tensor<384x128xf32>, tensor<3xi32>) -> tensor<1x384x128xf32>
    %5144 = tfl.add %5143, %5135 {fused_activation_function = "NONE"} : tensor<1x384x128xf32>
    %5145 = "tfl.pseudo_const"() {value = dense<"hex_value_removed_for_legibility_this_model_will_not_run_correctly_without_it"> : tensor<128xf32>} : () -> tensor<128xf32>
    %5146 = "tfl.mul"(%5144, %5145) {fused_activation_function = "NONE"} : (tensor<1x384x128xf32>, tensor<128xf32>) -> tensor<1x384x128xf32>
    %5147 = "tfl.pseudo_const"() {value = dense<"hex_value_removed_for_legibility_this_model_will_not_run_correctly_without_it"> : tensor<128xf32>} : () -> tensor<128xf32>
    %5148 = "tfl.add"(%5146, %5147) {fused_activation_function = "NONE"} : (tensor<1x384x128xf32>, tensor<128xf32>) -> tensor<1x384x128xf32>
    %5149 = "tfl.pseudo_const"() {value = dense<"hex_value_removed_for_legibility_this_model_will_not_run_correctly_without_it"> : tensor<512x128xf32>} : () -> tensor<512x128xf32>
    %5150 = "tfl.pseudo_const"() {value = dense<"hex_value_removed_for_legibility_this_model_will_not_run_correctly_without_it"> : tensor<512xf32>} : () -> tensor<512xf32>
    %5151 = "tfl.fully_connected"(%5148, %5149, %5150) {fused_activation_function = "RELU", keep_num_dims = false, weights_format = "DEFAULT"} : (tensor<1x384x128xf32>, tensor<512x128xf32>, tensor<512xf32>) -> tensor<384x512xf32>
    %5152 = "tfl.pseudo_const"() {value = dense<"hex_value_removed_for_legibility_this_model_will_not_run_correctly_without_it"> : tensor<128x512xf32>} : () -> tensor<128x512xf32>
    %5153 = "tfl.pseudo_const"() {value = dense<"hex_value_removed_for_legibility_this_model_will_not_run_correctly_without_it"> : tensor<128xf32>} : () -> tensor<128xf32>
    %5154 = "tfl.fully_connected"(%5151, %5152, %5153) {fused_activation_function = "NONE", keep_num_dims = false, weights_format = "DEFAULT"} : (tensor<384x512xf32>, tensor<128x512xf32>, tensor<128xf32>) -> tensor<384x128xf32>
    %5155 = "tfl.pseudo_const"() {value = dense<[1, 384, 128]> : tensor<3xi32>} : () -> tensor<3xi32>
    %5156 = "tfl.reshape"(%5154, %5155) : (tensor<384x128xf32>, tensor<3xi32>) -> tensor<1x384x128xf32>
    %5157 = tfl.add %5156, %5148 {fused_activation_function = "NONE"} : tensor<1x384x128xf32>
    %5158 = "tfl.pseudo_const"() {value = dense<"hex_value_removed_for_legibility_this_model_will_not_run_correctly_without_it"> : tensor<128xf32>} : () -> tensor<128xf32>
    %5159 = "tfl.mul"(%5157, %5158) {fused_activation_function = "NONE"} : (tensor<1x384x128xf32>, tensor<128xf32>) -> tensor<1x384x128xf32>
    %5160 = "tfl.pseudo_const"() {value = dense<"hex_value_removed_for_legibility_this_model_will_not_run_correctly_without_it"> : tensor<128xf32>} : () -> tensor<128xf32>
    %5161 = "tfl.add"(%5159, %5160) {fused_activation_function = "NONE"} : (tensor<1x384x128xf32>, tensor<128xf32>) -> tensor<1x384x128xf32>
    %5162 = "tfl.pseudo_const"() {value = dense<"hex_value_removed_for_legibility_this_model_will_not_run_correctly_without_it"> : tensor<512x128xf32>} : () -> tensor<512x128xf32>
    %5163 = "tfl.pseudo_const"() {value = dense<"hex_value_removed_for_legibility_this_model_will_not_run_correctly_without_it"> : tensor<512xf32>} : () -> tensor<512xf32>
    %5164 = "tfl.fully_connected"(%5161, %5162, %5163) {fused_activation_function = "RELU", keep_num_dims = false, weights_format = "DEFAULT"} : (tensor<1x384x128xf32>, tensor<512x128xf32>, tensor<512xf32>) -> tensor<384x512xf32>
    %5165 = "tfl.pseudo_const"() {value = dense<"hex_value_removed_for_legibility_this_model_will_not_run_correctly_without_it"> : tensor<128x512xf32>} : () -> tensor<128x512xf32>
    %5166 = "tfl.pseudo_const"() {value = dense<"hex_value_removed_for_legibility_this_model_will_not_run_correctly_without_it"> : tensor<128xf32>} : () -> tensor<128xf32>
    %5167 = "tfl.fully_connected"(%5164, %5165, %5166) {fused_activation_function = "NONE", keep_num_dims = false, weights_format = "DEFAULT"} : (tensor<384x512xf32>, tensor<128x512xf32>, tensor<128xf32>) -> tensor<384x128xf32>
    %5168 = "tfl.pseudo_const"() {value = dense<[1, 384, 128]> : tensor<3xi32>} : () -> tensor<3xi32>
    %5169 = "tfl.reshape"(%5167, %5168) : (tensor<384x128xf32>, tensor<3xi32>) -> tensor<1x384x128xf32>
    %5170 = tfl.add %5169, %5161 {fused_activation_function = "NONE"} : tensor<1x384x128xf32>
    %5171 = "tfl.pseudo_const"() {value = dense<"hex_value_removed_for_legibility_this_model_will_not_run_correctly_without_it"> : tensor<128xf32>} : () -> tensor<128xf32>
    %5172 = "tfl.mul"(%5170, %5171) {fused_activation_function = "NONE"} : (tensor<1x384x128xf32>, tensor<128xf32>) -> tensor<1x384x128xf32>
    %5173 = "tfl.pseudo_const"() {value = dense<"hex_value_removed_for_legibility_this_model_will_not_run_correctly_without_it"> : tensor<128xf32>} : () -> tensor<128xf32>
    %5174 = "tfl.add"(%5172, %5173) {fused_activation_function = "NONE"} : (tensor<1x384x128xf32>, tensor<128xf32>) -> tensor<1x384x128xf32>
    %5175 = "tfl.pseudo_const"() {value = dense<"hex_value_removed_for_legibility_this_model_will_not_run_correctly_without_it"> : tensor<512x128xf32>} : () -> tensor<512x128xf32>
    %5176 = "tfl.pseudo_const"() {value = dense<"hex_value_removed_for_legibility_this_model_will_not_run_correctly_without_it"> : tensor<512xf32>} : () -> tensor<512xf32>
    %5177 = "tfl.fully_connected"(%5174, %5175, %5176) {fused_activation_function = "RELU", keep_num_dims = false, weights_format = "DEFAULT"} : (tensor<1x384x128xf32>, tensor<512x128xf32>, tensor<512xf32>) -> tensor<384x512xf32>
    %5178 = "tfl.pseudo_const"() {value = dense<"hex_value_removed_for_legibility_this_model_will_not_run_correctly_without_it"> : tensor<128x512xf32>} : () -> tensor<128x512xf32>
    %5179 = "tfl.pseudo_const"() {value = dense<"hex_value_removed_for_legibility_this_model_will_not_run_correctly_without_it"> : tensor<128xf32>} : () -> tensor<128xf32>
    %5180 = "tfl.fully_connected"(%5177, %5178, %5179) {fused_activation_function = "NONE", keep_num_dims = false, weights_format = "DEFAULT"} : (tensor<384x512xf32>, tensor<128x512xf32>, tensor<128xf32>) -> tensor<384x128xf32>
    %5181 = "tfl.pseudo_const"() {value = dense<[1, 384, 128]> : tensor<3xi32>} : () -> tensor<3xi32>
    %5182 = "tfl.reshape"(%5180, %5181) : (tensor<384x128xf32>, tensor<3xi32>) -> tensor<1x384x128xf32>
    %5183 = tfl.add %5182, %5174 {fused_activation_function = "NONE"} : tensor<1x384x128xf32>
    %5184 = "tfl.pseudo_const"() {value = dense<"hex_value_removed_for_legibility_this_model_will_not_run_correctly_without_it"> : tensor<128xf32>} : () -> tensor<128xf32>
    %5185 = "tfl.mul"(%5183, %5184) {fused_activation_function = "NONE"} : (tensor<1x384x128xf32>, tensor<128xf32>) -> tensor<1x384x128xf32>
    %5186 = "tfl.pseudo_const"() {value = dense<"hex_value_removed_for_legibility_this_model_will_not_run_correctly_without_it"> : tensor<128xf32>} : () -> tensor<128xf32>
    %5187 = "tfl.add"(%5185, %5186) {fused_activation_function = "NONE"} : (tensor<1x384x128xf32>, tensor<128xf32>) -> tensor<1x384x128xf32>
    %5188 = "tfl.pseudo_const"() {value = dense<"hex_value_removed_for_legibility_this_model_will_not_run_correctly_without_it"> : tensor<512x128xf32>} : () -> tensor<512x128xf32>
    %5189 = "tfl.pseudo_const"() {value = dense<"hex_value_removed_for_legibility_this_model_will_not_run_correctly_without_it"> : tensor<512xf32>} : () -> tensor<512xf32>
    %5190 = "tfl.fully_connected"(%5187, %5188, %5189) {fused_activation_function = "NONE", keep_num_dims = false, weights_format = "DEFAULT"} : (tensor<1x384x128xf32>, tensor<512x128xf32>, tensor<512xf32>) -> tensor<384x512xf32>
    %5191 = "tfl.pseudo_const"() {value = dense<[1, 384, 512]> : tensor<3xi32>} : () -> tensor<3xi32>
    %5192 = "tfl.reshape"(%5190, %5191) : (tensor<384x512xf32>, tensor<3xi32>) -> tensor<1x384x512xf32>
    %5193 = tfl.add %5192, %4979 {fused_activation_function = "NONE"} : tensor<1x384x512xf32>
    %5194 = "tfl.pseudo_const"() {value = dense<"hex_value_removed_for_legibility_this_model_will_not_run_correctly_without_it"> : tensor<512xf32>} : () -> tensor<512xf32>
    %5195 = "tfl.mul"(%5193, %5194) {fused_activation_function = "NONE"} : (tensor<1x384x512xf32>, tensor<512xf32>) -> tensor<1x384x512xf32>
    %5196 = "tfl.pseudo_const"() {value = dense<"hex_value_removed_for_legibility_this_model_will_not_run_correctly_without_it"> : tensor<512xf32>} : () -> tensor<512xf32>
    %5197 = "tfl.add"(%5195, %5196) {fused_activation_function = "NONE"} : (tensor<1x384x512xf32>, tensor<512xf32>) -> tensor<1x384x512xf32>
    %5198 = "tfl.pseudo_const"() {value = dense<"hex_value_removed_for_legibility_this_model_will_not_run_correctly_without_it"> : tensor<128x512xf32>} : () -> tensor<128x512xf32>
    %5199 = "tfl.pseudo_const"() {value = dense<"hex_value_removed_for_legibility_this_model_will_not_run_correctly_without_it"> : tensor<128xf32>} : () -> tensor<128xf32>
    %5200 = "tfl.fully_connected"(%5197, %5198, %5199) {fused_activation_function = "NONE", keep_num_dims = false, weights_format = "DEFAULT"} : (tensor<1x384x512xf32>, tensor<128x512xf32>, tensor<128xf32>) -> tensor<384x128xf32>
    %5201 = "tfl.pseudo_const"() {value = dense<"hex_value_removed_for_legibility_this_model_will_not_run_correctly_without_it"> : tensor<128x512xf32>} : () -> tensor<128x512xf32>
    %5202 = "tfl.pseudo_const"() {value = dense<"hex_value_removed_for_legibility_this_model_will_not_run_correctly_without_it"> : tensor<128xf32>} : () -> tensor<128xf32>
    %5203 = "tfl.fully_connected"(%5197, %5201, %5202) {fused_activation_function = "NONE", keep_num_dims = false, weights_format = "DEFAULT"} : (tensor<1x384x512xf32>, tensor<128x512xf32>, tensor<128xf32>) -> tensor<384x128xf32>
    %5204 = "tfl.pseudo_const"() {value = dense<"hex_value_removed_for_legibility_this_model_will_not_run_correctly_without_it"> : tensor<128x512xf32>} : () -> tensor<128x512xf32>
    %5205 = "tfl.pseudo_const"() {value = dense<"hex_value_removed_for_legibility_this_model_will_not_run_correctly_without_it"> : tensor<128xf32>} : () -> tensor<128xf32>
    %5206 = "tfl.fully_connected"(%5197, %5204, %5205) {fused_activation_function = "NONE", keep_num_dims = false, weights_format = "DEFAULT"} : (tensor<1x384x512xf32>, tensor<128x512xf32>, tensor<128xf32>) -> tensor<384x128xf32>
    %5207 = "tfl.pseudo_const"() {value = dense<[1, 384, 128]> : tensor<3xi32>} : () -> tensor<3xi32>
    %5208 = "tfl.reshape"(%5200, %5207) : (tensor<384x128xf32>, tensor<3xi32>) -> tensor<1x384x128xf32>
    %5209 = "tfl.pseudo_const"() {value = dense<[1, 384, 128]> : tensor<3xi32>} : () -> tensor<3xi32>
    %5210 = "tfl.reshape"(%5203, %5209) : (tensor<384x128xf32>, tensor<3xi32>) -> tensor<1x384x128xf32>
    %5211 = "tfl.pseudo_const"() {value = dense<[1, 384, 128]> : tensor<3xi32>} : () -> tensor<3xi32>
    %5212 = "tfl.reshape"(%5206, %5211) : (tensor<384x128xf32>, tensor<3xi32>) -> tensor<1x384x128xf32>
    %5213 = "tfl.pseudo_const"() {value = dense<"hex_value_removed_for_legibility_this_model_will_not_run_correctly_without_it"> : tensor<128x128xf32>} : () -> tensor<128x128xf32>
    %5214 = "tfl.pseudo_const"() {value = dense<"hex_value_removed_for_legibility_this_model_will_not_run_correctly_without_it"> : tensor<128xf32>} : () -> tensor<128xf32>
    %5215 = "tfl.fully_connected"(%5210, %5213, %5214) {fused_activation_function = "NONE", keep_num_dims = false, weights_format = "DEFAULT"} : (tensor<1x384x128xf32>, tensor<128x128xf32>, tensor<128xf32>) -> tensor<384x128xf32>
    %5216 = "tfl.pseudo_const"() {value = dense<"hex_value_removed_for_legibility_this_model_will_not_run_correctly_without_it"> : tensor<128x128xf32>} : () -> tensor<128x128xf32>
    %5217 = "tfl.pseudo_const"() {value = dense<"hex_value_removed_for_legibility_this_model_will_not_run_correctly_without_it"> : tensor<128xf32>} : () -> tensor<128xf32>
    %5218 = "tfl.fully_connected"(%5210, %5216, %5217) {fused_activation_function = "NONE", keep_num_dims = false, weights_format = "DEFAULT"} : (tensor<1x384x128xf32>, tensor<128x128xf32>, tensor<128xf32>) -> tensor<384x128xf32>
    %5219 = "tfl.pseudo_const"() {value = dense<"hex_value_removed_for_legibility_this_model_will_not_run_correctly_without_it"> : tensor<128x128xf32>} : () -> tensor<128x128xf32>
    %5220 = "tfl.pseudo_const"() {value = dense<"hex_value_removed_for_legibility_this_model_will_not_run_correctly_without_it"> : tensor<128xf32>} : () -> tensor<128xf32>
    %5221 = "tfl.fully_connected"(%5212, %5219, %5220) {fused_activation_function = "NONE", keep_num_dims = false, weights_format = "DEFAULT"} : (tensor<1x384x128xf32>, tensor<128x128xf32>, tensor<128xf32>) -> tensor<384x128xf32>
    %5222 = "tfl.pseudo_const"() {value = dense<[1, 384, 4, 32]> : tensor<4xi32>} : () -> tensor<4xi32>
    %5223 = "tfl.reshape"(%5215, %5222) : (tensor<384x128xf32>, tensor<4xi32>) -> tensor<1x384x4x32xf32>
    %5224 = "tfl.pseudo_const"() {value = dense<[1, 384, 4, 32]> : tensor<4xi32>} : () -> tensor<4xi32>
    %5225 = "tfl.reshape"(%5218, %5224) : (tensor<384x128xf32>, tensor<4xi32>) -> tensor<1x384x4x32xf32>
    %5226 = "tfl.pseudo_const"() {value = dense<[1, 384, 4, 32]> : tensor<4xi32>} : () -> tensor<4xi32>
    %5227 = "tfl.reshape"(%5221, %5226) : (tensor<384x128xf32>, tensor<4xi32>) -> tensor<1x384x4x32xf32>
    %5228 = "tfl.pseudo_const"() {value = dense<[0, 2, 1, 3]> : tensor<4xi32>} : () -> tensor<4xi32>
    %5229 = "tfl.transpose"(%5223, %5228) : (tensor<1x384x4x32xf32>, tensor<4xi32>) -> tensor<1x4x384x32xf32>
    %5230 = "tfl.pseudo_const"() {value = dense<[0, 2, 1, 3]> : tensor<4xi32>} : () -> tensor<4xi32>
    %5231 = "tfl.transpose"(%5225, %5230) : (tensor<1x384x4x32xf32>, tensor<4xi32>) -> tensor<1x4x384x32xf32>
    %5232 = "tfl.pseudo_const"() {value = dense<[0, 2, 1, 3]> : tensor<4xi32>} : () -> tensor<4xi32>
    %5233 = "tfl.transpose"(%5227, %5232) : (tensor<1x384x4x32xf32>, tensor<4xi32>) -> tensor<1x4x384x32xf32>
    %5234 = "tfl.pseudo_const"() {value = dense<[0, 1, 3, 2]> : tensor<4xi32>} : () -> tensor<4xi32>
    %5235 = "tfl.transpose"(%5231, %5234) : (tensor<1x4x384x32xf32>, tensor<4xi32>) -> tensor<1x4x32x384xf32>
    %5236 = "tfl.pseudo_const"() {value = dense<[4, 384, 32]> : tensor<3xi32>} : () -> tensor<3xi32>
    %5237 = "tfl.reshape"(%5229, %5236) : (tensor<1x4x384x32xf32>, tensor<3xi32>) -> tensor<4x384x32xf32>
    %5238 = "tfl.pseudo_const"() {value = dense<0> : tensor<3xi32>} : () -> tensor<3xi32>
    %5239 = "tfl.pseudo_const"() {value = dense<[1, 384, 32]> : tensor<3xi32>} : () -> tensor<3xi32>
    %5240 = "tfl.slice"(%5237, %5238, %5239) : (tensor<4x384x32xf32>, tensor<3xi32>, tensor<3xi32>) -> tensor<1x384x32xf32>
    %5241 = "tfl.pseudo_const"() {value = dense<[1, 0, 0]> : tensor<3xi32>} : () -> tensor<3xi32>
    %5242 = "tfl.pseudo_const"() {value = dense<[1, 384, 32]> : tensor<3xi32>} : () -> tensor<3xi32>
    %5243 = "tfl.slice"(%5237, %5241, %5242) : (tensor<4x384x32xf32>, tensor<3xi32>, tensor<3xi32>) -> tensor<1x384x32xf32>
    %5244 = "tfl.pseudo_const"() {value = dense<[2, 0, 0]> : tensor<3xi32>} : () -> tensor<3xi32>
    %5245 = "tfl.pseudo_const"() {value = dense<[1, 384, 32]> : tensor<3xi32>} : () -> tensor<3xi32>
    %5246 = "tfl.slice"(%5237, %5244, %5245) : (tensor<4x384x32xf32>, tensor<3xi32>, tensor<3xi32>) -> tensor<1x384x32xf32>
    %5247 = "tfl.pseudo_const"() {value = dense<[3, 0, 0]> : tensor<3xi32>} : () -> tensor<3xi32>
    %5248 = "tfl.pseudo_const"() {value = dense<[1, 384, 32]> : tensor<3xi32>} : () -> tensor<3xi32>
    %5249 = "tfl.slice"(%5237, %5247, %5248) : (tensor<4x384x32xf32>, tensor<3xi32>, tensor<3xi32>) -> tensor<1x384x32xf32>
    %5250 = "tfl.pseudo_const"() {value = dense<[4, 32, 384]> : tensor<3xi32>} : () -> tensor<3xi32>
    %5251 = "tfl.reshape"(%5235, %5250) : (tensor<1x4x32x384xf32>, tensor<3xi32>) -> tensor<4x32x384xf32>
    %5252 = "tfl.pseudo_const"() {value = dense<0> : tensor<3xi32>} : () -> tensor<3xi32>
    %5253 = "tfl.pseudo_const"() {value = dense<[1, 32, 384]> : tensor<3xi32>} : () -> tensor<3xi32>
    %5254 = "tfl.slice"(%5251, %5252, %5253) : (tensor<4x32x384xf32>, tensor<3xi32>, tensor<3xi32>) -> tensor<1x32x384xf32>
    %5255 = "tfl.pseudo_const"() {value = dense<[2, 1, 0]> : tensor<3xi32>} : () -> tensor<3xi32>
    %5256 = "tfl.transpose"(%5254, %5255) : (tensor<1x32x384xf32>, tensor<3xi32>) -> tensor<384x32x1xf32>
    %5257 = "tfl.pseudo_const"() {value = dense<[1, 0, 0]> : tensor<3xi32>} : () -> tensor<3xi32>
    %5258 = "tfl.pseudo_const"() {value = dense<[1, 32, 384]> : tensor<3xi32>} : () -> tensor<3xi32>
    %5259 = "tfl.slice"(%5251, %5257, %5258) : (tensor<4x32x384xf32>, tensor<3xi32>, tensor<3xi32>) -> tensor<1x32x384xf32>
    %5260 = "tfl.pseudo_const"() {value = dense<[2, 1, 0]> : tensor<3xi32>} : () -> tensor<3xi32>
    %5261 = "tfl.transpose"(%5259, %5260) : (tensor<1x32x384xf32>, tensor<3xi32>) -> tensor<384x32x1xf32>
    %5262 = "tfl.pseudo_const"() {value = dense<[2, 0, 0]> : tensor<3xi32>} : () -> tensor<3xi32>
    %5263 = "tfl.pseudo_const"() {value = dense<[1, 32, 384]> : tensor<3xi32>} : () -> tensor<3xi32>
    %5264 = "tfl.slice"(%5251, %5262, %5263) : (tensor<4x32x384xf32>, tensor<3xi32>, tensor<3xi32>) -> tensor<1x32x384xf32>
    %5265 = "tfl.pseudo_const"() {value = dense<[2, 1, 0]> : tensor<3xi32>} : () -> tensor<3xi32>
    %5266 = "tfl.transpose"(%5264, %5265) : (tensor<1x32x384xf32>, tensor<3xi32>) -> tensor<384x32x1xf32>
    %5267 = "tfl.pseudo_const"() {value = dense<[3, 0, 0]> : tensor<3xi32>} : () -> tensor<3xi32>
    %5268 = "tfl.pseudo_const"() {value = dense<[1, 32, 384]> : tensor<3xi32>} : () -> tensor<3xi32>
    %5269 = "tfl.slice"(%5251, %5267, %5268) : (tensor<4x32x384xf32>, tensor<3xi32>, tensor<3xi32>) -> tensor<1x32x384xf32>
    %5270 = "tfl.pseudo_const"() {value = dense<[2, 1, 0]> : tensor<3xi32>} : () -> tensor<3xi32>
    %5271 = "tfl.transpose"(%5269, %5270) : (tensor<1x32x384xf32>, tensor<3xi32>) -> tensor<384x32x1xf32>
    %5272 = "tfl.pseudo_const"() {value = dense<[384, 32]> : tensor<2xi32>} : () -> tensor<2xi32>
    %5273 = "tfl.reshape"(%5256, %5272) : (tensor<384x32x1xf32>, tensor<2xi32>) -> tensor<384x32xf32>
    %5274 = "tfl.fully_connected"(%5240, %5273, %258) {fused_activation_function = "NONE", keep_num_dims = false, weights_format = "DEFAULT"} : (tensor<1x384x32xf32>, tensor<384x32xf32>, tensor<384xf32>) -> tensor<384x384xf32>
    %5275 = "tfl.pseudo_const"() {value = dense<[384, 32]> : tensor<2xi32>} : () -> tensor<2xi32>
    %5276 = "tfl.reshape"(%5261, %5275) : (tensor<384x32x1xf32>, tensor<2xi32>) -> tensor<384x32xf32>
    %5277 = "tfl.fully_connected"(%5243, %5276, %258) {fused_activation_function = "NONE", keep_num_dims = false, weights_format = "DEFAULT"} : (tensor<1x384x32xf32>, tensor<384x32xf32>, tensor<384xf32>) -> tensor<384x384xf32>
    %5278 = "tfl.pseudo_const"() {value = dense<[384, 32]> : tensor<2xi32>} : () -> tensor<2xi32>
    %5279 = "tfl.reshape"(%5266, %5278) : (tensor<384x32x1xf32>, tensor<2xi32>) -> tensor<384x32xf32>
    %5280 = "tfl.fully_connected"(%5246, %5279, %258) {fused_activation_function = "NONE", keep_num_dims = false, weights_format = "DEFAULT"} : (tensor<1x384x32xf32>, tensor<384x32xf32>, tensor<384xf32>) -> tensor<384x384xf32>
    %5281 = "tfl.pseudo_const"() {value = dense<[384, 32]> : tensor<2xi32>} : () -> tensor<2xi32>
    %5282 = "tfl.reshape"(%5271, %5281) : (tensor<384x32x1xf32>, tensor<2xi32>) -> tensor<384x32xf32>
    %5283 = "tfl.fully_connected"(%5249, %5282, %258) {fused_activation_function = "NONE", keep_num_dims = false, weights_format = "DEFAULT"} : (tensor<1x384x32xf32>, tensor<384x32xf32>, tensor<384xf32>) -> tensor<384x384xf32>
    %5284 = "tfl.pack"(%5274, %5277, %5280, %5283) {axis = 0 : i32, values_count = 4 : i32} : (tensor<384x384xf32>, tensor<384x384xf32>, tensor<384x384xf32>, tensor<384x384xf32>) -> tensor<4x384x384xf32>
    %5285 = "tfl.pseudo_const"() {value = dense<0.176776692> : tensor<f32>} : () -> tensor<f32>
    %5286 = "tfl.mul"(%5284, %5285) {fused_activation_function = "NONE"} : (tensor<4x384x384xf32>, tensor<f32>) -> tensor<4x384x384xf32>
    %5287 = "tfl.pseudo_const"() {value = dense<[1, 4, 384, 384]> : tensor<4xi32>} : () -> tensor<4xi32>
    %5288 = "tfl.reshape"(%5286, %5287) : (tensor<4x384x384xf32>, tensor<4xi32>) -> tensor<1x4x384x384xf32>
    %5289 = "tfl.add"(%5288, %166) {fused_activation_function = "NONE"} : (tensor<1x4x384x384xf32>, tensor<1x1x384x384xf32>) -> tensor<1x4x384x384xf32>
    %5290 = "tfl.softmax"(%5289) {beta = 1.000000e+00 : f32} : (tensor<1x4x384x384xf32>) -> tensor<1x4x384x384xf32>
    %5291 = "tfl.pseudo_const"() {value = dense<[4, 384, 384]> : tensor<3xi32>} : () -> tensor<3xi32>
    %5292 = "tfl.reshape"(%5290, %5291) : (tensor<1x4x384x384xf32>, tensor<3xi32>) -> tensor<4x384x384xf32>
    %5293 = "tfl.pseudo_const"() {value = dense<0> : tensor<3xi32>} : () -> tensor<3xi32>
    %5294 = "tfl.pseudo_const"() {value = dense<[1, 384, 384]> : tensor<3xi32>} : () -> tensor<3xi32>
    %5295 = "tfl.slice"(%5292, %5293, %5294) : (tensor<4x384x384xf32>, tensor<3xi32>, tensor<3xi32>) -> tensor<1x384x384xf32>
    %5296 = "tfl.pseudo_const"() {value = dense<[1, 0, 0]> : tensor<3xi32>} : () -> tensor<3xi32>
    %5297 = "tfl.pseudo_const"() {value = dense<[1, 384, 384]> : tensor<3xi32>} : () -> tensor<3xi32>
    %5298 = "tfl.slice"(%5292, %5296, %5297) : (tensor<4x384x384xf32>, tensor<3xi32>, tensor<3xi32>) -> tensor<1x384x384xf32>
    %5299 = "tfl.pseudo_const"() {value = dense<[2, 0, 0]> : tensor<3xi32>} : () -> tensor<3xi32>
    %5300 = "tfl.pseudo_const"() {value = dense<[1, 384, 384]> : tensor<3xi32>} : () -> tensor<3xi32>
    %5301 = "tfl.slice"(%5292, %5299, %5300) : (tensor<4x384x384xf32>, tensor<3xi32>, tensor<3xi32>) -> tensor<1x384x384xf32>
    %5302 = "tfl.pseudo_const"() {value = dense<[3, 0, 0]> : tensor<3xi32>} : () -> tensor<3xi32>
    %5303 = "tfl.pseudo_const"() {value = dense<[1, 384, 384]> : tensor<3xi32>} : () -> tensor<3xi32>
    %5304 = "tfl.slice"(%5292, %5302, %5303) : (tensor<4x384x384xf32>, tensor<3xi32>, tensor<3xi32>) -> tensor<1x384x384xf32>
    %5305 = "tfl.pseudo_const"() {value = dense<[4, 384, 32]> : tensor<3xi32>} : () -> tensor<3xi32>
    %5306 = "tfl.reshape"(%5233, %5305) : (tensor<1x4x384x32xf32>, tensor<3xi32>) -> tensor<4x384x32xf32>
    %5307 = "tfl.pseudo_const"() {value = dense<0> : tensor<3xi32>} : () -> tensor<3xi32>
    %5308 = "tfl.pseudo_const"() {value = dense<[1, 384, 32]> : tensor<3xi32>} : () -> tensor<3xi32>
    %5309 = "tfl.slice"(%5306, %5307, %5308) : (tensor<4x384x32xf32>, tensor<3xi32>, tensor<3xi32>) -> tensor<1x384x32xf32>
    %5310 = "tfl.pseudo_const"() {value = dense<[2, 1, 0]> : tensor<3xi32>} : () -> tensor<3xi32>
    %5311 = "tfl.transpose"(%5309, %5310) : (tensor<1x384x32xf32>, tensor<3xi32>) -> tensor<32x384x1xf32>
    %5312 = "tfl.pseudo_const"() {value = dense<[1, 0, 0]> : tensor<3xi32>} : () -> tensor<3xi32>
    %5313 = "tfl.pseudo_const"() {value = dense<[1, 384, 32]> : tensor<3xi32>} : () -> tensor<3xi32>
    %5314 = "tfl.slice"(%5306, %5312, %5313) : (tensor<4x384x32xf32>, tensor<3xi32>, tensor<3xi32>) -> tensor<1x384x32xf32>
    %5315 = "tfl.pseudo_const"() {value = dense<[2, 1, 0]> : tensor<3xi32>} : () -> tensor<3xi32>
    %5316 = "tfl.transpose"(%5314, %5315) : (tensor<1x384x32xf32>, tensor<3xi32>) -> tensor<32x384x1xf32>
    %5317 = "tfl.pseudo_const"() {value = dense<[2, 0, 0]> : tensor<3xi32>} : () -> tensor<3xi32>
    %5318 = "tfl.pseudo_const"() {value = dense<[1, 384, 32]> : tensor<3xi32>} : () -> tensor<3xi32>
    %5319 = "tfl.slice"(%5306, %5317, %5318) : (tensor<4x384x32xf32>, tensor<3xi32>, tensor<3xi32>) -> tensor<1x384x32xf32>
    %5320 = "tfl.pseudo_const"() {value = dense<[2, 1, 0]> : tensor<3xi32>} : () -> tensor<3xi32>
    %5321 = "tfl.transpose"(%5319, %5320) : (tensor<1x384x32xf32>, tensor<3xi32>) -> tensor<32x384x1xf32>
    %5322 = "tfl.pseudo_const"() {value = dense<[3, 0, 0]> : tensor<3xi32>} : () -> tensor<3xi32>
    %5323 = "tfl.pseudo_const"() {value = dense<[1, 384, 32]> : tensor<3xi32>} : () -> tensor<3xi32>
    %5324 = "tfl.slice"(%5306, %5322, %5323) : (tensor<4x384x32xf32>, tensor<3xi32>, tensor<3xi32>) -> tensor<1x384x32xf32>
    %5325 = "tfl.pseudo_const"() {value = dense<[2, 1, 0]> : tensor<3xi32>} : () -> tensor<3xi32>
    %5326 = "tfl.transpose"(%5324, %5325) : (tensor<1x384x32xf32>, tensor<3xi32>) -> tensor<32x384x1xf32>
    %5327 = "tfl.pseudo_const"() {value = dense<[32, 384]> : tensor<2xi32>} : () -> tensor<2xi32>
    %5328 = "tfl.reshape"(%5311, %5327) : (tensor<32x384x1xf32>, tensor<2xi32>) -> tensor<32x384xf32>
    %5329 = "tfl.fully_connected"(%5295, %5328, %314) {fused_activation_function = "NONE", keep_num_dims = false, weights_format = "DEFAULT"} : (tensor<1x384x384xf32>, tensor<32x384xf32>, tensor<32xf32>) -> tensor<384x32xf32>
    %5330 = "tfl.pseudo_const"() {value = dense<[32, 384]> : tensor<2xi32>} : () -> tensor<2xi32>
    %5331 = "tfl.reshape"(%5316, %5330) : (tensor<32x384x1xf32>, tensor<2xi32>) -> tensor<32x384xf32>
    %5332 = "tfl.fully_connected"(%5298, %5331, %314) {fused_activation_function = "NONE", keep_num_dims = false, weights_format = "DEFAULT"} : (tensor<1x384x384xf32>, tensor<32x384xf32>, tensor<32xf32>) -> tensor<384x32xf32>
    %5333 = "tfl.pseudo_const"() {value = dense<[32, 384]> : tensor<2xi32>} : () -> tensor<2xi32>
    %5334 = "tfl.reshape"(%5321, %5333) : (tensor<32x384x1xf32>, tensor<2xi32>) -> tensor<32x384xf32>
    %5335 = "tfl.fully_connected"(%5301, %5334, %314) {fused_activation_function = "NONE", keep_num_dims = false, weights_format = "DEFAULT"} : (tensor<1x384x384xf32>, tensor<32x384xf32>, tensor<32xf32>) -> tensor<384x32xf32>
    %5336 = "tfl.pseudo_const"() {value = dense<[32, 384]> : tensor<2xi32>} : () -> tensor<2xi32>
    %5337 = "tfl.reshape"(%5326, %5336) : (tensor<32x384x1xf32>, tensor<2xi32>) -> tensor<32x384xf32>
    %5338 = "tfl.fully_connected"(%5304, %5337, %314) {fused_activation_function = "NONE", keep_num_dims = false, weights_format = "DEFAULT"} : (tensor<1x384x384xf32>, tensor<32x384xf32>, tensor<32xf32>) -> tensor<384x32xf32>
    %5339 = "tfl.pack"(%5329, %5332, %5335, %5338) {axis = 0 : i32, values_count = 4 : i32} : (tensor<384x32xf32>, tensor<384x32xf32>, tensor<384x32xf32>, tensor<384x32xf32>) -> tensor<4x384x32xf32>
    %5340 = "tfl.pseudo_const"() {value = dense<[1, 0, 2]> : tensor<3xi32>} : () -> tensor<3xi32>
    %5341 = "tfl.transpose"(%5339, %5340) : (tensor<4x384x32xf32>, tensor<3xi32>) -> tensor<384x4x32xf32>
    %5342 = "tfl.pseudo_const"() {value = dense<[1, 384, 4, 32]> : tensor<4xi32>} : () -> tensor<4xi32>
    %5343 = "tfl.reshape"(%5341, %5342) : (tensor<384x4x32xf32>, tensor<4xi32>) -> tensor<1x384x4x32xf32>
    %5344 = "tfl.pseudo_const"() {value = dense<"hex_value_removed_for_legibility_this_model_will_not_run_correctly_without_it"> : tensor<128x128xf32>} : () -> tensor<128x128xf32>
    %5345 = "tfl.pseudo_const"() {value = dense<"hex_value_removed_for_legibility_this_model_will_not_run_correctly_without_it"> : tensor<128xf32>} : () -> tensor<128xf32>
    %5346 = "tfl.fully_connected"(%5343, %5344, %5345) {fused_activation_function = "NONE", keep_num_dims = false, weights_format = "DEFAULT"} : (tensor<1x384x4x32xf32>, tensor<128x128xf32>, tensor<128xf32>) -> tensor<384x128xf32>
    %5347 = "tfl.pseudo_const"() {value = dense<[1, 384, 128]> : tensor<3xi32>} : () -> tensor<3xi32>
    %5348 = "tfl.reshape"(%5346, %5347) : (tensor<384x128xf32>, tensor<3xi32>) -> tensor<1x384x128xf32>
    %5349 = tfl.add %5348, %5208 {fused_activation_function = "NONE"} : tensor<1x384x128xf32>
    %5350 = "tfl.pseudo_const"() {value = dense<"hex_value_removed_for_legibility_this_model_will_not_run_correctly_without_it"> : tensor<128xf32>} : () -> tensor<128xf32>
    %5351 = "tfl.mul"(%5349, %5350) {fused_activation_function = "NONE"} : (tensor<1x384x128xf32>, tensor<128xf32>) -> tensor<1x384x128xf32>
    %5352 = "tfl.pseudo_const"() {value = dense<"hex_value_removed_for_legibility_this_model_will_not_run_correctly_without_it"> : tensor<128xf32>} : () -> tensor<128xf32>
    %5353 = "tfl.add"(%5351, %5352) {fused_activation_function = "NONE"} : (tensor<1x384x128xf32>, tensor<128xf32>) -> tensor<1x384x128xf32>
    %5354 = "tfl.pseudo_const"() {value = dense<"hex_value_removed_for_legibility_this_model_will_not_run_correctly_without_it"> : tensor<512x128xf32>} : () -> tensor<512x128xf32>
    %5355 = "tfl.pseudo_const"() {value = dense<"hex_value_removed_for_legibility_this_model_will_not_run_correctly_without_it"> : tensor<512xf32>} : () -> tensor<512xf32>
    %5356 = "tfl.fully_connected"(%5353, %5354, %5355) {fused_activation_function = "RELU", keep_num_dims = false, weights_format = "DEFAULT"} : (tensor<1x384x128xf32>, tensor<512x128xf32>, tensor<512xf32>) -> tensor<384x512xf32>
    %5357 = "tfl.pseudo_const"() {value = dense<"hex_value_removed_for_legibility_this_model_will_not_run_correctly_without_it"> : tensor<128x512xf32>} : () -> tensor<128x512xf32>
    %5358 = "tfl.pseudo_const"() {value = dense<"hex_value_removed_for_legibility_this_model_will_not_run_correctly_without_it"> : tensor<128xf32>} : () -> tensor<128xf32>
    %5359 = "tfl.fully_connected"(%5356, %5357, %5358) {fused_activation_function = "NONE", keep_num_dims = false, weights_format = "DEFAULT"} : (tensor<384x512xf32>, tensor<128x512xf32>, tensor<128xf32>) -> tensor<384x128xf32>
    %5360 = "tfl.pseudo_const"() {value = dense<[1, 384, 128]> : tensor<3xi32>} : () -> tensor<3xi32>
    %5361 = "tfl.reshape"(%5359, %5360) : (tensor<384x128xf32>, tensor<3xi32>) -> tensor<1x384x128xf32>
    %5362 = tfl.add %5361, %5353 {fused_activation_function = "NONE"} : tensor<1x384x128xf32>
    %5363 = "tfl.pseudo_const"() {value = dense<"hex_value_removed_for_legibility_this_model_will_not_run_correctly_without_it"> : tensor<128xf32>} : () -> tensor<128xf32>
    %5364 = "tfl.mul"(%5362, %5363) {fused_activation_function = "NONE"} : (tensor<1x384x128xf32>, tensor<128xf32>) -> tensor<1x384x128xf32>
    %5365 = "tfl.pseudo_const"() {value = dense<"hex_value_removed_for_legibility_this_model_will_not_run_correctly_without_it"> : tensor<128xf32>} : () -> tensor<128xf32>
    %5366 = "tfl.add"(%5364, %5365) {fused_activation_function = "NONE"} : (tensor<1x384x128xf32>, tensor<128xf32>) -> tensor<1x384x128xf32>
    %5367 = "tfl.pseudo_const"() {value = dense<"hex_value_removed_for_legibility_this_model_will_not_run_correctly_without_it"> : tensor<512x128xf32>} : () -> tensor<512x128xf32>
    %5368 = "tfl.pseudo_const"() {value = dense<"hex_value_removed_for_legibility_this_model_will_not_run_correctly_without_it"> : tensor<512xf32>} : () -> tensor<512xf32>
    %5369 = "tfl.fully_connected"(%5366, %5367, %5368) {fused_activation_function = "RELU", keep_num_dims = false, weights_format = "DEFAULT"} : (tensor<1x384x128xf32>, tensor<512x128xf32>, tensor<512xf32>) -> tensor<384x512xf32>
    %5370 = "tfl.pseudo_const"() {value = dense<"hex_value_removed_for_legibility_this_model_will_not_run_correctly_without_it"> : tensor<128x512xf32>} : () -> tensor<128x512xf32>
    %5371 = "tfl.pseudo_const"() {value = dense<"hex_value_removed_for_legibility_this_model_will_not_run_correctly_without_it"> : tensor<128xf32>} : () -> tensor<128xf32>
    %5372 = "tfl.fully_connected"(%5369, %5370, %5371) {fused_activation_function = "NONE", keep_num_dims = false, weights_format = "DEFAULT"} : (tensor<384x512xf32>, tensor<128x512xf32>, tensor<128xf32>) -> tensor<384x128xf32>
    %5373 = "tfl.pseudo_const"() {value = dense<[1, 384, 128]> : tensor<3xi32>} : () -> tensor<3xi32>
    %5374 = "tfl.reshape"(%5372, %5373) : (tensor<384x128xf32>, tensor<3xi32>) -> tensor<1x384x128xf32>
    %5375 = tfl.add %5374, %5366 {fused_activation_function = "NONE"} : tensor<1x384x128xf32>
    %5376 = "tfl.pseudo_const"() {value = dense<"hex_value_removed_for_legibility_this_model_will_not_run_correctly_without_it"> : tensor<128xf32>} : () -> tensor<128xf32>
    %5377 = "tfl.mul"(%5375, %5376) {fused_activation_function = "NONE"} : (tensor<1x384x128xf32>, tensor<128xf32>) -> tensor<1x384x128xf32>
    %5378 = "tfl.pseudo_const"() {value = dense<"hex_value_removed_for_legibility_this_model_will_not_run_correctly_without_it"> : tensor<128xf32>} : () -> tensor<128xf32>
    %5379 = "tfl.add"(%5377, %5378) {fused_activation_function = "NONE"} : (tensor<1x384x128xf32>, tensor<128xf32>) -> tensor<1x384x128xf32>
    %5380 = "tfl.pseudo_const"() {value = dense<"hex_value_removed_for_legibility_this_model_will_not_run_correctly_without_it"> : tensor<512x128xf32>} : () -> tensor<512x128xf32>
    %5381 = "tfl.pseudo_const"() {value = dense<"hex_value_removed_for_legibility_this_model_will_not_run_correctly_without_it"> : tensor<512xf32>} : () -> tensor<512xf32>
    %5382 = "tfl.fully_connected"(%5379, %5380, %5381) {fused_activation_function = "RELU", keep_num_dims = false, weights_format = "DEFAULT"} : (tensor<1x384x128xf32>, tensor<512x128xf32>, tensor<512xf32>) -> tensor<384x512xf32>
    %5383 = "tfl.pseudo_const"() {value = dense<"hex_value_removed_for_legibility_this_model_will_not_run_correctly_without_it"> : tensor<128x512xf32>} : () -> tensor<128x512xf32>
    %5384 = "tfl.pseudo_const"() {value = dense<"hex_value_removed_for_legibility_this_model_will_not_run_correctly_without_it"> : tensor<128xf32>} : () -> tensor<128xf32>
    %5385 = "tfl.fully_connected"(%5382, %5383, %5384) {fused_activation_function = "NONE", keep_num_dims = false, weights_format = "DEFAULT"} : (tensor<384x512xf32>, tensor<128x512xf32>, tensor<128xf32>) -> tensor<384x128xf32>
    %5386 = "tfl.pseudo_const"() {value = dense<[1, 384, 128]> : tensor<3xi32>} : () -> tensor<3xi32>
    %5387 = "tfl.reshape"(%5385, %5386) : (tensor<384x128xf32>, tensor<3xi32>) -> tensor<1x384x128xf32>
    %5388 = tfl.add %5387, %5379 {fused_activation_function = "NONE"} : tensor<1x384x128xf32>
    %5389 = "tfl.pseudo_const"() {value = dense<"hex_value_removed_for_legibility_this_model_will_not_run_correctly_without_it"> : tensor<128xf32>} : () -> tensor<128xf32>
    %5390 = "tfl.mul"(%5388, %5389) {fused_activation_function = "NONE"} : (tensor<1x384x128xf32>, tensor<128xf32>) -> tensor<1x384x128xf32>
    %5391 = "tfl.pseudo_const"() {value = dense<"hex_value_removed_for_legibility_this_model_will_not_run_correctly_without_it"> : tensor<128xf32>} : () -> tensor<128xf32>
    %5392 = "tfl.add"(%5390, %5391) {fused_activation_function = "NONE"} : (tensor<1x384x128xf32>, tensor<128xf32>) -> tensor<1x384x128xf32>
    %5393 = "tfl.pseudo_const"() {value = dense<"hex_value_removed_for_legibility_this_model_will_not_run_correctly_without_it"> : tensor<512x128xf32>} : () -> tensor<512x128xf32>
    %5394 = "tfl.pseudo_const"() {value = dense<"hex_value_removed_for_legibility_this_model_will_not_run_correctly_without_it"> : tensor<512xf32>} : () -> tensor<512xf32>
    %5395 = "tfl.fully_connected"(%5392, %5393, %5394) {fused_activation_function = "RELU", keep_num_dims = false, weights_format = "DEFAULT"} : (tensor<1x384x128xf32>, tensor<512x128xf32>, tensor<512xf32>) -> tensor<384x512xf32>
    %5396 = "tfl.pseudo_const"() {value = dense<"hex_value_removed_for_legibility_this_model_will_not_run_correctly_without_it"> : tensor<128x512xf32>} : () -> tensor<128x512xf32>
    %5397 = "tfl.pseudo_const"() {value = dense<"hex_value_removed_for_legibility_this_model_will_not_run_correctly_without_it"> : tensor<128xf32>} : () -> tensor<128xf32>
    %5398 = "tfl.fully_connected"(%5395, %5396, %5397) {fused_activation_function = "NONE", keep_num_dims = false, weights_format = "DEFAULT"} : (tensor<384x512xf32>, tensor<128x512xf32>, tensor<128xf32>) -> tensor<384x128xf32>
    %5399 = "tfl.pseudo_const"() {value = dense<[1, 384, 128]> : tensor<3xi32>} : () -> tensor<3xi32>
    %5400 = "tfl.reshape"(%5398, %5399) : (tensor<384x128xf32>, tensor<3xi32>) -> tensor<1x384x128xf32>
    %5401 = tfl.add %5400, %5392 {fused_activation_function = "NONE"} : tensor<1x384x128xf32>
    %5402 = "tfl.pseudo_const"() {value = dense<"hex_value_removed_for_legibility_this_model_will_not_run_correctly_without_it"> : tensor<128xf32>} : () -> tensor<128xf32>
    %5403 = "tfl.mul"(%5401, %5402) {fused_activation_function = "NONE"} : (tensor<1x384x128xf32>, tensor<128xf32>) -> tensor<1x384x128xf32>
    %5404 = "tfl.pseudo_const"() {value = dense<"hex_value_removed_for_legibility_this_model_will_not_run_correctly_without_it"> : tensor<128xf32>} : () -> tensor<128xf32>
    %5405 = "tfl.add"(%5403, %5404) {fused_activation_function = "NONE"} : (tensor<1x384x128xf32>, tensor<128xf32>) -> tensor<1x384x128xf32>
    %5406 = "tfl.pseudo_const"() {value = dense<"hex_value_removed_for_legibility_this_model_will_not_run_correctly_without_it"> : tensor<512x128xf32>} : () -> tensor<512x128xf32>
    %5407 = "tfl.pseudo_const"() {value = dense<"hex_value_removed_for_legibility_this_model_will_not_run_correctly_without_it"> : tensor<512xf32>} : () -> tensor<512xf32>
    %5408 = "tfl.fully_connected"(%5405, %5406, %5407) {fused_activation_function = "NONE", keep_num_dims = false, weights_format = "DEFAULT"} : (tensor<1x384x128xf32>, tensor<512x128xf32>, tensor<512xf32>) -> tensor<384x512xf32>
    %5409 = "tfl.pseudo_const"() {value = dense<[1, 384, 512]> : tensor<3xi32>} : () -> tensor<3xi32>
    %5410 = "tfl.reshape"(%5408, %5409) : (tensor<384x512xf32>, tensor<3xi32>) -> tensor<1x384x512xf32>
    %5411 = tfl.add %5410, %5197 {fused_activation_function = "NONE"} : tensor<1x384x512xf32>
    %5412 = "tfl.pseudo_const"() {value = dense<"hex_value_removed_for_legibility_this_model_will_not_run_correctly_without_it"> : tensor<512xf32>} : () -> tensor<512xf32>
    %5413 = "tfl.mul"(%5411, %5412) {fused_activation_function = "NONE"} : (tensor<1x384x512xf32>, tensor<512xf32>) -> tensor<1x384x512xf32>
    %5414 = "tfl.pseudo_const"() {value = dense<"hex_value_removed_for_legibility_this_model_will_not_run_correctly_without_it"> : tensor<512xf32>} : () -> tensor<512xf32>
    %5415 = "tfl.add"(%5413, %5414) {fused_activation_function = "NONE"} : (tensor<1x384x512xf32>, tensor<512xf32>) -> tensor<1x384x512xf32>
    %5416 = "tfl.pseudo_const"() {value = dense<"hex_value_removed_for_legibility_this_model_will_not_run_correctly_without_it"> : tensor<2x512xf32>} : () -> tensor<2x512xf32>
    %5417 = "tfl.pseudo_const"() {value = dense<[0.0158917457, 0.0135550713]> : tensor<2xf32>} : () -> tensor<2xf32>
    %5418 = "tfl.fully_connected"(%5415, %5416, %5417) {fused_activation_function = "NONE", keep_num_dims = false, weights_format = "DEFAULT"} : (tensor<1x384x512xf32>, tensor<2x512xf32>, tensor<2xf32>) -> tensor<384x2xf32>
    %5419 = "tfl.pseudo_const"() {value = dense<[1, 0]> : tensor<2xi32>} : () -> tensor<2xi32>
    %5420 = "tfl.transpose"(%5418, %5419) : (tensor<384x2xf32>, tensor<2xi32>) -> tensor<2x384xf32>
    %5421 = "tfl.pseudo_const"() {value = dense<[2, 1, 384]> : tensor<3xi32>} : () -> tensor<3xi32>
    %5422 = "tfl.reshape"(%5420, %5421) : (tensor<2x384xf32>, tensor<3xi32>) -> tensor<2x1x384xf32>
    %5423:2 = "tfl.unpack"(%5422) {axis = 0 : i32, num = 2 : i32} : (tensor<2x1x384xf32>) -> (tensor<1x384xf32>, tensor<1x384xf32>)
    return %5423#1, %5423#0 : tensor<1x384xf32>, tensor<1x384xf32>
  }
}