

module attributes {tfl.description = "TOCO Converted.", tfl.schema_version = 3 : i32} {
  func @main(%arg0: tensor<1x224x224x3x!quant.uniform<u8:f32, 7.812500e-03:128>>) -> tensor<1x1001x!quant.uniform<u8:f32, 0.098892539739608765:58>> attributes {tf.entry_function = {inputs = "input", outputs = "output"}} {
    %0 = "tfl.pseudo_qconst"() {qtype = tensor<32x3x3x3x!quant.uniform<u8<1:255>:f32, 0.033968925476074219:122>> : tensor<32x3x3x3xi8>} : () -> tensor<32x3x3x3x!quant.uniform<u8<1:255>:f32, 0.033968925476074219:122>>
    %1 = "tfl.pseudo_qconst"() {qtype = tensor<32x!quant.uniform<i32:f32, 2.6538223028182983E-4>>, value = dense<[8516, 10897, -4959, -4581, 13159, 12740, -26393, -9582, 10176, 8369, -9770, -1126, -736, -5063, 10827, 11467, 26, 9421, -17688, -4931, 9865, 13177, 8010, -1051, 11453, 11560, 625, 10594, 330, 9176, -9910, 17557]> : tensor<32xi32>} : () -> tensor<32x!quant.uniform<i32:f32, 2.6538223028182983E-4>>
    %2 = "tfl.conv_2d"(%arg0, %0, %1) {dilation_h_factor = 1 : i32, dilation_w_factor = 1 : i32, fused_activation_function = "NONE", padding = "SAME", stride_h = 2 : i32, stride_w = 2 : i32} : (tensor<1x224x224x3x!quant.uniform<u8:f32, 7.812500e-03:128>>, tensor<32x3x3x3x!quant.uniform<u8<1:255>:f32, 0.033968925476074219:122>>, tensor<32x!quant.uniform<i32:f32, 2.6538223028182983E-4>>) -> tensor<1x112x112x32x!quant.uniform<u8:f32, 0.023528477177023888>>
    %3 = "tfl.pseudo_qconst"() {qtype = tensor<1x3x3x32x!quant.uniform<u8<1:255>:f32, 0.34369552135467529:165>> : tensor<1x3x3x32xi8>} : () -> tensor<1x3x3x32x!quant.uniform<u8<1:255>:f32, 0.34369552135467529:165>>
    %4 = "tfl.pseudo_qconst"() {qtype = tensor<32x!quant.uniform<i32:f32, 0.0080866320058703423>>, value = dense<[167, 501, -18, -19, 353, 386, 63, -28, 429, 85, 23, -45, -54, -130, 294, 307, -64, 165, 314, -168, 127, 352, 19, -191, 378, 382, 1, 423, -66, 254, -81, -695]> : tensor<32xi32>} : () -> tensor<32x!quant.uniform<i32:f32, 0.0080866320058703423>>
    %5 = "tfl.depthwise_conv_2d"(%2, %3, %4) {depth_multiplier = 1 : i32, dilation_h_factor = 1 : i32, dilation_w_factor = 1 : i32, fused_activation_function = "NONE", padding = "SAME", stride_h = 1 : i32, stride_w = 1 : i32} : (tensor<1x112x112x32x!quant.uniform<u8:f32, 0.023528477177023888>>, tensor<1x3x3x32x!quant.uniform<u8<1:255>:f32, 0.34369552135467529:165>>, tensor<32x!quant.uniform<i32:f32, 0.0080866320058703423>>) -> tensor<1x112x112x32x!quant.uniform<u8:f32, 0.023528477177023888>>
    %6 = "tfl.pseudo_qconst"() {qtype = tensor<16x1x1x32x!quant.uniform<u8<1:255>:f32, 0.03737175464630127:140>> : tensor<16x1x1x32xi8>} : () -> tensor<16x1x1x32x!quant.uniform<u8<1:255>:f32, 0.03737175464630127:140>>
    %7 = "tfl.pseudo_qconst"() {qtype = tensor<16x!quant.uniform<i32:f32, 8.7930046720430255E-4>>, value = dense<[-3888, 2761, 17390, 25283, 13121, 6059, -5868, 8612, -14915, 5153, -6009, 26475, -25187, -12143, 5489, -5027]> : tensor<16xi32>} : () -> tensor<16x!quant.uniform<i32:f32, 8.7930046720430255E-4>>
    %8 = "tfl.conv_2d"(%5, %6, %7) {dilation_h_factor = 1 : i32, dilation_w_factor = 1 : i32, fused_activation_function = "NONE", padding = "SAME", stride_h = 1 : i32, stride_w = 1 : i32} : (tensor<1x112x112x32x!quant.uniform<u8:f32, 0.023528477177023888>>, tensor<16x1x1x32x!quant.uniform<u8<1:255>:f32, 0.03737175464630127:140>>, tensor<16x!quant.uniform<i32:f32, 8.7930046720430255E-4>>) -> tensor<1x112x112x16x!quant.uniform<u8:f32, 0.35441333055496216:129>>
    %9 = "tfl.pseudo_qconst"() {qtype = tensor<96x1x1x16x!quant.uniform<u8<1:255>:f32, 0.0097585078328847885:127>> : tensor<96x1x1x16xi8>} : () -> tensor<96x1x1x16x!quant.uniform<u8<1:255>:f32, 0.0097585078328847885:127>>
    %10 = "tfl.pseudo_qconst"() {qtype = tensor<96x!quant.uniform<i32:f32, 0.0034585453104227781>>, value = dense<[232, -17, 5, 748, -35, 557, 17, 476, 727, 18, 681, 550, 47, 700, 435, 10, 14, 653, 149, -105, -27, -31, 250, 340, 387, 645, -647, 485, 919, 129, 188, 667, -107, 1410, 701, 417, 681, 723, 26, -243, -91, 89, 1177, -56, 528, -83, 16, 915, 4, 12, 657, 2, 45, 591, 5, 317, 436, 67, 768, 54, 61, -90, 1106, 632, 306, 25, 558, 55, 854, -5, 69, 364, 582, 721, -48, 419, -32, 435, 440, 55, 521, 22, 17, 174, 574, 543, 24, 71, 358, 534, -551, 56, -21, 732, 347, 614]> : tensor<96xi32>} : () -> tensor<96x!quant.uniform<i32:f32, 0.0034585453104227781>>
    %11 = "tfl.conv_2d"(%8, %9, %10) {dilation_h_factor = 1 : i32, dilation_w_factor = 1 : i32, fused_activation_function = "NONE", padding = "SAME", stride_h = 1 : i32, stride_w = 1 : i32} : (tensor<1x112x112x16x!quant.uniform<u8:f32, 0.35441333055496216:129>>, tensor<96x1x1x16x!quant.uniform<u8<1:255>:f32, 0.0097585078328847885:127>>, tensor<96x!quant.uniform<i32:f32, 0.0034585453104227781>>) -> tensor<1x112x112x96x!quant.uniform<u8:f32, 0.023528477177023888>>
    %12 = "tfl.pseudo_qconst"() {qtype = tensor<1x3x3x96x!quant.uniform<u8<1:255>:f32, 0.020969120785593987:109>> : tensor<1x3x3x96xi8>} : () -> tensor<1x3x3x96x!quant.uniform<u8<1:255>:f32, 0.020969120785593987:109>>
    %13 = "tfl.pseudo_qconst"() {qtype = tensor<96x!quant.uniform<i32:f32, 4.9337150994688272E-4>>, value = dense<[161, 241, 9, -1737, 323, -1, 11, -380, -28856, 375, -11264, 11224, -62, -1346, -7802, 6225, 196, -12, 2242, 2262, 367, 155, 3561, 4159, -174, 205, -8768, -338, -29442, 3705, -129, 1025, 2482, 2874, -401, -2026, 522, -12331, 2381, 2616, 1682, 2535, -24836, 213, -31, 6488, 76, 4923, 10587, 5, -112, 123, 1227, -8, 159, 74, -1169, 2822, 7371, 2140, 3862, 2154, 73, 2291, 35, 171, -9386, 2728, 86, 1185, 1916, 1331, -171, 186, 2240, -1037, 182, -783, -81, 3561, -186, 1376, 3371, 2583, 14468, 1079, 2729, 2774, 411, 38, -6000, 2412, 5337, 1321, 3456, -301]> : tensor<96xi32>} : () -> tensor<96x!quant.uniform<i32:f32, 4.9337150994688272E-4>>
    %14 = "tfl.depthwise_conv_2d"(%11, %12, %13) {depth_multiplier = 1 : i32, dilation_h_factor = 1 : i32, dilation_w_factor = 1 : i32, fused_activation_function = "NONE", padding = "SAME", stride_h = 2 : i32, stride_w = 2 : i32} : (tensor<1x112x112x96x!quant.uniform<u8:f32, 0.023528477177023888>>, tensor<1x3x3x96x!quant.uniform<u8<1:255>:f32, 0.020969120785593987:109>>, tensor<96x!quant.uniform<i32:f32, 4.9337150994688272E-4>>) -> tensor<1x56x56x96x!quant.uniform<u8:f32, 0.023528477177023888>>
    %15 = "tfl.pseudo_qconst"() {qtype = tensor<24x1x1x96x!quant.uniform<u8<1:255>:f32, 0.0225360207259655:156>> : tensor<24x1x1x96xi8>} : () -> tensor<24x1x1x96x!quant.uniform<u8<1:255>:f32, 0.0225360207259655:156>>
    %16 = "tfl.pseudo_qconst"() {qtype = tensor<24x!quant.uniform<i32:f32, 5.3023826330900192E-4>>, value = dense<[15249, -14142, 23441, -16486, 4411, -3441, -6661, 8536, -7721, 125, 4037, -6830, 12220, -8678, 26794, -9008, 17295, -10584, -1228, 5723, -26493, -8976, -3539, 19461]> : tensor<24xi32>} : () -> tensor<24x!quant.uniform<i32:f32, 5.3023826330900192E-4>>
    %17 = "tfl.conv_2d"(%14, %15, %16) {dilation_h_factor = 1 : i32, dilation_w_factor = 1 : i32, fused_activation_function = "NONE", padding = "SAME", stride_h = 1 : i32, stride_w = 1 : i32} : (tensor<1x56x56x96x!quant.uniform<u8:f32, 0.023528477177023888>>, tensor<24x1x1x96x!quant.uniform<u8<1:255>:f32, 0.0225360207259655:156>>, tensor<24x!quant.uniform<i32:f32, 5.3023826330900192E-4>>) -> tensor<1x56x56x24x!quant.uniform<u8:f32, 0.2758343517780304:119>>
    %18 = "tfl.pseudo_qconst"() {qtype = tensor<144x1x1x24x!quant.uniform<u8<1:255>:f32, 0.0036556976847350597:144>> : tensor<144x1x1x24xi8>} : () -> tensor<144x1x1x24x!quant.uniform<u8<1:255>:f32, 0.0036556976847350597:144>>
    %19 = "tfl.pseudo_qconst"() {qtype = tensor<144x!quant.uniform<i32:f32, 0.0010083669330924749>> : tensor<144xi32>} : () -> tensor<144x!quant.uniform<i32:f32, 0.0010083669330924749>>
    %20 = "tfl.conv_2d"(%17, %18, %19) {dilation_h_factor = 1 : i32, dilation_w_factor = 1 : i32, fused_activation_function = "NONE", padding = "SAME", stride_h = 1 : i32, stride_w = 1 : i32} : (tensor<1x56x56x24x!quant.uniform<u8:f32, 0.2758343517780304:119>>, tensor<144x1x1x24x!quant.uniform<u8<1:255>:f32, 0.0036556976847350597:144>>, tensor<144x!quant.uniform<i32:f32, 0.0010083669330924749>>) -> tensor<1x56x56x144x!quant.uniform<u8:f32, 0.023528477177023888>>
    %21 = "tfl.pseudo_qconst"() {qtype = tensor<1x3x3x144x!quant.uniform<u8<1:255>:f32, 0.16981913149356842:52>> : tensor<1x3x3x144xi8>} : () -> tensor<1x3x3x144x!quant.uniform<u8<1:255>:f32, 0.16981913149356842:52>>
    %22 = "tfl.pseudo_qconst"() {qtype = tensor<144x!quant.uniform<i32:f32, 0.0039955852553248405>> : tensor<144xi32>} : () -> tensor<144x!quant.uniform<i32:f32, 0.0039955852553248405>>
    %23 = "tfl.depthwise_conv_2d"(%20, %21, %22) {depth_multiplier = 1 : i32, dilation_h_factor = 1 : i32, dilation_w_factor = 1 : i32, fused_activation_function = "NONE", padding = "SAME", stride_h = 1 : i32, stride_w = 1 : i32} : (tensor<1x56x56x144x!quant.uniform<u8:f32, 0.023528477177023888>>, tensor<1x3x3x144x!quant.uniform<u8<1:255>:f32, 0.16981913149356842:52>>, tensor<144x!quant.uniform<i32:f32, 0.0039955852553248405>>) -> tensor<1x56x56x144x!quant.uniform<u8:f32, 0.023528477177023888>>
    %24 = "tfl.pseudo_qconst"() {qtype = tensor<24x1x1x144x!quant.uniform<u8<1:255>:f32, 0.027408881112933159:122>> : tensor<24x1x1x144xi8>} : () -> tensor<24x1x1x144x!quant.uniform<u8<1:255>:f32, 0.027408881112933159:122>>
    %25 = "tfl.pseudo_qconst"() {qtype = tensor<24x!quant.uniform<i32:f32, 6.4488925272598863E-4>>, value = dense<[36911, -12119, 11402, -6870, 5097, 4791, 21500, 30582, -27680, -35667, 86, 8393, -13405, -6166, -15351, 50820, 13106, 24312, 19043, 1817, -5150, -24113, -4897, -14627]> : tensor<24xi32>} : () -> tensor<24x!quant.uniform<i32:f32, 6.4488925272598863E-4>>
    %26 = "tfl.conv_2d"(%23, %24, %25) {dilation_h_factor = 1 : i32, dilation_w_factor = 1 : i32, fused_activation_function = "NONE", padding = "SAME", stride_h = 1 : i32, stride_w = 1 : i32} : (tensor<1x56x56x144x!quant.uniform<u8:f32, 0.023528477177023888>>, tensor<24x1x1x144x!quant.uniform<u8<1:255>:f32, 0.027408881112933159:122>>, tensor<24x!quant.uniform<i32:f32, 6.4488925272598863E-4>>) -> tensor<1x56x56x24x!quant.uniform<u8:f32, 0.40149295330047607:136>>
    %27 = "tfl.add"(%26, %17) {fused_activation_function = "NONE"} : (tensor<1x56x56x24x!quant.uniform<u8:f32, 0.40149295330047607:136>>, tensor<1x56x56x24x!quant.uniform<u8:f32, 0.2758343517780304:119>>) -> tensor<1x56x56x24x!quant.uniform<u8:f32, 0.43216896057128906:133>>
    %28 = "tfl.pseudo_qconst"() {qtype = tensor<144x1x1x24x!quant.uniform<u8<1:255>:f32, 0.0029988749884068966:104>> : tensor<144x1x1x24xi8>} : () -> tensor<144x1x1x24x!quant.uniform<u8<1:255>:f32, 0.0029988749884068966:104>>
    %29 = "tfl.pseudo_qconst"() {qtype = tensor<144x!quant.uniform<i32:f32, 0.0012960205785930157>> : tensor<144xi32>} : () -> tensor<144x!quant.uniform<i32:f32, 0.0012960205785930157>>
    %30 = "tfl.conv_2d"(%27, %28, %29) {dilation_h_factor = 1 : i32, dilation_w_factor = 1 : i32, fused_activation_function = "NONE", padding = "SAME", stride_h = 1 : i32, stride_w = 1 : i32} : (tensor<1x56x56x24x!quant.uniform<u8:f32, 0.43216896057128906:133>>, tensor<144x1x1x24x!quant.uniform<u8<1:255>:f32, 0.0029988749884068966:104>>, tensor<144x!quant.uniform<i32:f32, 0.0012960205785930157>>) -> tensor<1x56x56x144x!quant.uniform<u8:f32, 0.023528477177023888>>
    %31 = "tfl.pseudo_qconst"() {qtype = tensor<1x3x3x144x!quant.uniform<u8<1:255>:f32, 0.017202870920300484:143>> : tensor<1x3x3x144xi8>} : () -> tensor<1x3x3x144x!quant.uniform<u8<1:255>:f32, 0.017202870920300484:143>>
    %32 = "tfl.pseudo_qconst"() {qtype = tensor<144x!quant.uniform<i32:f32, 4.0475736022926867E-4>> : tensor<144xi32>} : () -> tensor<144x!quant.uniform<i32:f32, 4.0475736022926867E-4>>
    %33 = "tfl.depthwise_conv_2d"(%30, %31, %32) {depth_multiplier = 1 : i32, dilation_h_factor = 1 : i32, dilation_w_factor = 1 : i32, fused_activation_function = "NONE", padding = "SAME", stride_h = 2 : i32, stride_w = 2 : i32} : (tensor<1x56x56x144x!quant.uniform<u8:f32, 0.023528477177023888>>, tensor<1x3x3x144x!quant.uniform<u8<1:255>:f32, 0.017202870920300484:143>>, tensor<144x!quant.uniform<i32:f32, 4.0475736022926867E-4>>) -> tensor<1x28x28x144x!quant.uniform<u8:f32, 0.023528477177023888>>
    %34 = "tfl.pseudo_qconst"() {qtype = tensor<32x1x1x144x!quant.uniform<u8<1:255>:f32, 0.016844693571329117:111>> : tensor<32x1x1x144xi8>} : () -> tensor<32x1x1x144x!quant.uniform<u8<1:255>:f32, 0.016844693571329117:111>>
    %35 = "tfl.pseudo_qconst"() {qtype = tensor<32x!quant.uniform<i32:f32, 3.9632996777072549E-4>>, value = dense<[-8923, 12853, 13224, -10945, 26990, 1450, 9703, -40025, -35143, -15012, 11747, -35852, 12143, -18615, -7286, 7691, 3963, -16913, -17776, -18469, -11339, -41038, -32459, 4343, -919, -11276, 23412, -14028, -6272, -29717, -13002, -1918]> : tensor<32xi32>} : () -> tensor<32x!quant.uniform<i32:f32, 3.9632996777072549E-4>>
    %36 = "tfl.conv_2d"(%33, %34, %35) {dilation_h_factor = 1 : i32, dilation_w_factor = 1 : i32, fused_activation_function = "NONE", padding = "SAME", stride_h = 1 : i32, stride_w = 1 : i32} : (tensor<1x28x28x144x!quant.uniform<u8:f32, 0.023528477177023888>>, tensor<32x1x1x144x!quant.uniform<u8<1:255>:f32, 0.016844693571329117:111>>, tensor<32x!quant.uniform<i32:f32, 3.9632996777072549E-4>>) -> tensor<1x28x28x32x!quant.uniform<u8:f32, 0.21836242079734802:127>>
    %37 = "tfl.pseudo_qconst"() {qtype = tensor<192x1x1x32x!quant.uniform<u8<1:255>:f32, 0.0019244228024035692:128>> : tensor<192x1x1x32xi8>} : () -> tensor<192x1x1x32x!quant.uniform<u8<1:255>:f32, 0.0019244228024035692:128>>
    %38 = "tfl.pseudo_qconst"() {qtype = tensor<192x!quant.uniform<i32:f32, 4.2022162233479321E-4>> : tensor<192xi32>} : () -> tensor<192x!quant.uniform<i32:f32, 4.2022162233479321E-4>>
    %39 = "tfl.conv_2d"(%36, %37, %38) {dilation_h_factor = 1 : i32, dilation_w_factor = 1 : i32, fused_activation_function = "NONE", padding = "SAME", stride_h = 1 : i32, stride_w = 1 : i32} : (tensor<1x28x28x32x!quant.uniform<u8:f32, 0.21836242079734802:127>>, tensor<192x1x1x32x!quant.uniform<u8<1:255>:f32, 0.0019244228024035692:128>>, tensor<192x!quant.uniform<i32:f32, 4.2022162233479321E-4>>) -> tensor<1x28x28x192x!quant.uniform<u8:f32, 0.023528477177023888>>
    %40 = "tfl.pseudo_qconst"() {qtype = tensor<1x3x3x192x!quant.uniform<u8<1:255>:f32, 0.065250657498836517:118>> : tensor<1x3x3x192xi8>} : () -> tensor<1x3x3x192x!quant.uniform<u8<1:255>:f32, 0.065250657498836517:118>>
    %41 = "tfl.pseudo_qconst"() {qtype = tensor<192x!quant.uniform<i32:f32, 0.001535248477011919>> : tensor<192xi32>} : () -> tensor<192x!quant.uniform<i32:f32, 0.001535248477011919>>
    %42 = "tfl.depthwise_conv_2d"(%39, %40, %41) {depth_multiplier = 1 : i32, dilation_h_factor = 1 : i32, dilation_w_factor = 1 : i32, fused_activation_function = "NONE", padding = "SAME", stride_h = 1 : i32, stride_w = 1 : i32} : (tensor<1x28x28x192x!quant.uniform<u8:f32, 0.023528477177023888>>, tensor<1x3x3x192x!quant.uniform<u8<1:255>:f32, 0.065250657498836517:118>>, tensor<192x!quant.uniform<i32:f32, 0.001535248477011919>>) -> tensor<1x28x28x192x!quant.uniform<u8:f32, 0.023528477177023888>>
    %43 = "tfl.pseudo_qconst"() {qtype = tensor<32x1x1x192x!quant.uniform<u8<1:255>:f32, 0.019062912091612816:146>> : tensor<32x1x1x192xi8>} : () -> tensor<32x1x1x192x!quant.uniform<u8<1:255>:f32, 0.019062912091612816:146>>
    %44 = "tfl.pseudo_qconst"() {qtype = tensor<32x!quant.uniform<i32:f32, 4.4852125574834645E-4>>, value = dense<[13555, -970, 2407, 18563, 30023, -5021, 2240, 3811, 4229, -16808, 9479, 20254, 6049, 1145, 4563, 13857, -8365, 34905, 3166, 1515, -6325, -3586, 10797, -10681, 6574, -5705, 6080, 6689, -34228, -4560, -1468, 8068]> : tensor<32xi32>} : () -> tensor<32x!quant.uniform<i32:f32, 4.4852125574834645E-4>>
    %45 = "tfl.conv_2d"(%42, %43, %44) {dilation_h_factor = 1 : i32, dilation_w_factor = 1 : i32, fused_activation_function = "NONE", padding = "SAME", stride_h = 1 : i32, stride_w = 1 : i32} : (tensor<1x28x28x192x!quant.uniform<u8:f32, 0.023528477177023888>>, tensor<32x1x1x192x!quant.uniform<u8<1:255>:f32, 0.019062912091612816:146>>, tensor<32x!quant.uniform<i32:f32, 4.4852125574834645E-4>>) -> tensor<1x28x28x32x!quant.uniform<u8:f32, 0.2279418408870697:121>>
    %46 = "tfl.add"(%45, %36) {fused_activation_function = "NONE"} : (tensor<1x28x28x32x!quant.uniform<u8:f32, 0.2279418408870697:121>>, tensor<1x28x28x32x!quant.uniform<u8:f32, 0.21836242079734802:127>>) -> tensor<1x28x28x32x!quant.uniform<u8:f32, 0.25968998670578003:130>>
    %47 = "tfl.pseudo_qconst"() {qtype = tensor<192x1x1x32x!quant.uniform<u8<1:255>:f32, 0.0013649158645421267:135>> : tensor<192x1x1x32xi8>} : () -> tensor<192x1x1x32x!quant.uniform<u8<1:255>:f32, 0.0013649158645421267:135>>
    %48 = "tfl.pseudo_qconst"() {qtype = tensor<192x!quant.uniform<i32:f32, 3.5445496905595064E-4>> : tensor<192xi32>} : () -> tensor<192x!quant.uniform<i32:f32, 3.5445496905595064E-4>>
    %49 = "tfl.conv_2d"(%46, %47, %48) {dilation_h_factor = 1 : i32, dilation_w_factor = 1 : i32, fused_activation_function = "NONE", padding = "SAME", stride_h = 1 : i32, stride_w = 1 : i32} : (tensor<1x28x28x32x!quant.uniform<u8:f32, 0.25968998670578003:130>>, tensor<192x1x1x32x!quant.uniform<u8<1:255>:f32, 0.0013649158645421267:135>>, tensor<192x!quant.uniform<i32:f32, 3.5445496905595064E-4>>) -> tensor<1x28x28x192x!quant.uniform<u8:f32, 0.023528477177023888>>
    %50 = "tfl.pseudo_qconst"() {qtype = tensor<1x3x3x192x!quant.uniform<u8<1:255>:f32, 0.079097844660282135:95>> : tensor<1x3x3x192xi8>} : () -> tensor<1x3x3x192x!quant.uniform<u8<1:255>:f32, 0.079097844660282135:95>>
    %51 = "tfl.pseudo_qconst"() {qtype = tensor<192x!quant.uniform<i32:f32, 0.0018610518891364336>> : tensor<192xi32>} : () -> tensor<192x!quant.uniform<i32:f32, 0.0018610518891364336>>
    %52 = "tfl.depthwise_conv_2d"(%49, %50, %51) {depth_multiplier = 1 : i32, dilation_h_factor = 1 : i32, dilation_w_factor = 1 : i32, fused_activation_function = "NONE", padding = "SAME", stride_h = 1 : i32, stride_w = 1 : i32} : (tensor<1x28x28x192x!quant.uniform<u8:f32, 0.023528477177023888>>, tensor<1x3x3x192x!quant.uniform<u8<1:255>:f32, 0.079097844660282135:95>>, tensor<192x!quant.uniform<i32:f32, 0.0018610518891364336>>) -> tensor<1x28x28x192x!quant.uniform<u8:f32, 0.023528477177023888>>
    %53 = "tfl.pseudo_qconst"() {qtype = tensor<32x1x1x192x!quant.uniform<u8<1:255>:f32, 0.018293123692274094:128>> : tensor<32x1x1x192xi8>} : () -> tensor<32x1x1x192x!quant.uniform<u8<1:255>:f32, 0.018293123692274094:128>>
    %54 = "tfl.pseudo_qconst"() {qtype = tensor<32x!quant.uniform<i32:f32, 4.3040933087468147E-4>>, value = dense<[5296, 1184, 9046, -5052, 8700, 1302, -4667, -2161, -3313, 4946, -5907, -127, -2211, -6836, -1720, -2416, 11041, 2919, 6643, -16081, -523, -5074, -15936, 1775, -7674, -12406, 5968, -8618, -39199, 6315, 53, 363]> : tensor<32xi32>} : () -> tensor<32x!quant.uniform<i32:f32, 4.3040933087468147E-4>>
    %55 = "tfl.conv_2d"(%52, %53, %54) {dilation_h_factor = 1 : i32, dilation_w_factor = 1 : i32, fused_activation_function = "NONE", padding = "SAME", stride_h = 1 : i32, stride_w = 1 : i32} : (tensor<1x28x28x192x!quant.uniform<u8:f32, 0.023528477177023888>>, tensor<32x1x1x192x!quant.uniform<u8<1:255>:f32, 0.018293123692274094:128>>, tensor<32x!quant.uniform<i32:f32, 4.3040933087468147E-4>>) -> tensor<1x28x28x32x!quant.uniform<u8:f32, 0.25774890184402466:124>>
    %56 = "tfl.add"(%55, %46) {fused_activation_function = "NONE"} : (tensor<1x28x28x32x!quant.uniform<u8:f32, 0.25774890184402466:124>>, tensor<1x28x28x32x!quant.uniform<u8:f32, 0.25968998670578003:130>>) -> tensor<1x28x28x32x!quant.uniform<u8:f32, 0.331714928150177:124>>
    %57 = "tfl.pseudo_qconst"() {qtype = tensor<192x1x1x32x!quant.uniform<u8<1:255>:f32, 0.0019170437008142471:127>> : tensor<192x1x1x32xi8>} : () -> tensor<192x1x1x32x!quant.uniform<u8<1:255>:f32, 0.0019170437008142471:127>>
    %58 = "tfl.pseudo_qconst"() {qtype = tensor<192x!quant.uniform<i32:f32, 6.3591200159862638E-4>> : tensor<192xi32>} : () -> tensor<192x!quant.uniform<i32:f32, 6.3591200159862638E-4>>
    %59 = "tfl.conv_2d"(%56, %57, %58) {dilation_h_factor = 1 : i32, dilation_w_factor = 1 : i32, fused_activation_function = "NONE", padding = "SAME", stride_h = 1 : i32, stride_w = 1 : i32} : (tensor<1x28x28x32x!quant.uniform<u8:f32, 0.331714928150177:124>>, tensor<192x1x1x32x!quant.uniform<u8<1:255>:f32, 0.0019170437008142471:127>>, tensor<192x!quant.uniform<i32:f32, 6.3591200159862638E-4>>) -> tensor<1x28x28x192x!quant.uniform<u8:f32, 0.023528477177023888>>
    %60 = "tfl.pseudo_qconst"() {qtype = tensor<1x3x3x192x!quant.uniform<u8<1:255>:f32, 0.010087885893881321:127>> : tensor<1x3x3x192xi8>} : () -> tensor<1x3x3x192x!quant.uniform<u8<1:255>:f32, 0.010087885893881321:127>>
    %61 = "tfl.pseudo_qconst"() {qtype = tensor<192x!quant.uniform<i32:f32, 2.3735259310342371E-4>> : tensor<192xi32>} : () -> tensor<192x!quant.uniform<i32:f32, 2.3735259310342371E-4>>
    %62 = "tfl.depthwise_conv_2d"(%59, %60, %61) {depth_multiplier = 1 : i32, dilation_h_factor = 1 : i32, dilation_w_factor = 1 : i32, fused_activation_function = "NONE", padding = "SAME", stride_h = 2 : i32, stride_w = 2 : i32} : (tensor<1x28x28x192x!quant.uniform<u8:f32, 0.023528477177023888>>, tensor<1x3x3x192x!quant.uniform<u8<1:255>:f32, 0.010087885893881321:127>>, tensor<192x!quant.uniform<i32:f32, 2.3735259310342371E-4>>) -> tensor<1x14x14x192x!quant.uniform<u8:f32, 0.023528477177023888>>
    %63 = "tfl.pseudo_qconst"() {qtype = tensor<64x1x1x192x!quant.uniform<u8<1:255>:f32, 0.014601286500692368:147>> : tensor<64x1x1x192xi8>} : () -> tensor<64x1x1x192x!quant.uniform<u8<1:255>:f32, 0.014601286500692368:147>>
    %64 = "tfl.pseudo_qconst"() {qtype = tensor<64x!quant.uniform<i32:f32, 3.4354603849351406E-4>>, value = dense<[-40101, 2083, -7841, 20627, -22, -28562, 27970, 19420, 13633, 29851, 17846, 12165, -5162, -13931, 2733, -13597, 1966, 9055, -9614, 14500, 62730, 33069, 8521, 29073, 18225, -18154, -16076, -20032, 3271, 23311, -6581, -8084, 31421, 24579, -21750, -1988, 11334, 46757, -16929, 11599, -1009, 1524, 37934, -4187, -36904, -30421, 21378, -21676, 14153, 3991, -8533, -11570, 14720, -3117, 40082, -6531, -7389, 1677, 19488, 30966, 12499, -7668, 23231, 10719]> : tensor<64xi32>} : () -> tensor<64x!quant.uniform<i32:f32, 3.4354603849351406E-4>>
    %65 = "tfl.conv_2d"(%62, %63, %64) {dilation_h_factor = 1 : i32, dilation_w_factor = 1 : i32, fused_activation_function = "NONE", padding = "SAME", stride_h = 1 : i32, stride_w = 1 : i32} : (tensor<1x14x14x192x!quant.uniform<u8:f32, 0.023528477177023888>>, tensor<64x1x1x192x!quant.uniform<u8<1:255>:f32, 0.014601286500692368:147>>, tensor<64x!quant.uniform<i32:f32, 3.4354603849351406E-4>>) -> tensor<1x14x14x64x!quant.uniform<u8:f32, 0.18540528416633606:126>>
    %66 = "tfl.pseudo_qconst"() {qtype = tensor<384x1x1x64x!quant.uniform<u8<1:255>:f32, 0.0015538912266492844:125>> : tensor<384x1x1x64xi8>} : () -> tensor<384x1x1x64x!quant.uniform<u8<1:255>:f32, 0.0015538912266492844:125>>
    %67 = "tfl.pseudo_qconst"() {qtype = tensor<384x!quant.uniform<i32:f32, 2.8809966170229018E-4>> : tensor<384xi32>} : () -> tensor<384x!quant.uniform<i32:f32, 2.8809966170229018E-4>>
    %68 = "tfl.conv_2d"(%65, %66, %67) {dilation_h_factor = 1 : i32, dilation_w_factor = 1 : i32, fused_activation_function = "NONE", padding = "SAME", stride_h = 1 : i32, stride_w = 1 : i32} : (tensor<1x14x14x64x!quant.uniform<u8:f32, 0.18540528416633606:126>>, tensor<384x1x1x64x!quant.uniform<u8<1:255>:f32, 0.0015538912266492844:125>>, tensor<384x!quant.uniform<i32:f32, 2.8809966170229018E-4>>) -> tensor<1x14x14x384x!quant.uniform<u8:f32, 0.023528477177023888>>
    %69 = "tfl.pseudo_qconst"() {qtype = tensor<1x3x3x384x!quant.uniform<u8<1:255>:f32, 0.060927115380764008:110>> : tensor<1x3x3x384xi8>} : () -> tensor<1x3x3x384x!quant.uniform<u8<1:255>:f32, 0.060927115380764008:110>>
    %70 = "tfl.pseudo_qconst"() {qtype = tensor<384x!quant.uniform<i32:f32, 0.0014335222076624632>> : tensor<384xi32>} : () -> tensor<384x!quant.uniform<i32:f32, 0.0014335222076624632>>
    %71 = "tfl.depthwise_conv_2d"(%68, %69, %70) {depth_multiplier = 1 : i32, dilation_h_factor = 1 : i32, dilation_w_factor = 1 : i32, fused_activation_function = "NONE", padding = "SAME", stride_h = 1 : i32, stride_w = 1 : i32} : (tensor<1x14x14x384x!quant.uniform<u8:f32, 0.023528477177023888>>, tensor<1x3x3x384x!quant.uniform<u8<1:255>:f32, 0.060927115380764008:110>>, tensor<384x!quant.uniform<i32:f32, 0.0014335222076624632>>) -> tensor<1x14x14x384x!quant.uniform<u8:f32, 0.023528477177023888>>
    %72 = "tfl.pseudo_qconst"() {qtype = tensor<64x1x1x384x!quant.uniform<u8<1:255>:f32, 0.016782939434051514:124>> : tensor<64x1x1x384xi8>} : () -> tensor<64x1x1x384x!quant.uniform<u8<1:255>:f32, 0.016782939434051514:124>>
    %73 = "tfl.pseudo_qconst"() {qtype = tensor<64x!quant.uniform<i32:f32, 3.9487698813900352E-4>>, value = dense<[2481, -2198, -839, 1159, -108, 583, -3233, 1348, 718, -1495, -4893, 2716, 505, -2552, -2342, 8860, 608, -2682, 10295, -2194, 297, -7824, 3666, -908, 1391, -1149, 642, -2109, 8499, 2814, -25718, -9367, 3266, 546, -5730, 6325, -2973, -34, 3453, -7824, -1858, -18068, 412, 3334, 1900, 602, -4732, -87, -7843, -1338, -2554, -4245, -2175, -2731, 1963, -2087, 5858, -95, -6132, 2855, 2880, 8175, -258, 2194]> : tensor<64xi32>} : () -> tensor<64x!quant.uniform<i32:f32, 3.9487698813900352E-4>>
    %74 = "tfl.conv_2d"(%71, %72, %73) {dilation_h_factor = 1 : i32, dilation_w_factor = 1 : i32, fused_activation_function = "NONE", padding = "SAME", stride_h = 1 : i32, stride_w = 1 : i32} : (tensor<1x14x14x384x!quant.uniform<u8:f32, 0.023528477177023888>>, tensor<64x1x1x384x!quant.uniform<u8<1:255>:f32, 0.016782939434051514:124>>, tensor<64x!quant.uniform<i32:f32, 3.9487698813900352E-4>>) -> tensor<1x14x14x64x!quant.uniform<u8:f32, 0.17263489961624146:109>>
    %75 = "tfl.add"(%74, %65) {fused_activation_function = "NONE"} : (tensor<1x14x14x64x!quant.uniform<u8:f32, 0.17263489961624146:109>>, tensor<1x14x14x64x!quant.uniform<u8:f32, 0.18540528416633606:126>>) -> tensor<1x14x14x64x!quant.uniform<u8:f32, 0.18911026418209076:122>>
    %76 = "tfl.pseudo_qconst"() {qtype = tensor<384x1x1x64x!quant.uniform<u8<1:255>:f32, 0.0014702979242429137:134>> : tensor<384x1x1x64xi8>} : () -> tensor<384x1x1x64x!quant.uniform<u8<1:255>:f32, 0.0014702979242429137:134>>
    %77 = "tfl.pseudo_qconst"() {qtype = tensor<384x!quant.uniform<i32:f32, 2.7804842102341354E-4>> : tensor<384xi32>} : () -> tensor<384x!quant.uniform<i32:f32, 2.7804842102341354E-4>>
    %78 = "tfl.conv_2d"(%75, %76, %77) {dilation_h_factor = 1 : i32, dilation_w_factor = 1 : i32, fused_activation_function = "NONE", padding = "SAME", stride_h = 1 : i32, stride_w = 1 : i32} : (tensor<1x14x14x64x!quant.uniform<u8:f32, 0.18911026418209076:122>>, tensor<384x1x1x64x!quant.uniform<u8<1:255>:f32, 0.0014702979242429137:134>>, tensor<384x!quant.uniform<i32:f32, 2.7804842102341354E-4>>) -> tensor<1x14x14x384x!quant.uniform<u8:f32, 0.023528477177023888>>
    %79 = "tfl.pseudo_qconst"() {qtype = tensor<1x3x3x384x!quant.uniform<u8<1:255>:f32, 0.052407849580049515:133>> : tensor<1x3x3x384xi8>} : () -> tensor<1x3x3x384x!quant.uniform<u8<1:255>:f32, 0.052407849580049515:133>>
    %80 = "tfl.pseudo_qconst"() {qtype = tensor<384x!quant.uniform<i32:f32, 0.0012330769095569849>> : tensor<384xi32>} : () -> tensor<384x!quant.uniform<i32:f32, 0.0012330769095569849>>
    %81 = "tfl.depthwise_conv_2d"(%78, %79, %80) {depth_multiplier = 1 : i32, dilation_h_factor = 1 : i32, dilation_w_factor = 1 : i32, fused_activation_function = "NONE", padding = "SAME", stride_h = 1 : i32, stride_w = 1 : i32} : (tensor<1x14x14x384x!quant.uniform<u8:f32, 0.023528477177023888>>, tensor<1x3x3x384x!quant.uniform<u8<1:255>:f32, 0.052407849580049515:133>>, tensor<384x!quant.uniform<i32:f32, 0.0012330769095569849>>) -> tensor<1x14x14x384x!quant.uniform<u8:f32, 0.023528477177023888>>
    %82 = "tfl.pseudo_qconst"() {qtype = tensor<64x1x1x384x!quant.uniform<u8<1:255>:f32, 0.012898261658847332:125>> : tensor<64x1x1x384xi8>} : () -> tensor<64x1x1x384x!quant.uniform<u8<1:255>:f32, 0.012898261658847332:125>>
    %83 = "tfl.pseudo_qconst"() {qtype = tensor<64x!quant.uniform<i32:f32, 3.0347643769346178E-4>>, value = dense<[3937, 16780, 2964, -662, -4463, 467, -2530, 2725, 4965, -116, 13785, -4721, -5997, 3325, -10041, -17323, -186, 885, 10373, -59, -7442, 5962, -3493, -529, 5950, -5743, 17536, 6799, -4390, 6695, -14960, -10004, -1780, -355, -8284, 10470, -4004, -5025, -2375, -10990, 12764, 10381, -5583, 1982, 28, 4459, 1495, -757, -16217, 998, 355, 333, -1972, -4033, 981, -5141, -5579, 4624, 6713, 3239, -8483, 7501, -1320, -6152]> : tensor<64xi32>} : () -> tensor<64x!quant.uniform<i32:f32, 3.0347643769346178E-4>>
    %84 = "tfl.conv_2d"(%81, %82, %83) {dilation_h_factor = 1 : i32, dilation_w_factor = 1 : i32, fused_activation_function = "NONE", padding = "SAME", stride_h = 1 : i32, stride_w = 1 : i32} : (tensor<1x14x14x384x!quant.uniform<u8:f32, 0.023528477177023888>>, tensor<64x1x1x384x!quant.uniform<u8<1:255>:f32, 0.012898261658847332:125>>, tensor<64x!quant.uniform<i32:f32, 3.0347643769346178E-4>>) -> tensor<1x14x14x64x!quant.uniform<u8:f32, 0.14715521037578583:123>>
    %85 = "tfl.add"(%84, %75) {fused_activation_function = "NONE"} : (tensor<1x14x14x64x!quant.uniform<u8:f32, 0.14715521037578583:123>>, tensor<1x14x14x64x!quant.uniform<u8:f32, 0.18911026418209076:122>>) -> tensor<1x14x14x64x!quant.uniform<u8:f32, 0.19968110322952271:124>>
    %86 = "tfl.pseudo_qconst"() {qtype = tensor<384x1x1x64x!quant.uniform<u8<1:255>:f32, 0.0013733493397012353:127>> : tensor<384x1x1x64xi8>} : () -> tensor<384x1x1x64x!quant.uniform<u8<1:255>:f32, 0.0013733493397012353:127>>
    %87 = "tfl.pseudo_qconst"() {qtype = tensor<384x!quant.uniform<i32:f32, 2.7423191932030022E-4>> : tensor<384xi32>} : () -> tensor<384x!quant.uniform<i32:f32, 2.7423191932030022E-4>>
    %88 = "tfl.conv_2d"(%85, %86, %87) {dilation_h_factor = 1 : i32, dilation_w_factor = 1 : i32, fused_activation_function = "NONE", padding = "SAME", stride_h = 1 : i32, stride_w = 1 : i32} : (tensor<1x14x14x64x!quant.uniform<u8:f32, 0.19968110322952271:124>>, tensor<384x1x1x64x!quant.uniform<u8<1:255>:f32, 0.0013733493397012353:127>>, tensor<384x!quant.uniform<i32:f32, 2.7423191932030022E-4>>) -> tensor<1x14x14x384x!quant.uniform<u8:f32, 0.023528477177023888>>
    %89 = "tfl.pseudo_qconst"() {qtype = tensor<1x3x3x384x!quant.uniform<u8<1:255>:f32, 0.040778879076242447:155>> : tensor<1x3x3x384xi8>} : () -> tensor<1x3x3x384x!quant.uniform<u8<1:255>:f32, 0.040778879076242447:155>>
    %90 = "tfl.pseudo_qconst"() {qtype = tensor<384x!quant.uniform<i32:f32, 9.5946493092924356E-4>> : tensor<384xi32>} : () -> tensor<384x!quant.uniform<i32:f32, 9.5946493092924356E-4>>
    %91 = "tfl.depthwise_conv_2d"(%88, %89, %90) {depth_multiplier = 1 : i32, dilation_h_factor = 1 : i32, dilation_w_factor = 1 : i32, fused_activation_function = "NONE", padding = "SAME", stride_h = 1 : i32, stride_w = 1 : i32} : (tensor<1x14x14x384x!quant.uniform<u8:f32, 0.023528477177023888>>, tensor<1x3x3x384x!quant.uniform<u8<1:255>:f32, 0.040778879076242447:155>>, tensor<384x!quant.uniform<i32:f32, 9.5946493092924356E-4>>) -> tensor<1x14x14x384x!quant.uniform<u8:f32, 0.023528477177023888>>
    %92 = "tfl.pseudo_qconst"() {qtype = tensor<64x1x1x384x!quant.uniform<u8<1:255>:f32, 0.019561484456062317:144>> : tensor<64x1x1x384xi8>} : () -> tensor<64x1x1x384x!quant.uniform<u8<1:255>:f32, 0.019561484456062317:144>>
    %93 = "tfl.pseudo_qconst"() {qtype = tensor<64x!quant.uniform<i32:f32, 4.602519329637289E-4>>, value = dense<[-624, -1612, -2349, 2364, 1150, -100, -4331, -732, -8941, -3219, -8123, 20106, 6668, -3324, -6107, -11495, -2999, -4395, 2795, 8163, -1852, -3821, -2472, 952, -1357, 4061, -9841, 2972, -1213, -2105, 9816, -11050, 647, 3, 4428, -8824, 338, -7759, 2753, -8536, -508, -1375, 2903, 2238, -1130, 437, -642, 5693, -1026, -2470, -10355, 1997, 2781, 6374, -192, 3287, -6327, -5433, -490, 2105, 1845, -5109, 129, 13736]> : tensor<64xi32>} : () -> tensor<64x!quant.uniform<i32:f32, 4.602519329637289E-4>>
    %94 = "tfl.conv_2d"(%91, %92, %93) {dilation_h_factor = 1 : i32, dilation_w_factor = 1 : i32, fused_activation_function = "NONE", padding = "SAME", stride_h = 1 : i32, stride_w = 1 : i32} : (tensor<1x14x14x384x!quant.uniform<u8:f32, 0.023528477177023888>>, tensor<64x1x1x384x!quant.uniform<u8<1:255>:f32, 0.019561484456062317:144>>, tensor<64x!quant.uniform<i32:f32, 4.602519329637289E-4>>) -> tensor<1x14x14x64x!quant.uniform<u8:f32, 0.15627601742744446:122>>
    %95 = "tfl.add"(%94, %85) {fused_activation_function = "NONE"} : (tensor<1x14x14x64x!quant.uniform<u8:f32, 0.15627601742744446:122>>, tensor<1x14x14x64x!quant.uniform<u8:f32, 0.19968110322952271:124>>) -> tensor<1x14x14x64x!quant.uniform<u8:f32, 0.22027325630187988:120>>
    %96 = "tfl.pseudo_qconst"() {qtype = tensor<384x1x1x64x!quant.uniform<u8<1:255>:f32, 0.0016282502328976989:131>> : tensor<384x1x1x64xi8>} : () -> tensor<384x1x1x64x!quant.uniform<u8<1:255>:f32, 0.0016282502328976989:131>>
    %97 = "tfl.pseudo_qconst"() {qtype = tensor<384x!quant.uniform<i32:f32, 3.586599777918309E-4>> : tensor<384xi32>} : () -> tensor<384x!quant.uniform<i32:f32, 3.586599777918309E-4>>
    %98 = "tfl.conv_2d"(%95, %96, %97) {dilation_h_factor = 1 : i32, dilation_w_factor = 1 : i32, fused_activation_function = "NONE", padding = "SAME", stride_h = 1 : i32, stride_w = 1 : i32} : (tensor<1x14x14x64x!quant.uniform<u8:f32, 0.22027325630187988:120>>, tensor<384x1x1x64x!quant.uniform<u8<1:255>:f32, 0.0016282502328976989:131>>, tensor<384x!quant.uniform<i32:f32, 3.586599777918309E-4>>) -> tensor<1x14x14x384x!quant.uniform<u8:f32, 0.023528477177023888>>
    %99 = "tfl.pseudo_qconst"() {qtype = tensor<1x3x3x384x!quant.uniform<u8<1:255>:f32, 0.031107846647500992:143>> : tensor<1x3x3x384xi8>} : () -> tensor<1x3x3x384x!quant.uniform<u8<1:255>:f32, 0.031107846647500992:143>>
    %100 = "tfl.pseudo_qconst"() {qtype = tensor<384x!quant.uniform<i32:f32, 7.3192024137824774E-4>> : tensor<384xi32>} : () -> tensor<384x!quant.uniform<i32:f32, 7.3192024137824774E-4>>
    %101 = "tfl.depthwise_conv_2d"(%98, %99, %100) {depth_multiplier = 1 : i32, dilation_h_factor = 1 : i32, dilation_w_factor = 1 : i32, fused_activation_function = "NONE", padding = "SAME", stride_h = 1 : i32, stride_w = 1 : i32} : (tensor<1x14x14x384x!quant.uniform<u8:f32, 0.023528477177023888>>, tensor<1x3x3x384x!quant.uniform<u8<1:255>:f32, 0.031107846647500992:143>>, tensor<384x!quant.uniform<i32:f32, 7.3192024137824774E-4>>) -> tensor<1x14x14x384x!quant.uniform<u8:f32, 0.023528477177023888>>
    %102 = "tfl.pseudo_qconst"() {qtype = tensor<96x1x1x384x!quant.uniform<u8<1:255>:f32, 0.0074363113380968571:129>> : tensor<96x1x1x384xi8>} : () -> tensor<96x1x1x384x!quant.uniform<u8<1:255>:f32, 0.0074363113380968571:129>>
    %103 = "tfl.pseudo_qconst"() {qtype = tensor<96x!quant.uniform<i32:f32, 1.749650837155059E-4>>, value = dense<[11049, -2127, 7285, 29069, 8859, -2657, 24503, -39881, 5309, -5590, -38338, -12485, 37493, 22282, 27419, 12602, 21387, 21951, -5652, 5726, -8695, -11072, 6891, -23933, 5747, -11924, -14180, -5950, 15158, 24338, 9370, -2400, -29223, 16179, 46814, 9709, -17125, 16236, -5969, 625, -12999, 6875, -2742, 12433, -9329, -26993, 16871, -23777, -17761, -5461, -17017, 11197, 36893, 12662, -28526, -5543, -20781, -14363, -11488, 5314, 15890, 12114, -20032, 35596, -16612, -42756, -33864, -15200, -6283, -18769, 50488, -32478, -23692, 35485, 61360, 42647, 3030, -11432, -3110, 17181, 2682, -40215, 8867, 13030, 22169, -9308, 3612, -47792, 15006, -15291, -7534, -24939, -1074, 2448, -13708, -18434]> : tensor<96xi32>} : () -> tensor<96x!quant.uniform<i32:f32, 1.749650837155059E-4>>
    %104 = "tfl.conv_2d"(%101, %102, %103) {dilation_h_factor = 1 : i32, dilation_w_factor = 1 : i32, fused_activation_function = "NONE", padding = "SAME", stride_h = 1 : i32, stride_w = 1 : i32} : (tensor<1x14x14x384x!quant.uniform<u8:f32, 0.023528477177023888>>, tensor<96x1x1x384x!quant.uniform<u8<1:255>:f32, 0.0074363113380968571:129>>, tensor<96x!quant.uniform<i32:f32, 1.749650837155059E-4>>) -> tensor<1x14x14x96x!quant.uniform<u8:f32, 0.17061053216457367:129>>
    %105 = "tfl.pseudo_qconst"() {qtype = tensor<576x1x1x96x!quant.uniform<u8<1:255>:f32, 0.0016309921629726887:134>> : tensor<576x1x1x96xi8>} : () -> tensor<576x1x1x96x!quant.uniform<u8<1:255>:f32, 0.0016309921629726887:134>>
    %106 = "tfl.pseudo_qconst"() {qtype = tensor<576x!quant.uniform<i32:f32, 2.7826442965306342E-4>> : tensor<576xi32>} : () -> tensor<576x!quant.uniform<i32:f32, 2.7826442965306342E-4>>
    %107 = "tfl.conv_2d"(%104, %105, %106) {dilation_h_factor = 1 : i32, dilation_w_factor = 1 : i32, fused_activation_function = "NONE", padding = "SAME", stride_h = 1 : i32, stride_w = 1 : i32} : (tensor<1x14x14x96x!quant.uniform<u8:f32, 0.17061053216457367:129>>, tensor<576x1x1x96x!quant.uniform<u8<1:255>:f32, 0.0016309921629726887:134>>, tensor<576x!quant.uniform<i32:f32, 2.7826442965306342E-4>>) -> tensor<1x14x14x576x!quant.uniform<u8:f32, 0.023528477177023888>>
    %108 = "tfl.pseudo_qconst"() {qtype = tensor<1x3x3x576x!quant.uniform<u8<1:255>:f32, 0.070808105170726776:66>> : tensor<1x3x3x576xi8>} : () -> tensor<1x3x3x576x!quant.uniform<u8<1:255>:f32, 0.070808105170726776:66>>
    %109 = "tfl.pseudo_qconst"() {qtype = tensor<576x!quant.uniform<i32:f32, 0.0016660067485645413>> : tensor<576xi32>} : () -> tensor<576x!quant.uniform<i32:f32, 0.0016660067485645413>>
    %110 = "tfl.depthwise_conv_2d"(%107, %108, %109) {depth_multiplier = 1 : i32, dilation_h_factor = 1 : i32, dilation_w_factor = 1 : i32, fused_activation_function = "NONE", padding = "SAME", stride_h = 1 : i32, stride_w = 1 : i32} : (tensor<1x14x14x576x!quant.uniform<u8:f32, 0.023528477177023888>>, tensor<1x3x3x576x!quant.uniform<u8<1:255>:f32, 0.070808105170726776:66>>, tensor<576x!quant.uniform<i32:f32, 0.0016660067485645413>>) -> tensor<1x14x14x576x!quant.uniform<u8:f32, 0.023528477177023888>>
    %111 = "tfl.pseudo_qconst"() {qtype = tensor<96x1x1x576x!quant.uniform<u8<1:255>:f32, 0.0083822328597307205:136>> : tensor<96x1x1x576xi8>} : () -> tensor<96x1x1x576x!quant.uniform<u8<1:255>:f32, 0.0083822328597307205:136>>
    %112 = "tfl.pseudo_qconst"() {qtype = tensor<96x!quant.uniform<i32:f32, 1.972211612155661E-4>>, value = dense<[5650, 4068, 2287, 8162, -21711, -11872, -22353, 25540, -5391, -2400, 22650, -30659, -8798, -2162, 9926, -15457, 21726, 1624, -9338, 22933, -5521, 31186, -19655, 24789, -916, 50589, -3737, 4509, 7315, 11853, 3763, -17660, -53231, 22376, 7659, 9019, -15869, 32120, -5858, 8270, -728, -6157, 6139, -19846, -17026, 1741, -1813, 23359, 817, 2328, 2228, 32650, 4491, 19579, 8794, -5225, 11902, -2919, 25155, 6395, 8371, 1369, -28264, 1613, -6317, 215, 5091, 1134, -1029, -3878, 9932, 4291, 24070, -4132, 14444, -11904, 13680, 12651, -6009, -2117, -20261, -12235, -6037, 7685, 6738, -15460, 28180, 247, -4298, 4034, -3142, 5122, 12992, 9307, 13823, -7539]> : tensor<96xi32>} : () -> tensor<96x!quant.uniform<i32:f32, 1.972211612155661E-4>>
    %113 = "tfl.conv_2d"(%110, %111, %112) {dilation_h_factor = 1 : i32, dilation_w_factor = 1 : i32, fused_activation_function = "NONE", padding = "SAME", stride_h = 1 : i32, stride_w = 1 : i32} : (tensor<1x14x14x576x!quant.uniform<u8:f32, 0.023528477177023888>>, tensor<96x1x1x576x!quant.uniform<u8<1:255>:f32, 0.0083822328597307205:136>>, tensor<96x!quant.uniform<i32:f32, 1.972211612155661E-4>>) -> tensor<1x14x14x96x!quant.uniform<u8:f32, 0.12332822382450104:127>>
    %114 = "tfl.add"(%113, %104) {fused_activation_function = "NONE"} : (tensor<1x14x14x96x!quant.uniform<u8:f32, 0.12332822382450104:127>>, tensor<1x14x14x96x!quant.uniform<u8:f32, 0.17061053216457367:129>>) -> tensor<1x14x14x96x!quant.uniform<u8:f32, 0.17615799605846405:127>>
    %115 = "tfl.pseudo_qconst"() {qtype = tensor<576x1x1x96x!quant.uniform<u8<1:255>:f32, 0.0018258779309689999:138>> : tensor<576x1x1x96xi8>} : () -> tensor<576x1x1x96x!quant.uniform<u8<1:255>:f32, 0.0018258779309689999:138>>
    %116 = "tfl.pseudo_qconst"() {qtype = tensor<576x!quant.uniform<i32:f32, 3.216430195607245E-4>> : tensor<576xi32>} : () -> tensor<576x!quant.uniform<i32:f32, 3.216430195607245E-4>>
    %117 = "tfl.conv_2d"(%114, %115, %116) {dilation_h_factor = 1 : i32, dilation_w_factor = 1 : i32, fused_activation_function = "NONE", padding = "SAME", stride_h = 1 : i32, stride_w = 1 : i32} : (tensor<1x14x14x96x!quant.uniform<u8:f32, 0.17615799605846405:127>>, tensor<576x1x1x96x!quant.uniform<u8<1:255>:f32, 0.0018258779309689999:138>>, tensor<576x!quant.uniform<i32:f32, 3.216430195607245E-4>>) -> tensor<1x14x14x576x!quant.uniform<u8:f32, 0.023528477177023888>>
    %118 = "tfl.pseudo_qconst"() {qtype = tensor<1x3x3x576x!quant.uniform<u8<1:255>:f32, 0.074487939476966858:159>> : tensor<1x3x3x576xi8>} : () -> tensor<1x3x3x576x!quant.uniform<u8<1:255>:f32, 0.074487939476966858:159>>
    %119 = "tfl.pseudo_qconst"() {qtype = tensor<576x!quant.uniform<i32:f32, 0.0017525876173749566>> : tensor<576xi32>} : () -> tensor<576x!quant.uniform<i32:f32, 0.0017525876173749566>>
    %120 = "tfl.depthwise_conv_2d"(%117, %118, %119) {depth_multiplier = 1 : i32, dilation_h_factor = 1 : i32, dilation_w_factor = 1 : i32, fused_activation_function = "NONE", padding = "SAME", stride_h = 1 : i32, stride_w = 1 : i32} : (tensor<1x14x14x576x!quant.uniform<u8:f32, 0.023528477177023888>>, tensor<1x3x3x576x!quant.uniform<u8<1:255>:f32, 0.074487939476966858:159>>, tensor<576x!quant.uniform<i32:f32, 0.0017525876173749566>>) -> tensor<1x14x14x576x!quant.uniform<u8:f32, 0.023528477177023888>>
    %121 = "tfl.pseudo_qconst"() {qtype = tensor<96x1x1x576x!quant.uniform<u8<1:255>:f32, 0.023982593789696693:154>> : tensor<96x1x1x576xi8>} : () -> tensor<96x1x1x576x!quant.uniform<u8<1:255>:f32, 0.023982593789696693:154>>
    %122 = "tfl.pseudo_qconst"() {qtype = tensor<96x!quant.uniform<i32:f32, 5.6427391245961189E-4>>, value = dense<[-12029, -6786, 3021, 983, -5975, 3185, 20613, 2258, -3065, 6985, -11773, 3689, -6437, 3393, -9371, 13030, -10801, -4999, -1626, 1794, -2065, -438, 876, 2214, -1005, 19655, 13270, 934, -3633, -18893, 9189, 10496, 2707, 11006, 15870, -9328, 1581, 2930, -12178, 6793, -6394, 3418, 11059, -5392, -9501, -1876, 399, -7223, 2157, -10868, 4811, 25315, 11690, -7231, 2339, -1241, -14695, -472, -4743, 1496, -3452, -1508, 14280, -5047, 2645, 2261, 6334, -1311, -3121, -3305, 7832, -10571, -12294, 7523, -2268, -4200, 11253, -11370, 1632, -2984, -7334, -3030, 7248, 10617, -8662, -1925, 6585, -2252, -12997, 1622, 7648, 112, -4499, 9400, -14477, 3962]> : tensor<96xi32>} : () -> tensor<96x!quant.uniform<i32:f32, 5.6427391245961189E-4>>
    %123 = "tfl.conv_2d"(%120, %121, %122) {dilation_h_factor = 1 : i32, dilation_w_factor = 1 : i32, fused_activation_function = "NONE", padding = "SAME", stride_h = 1 : i32, stride_w = 1 : i32} : (tensor<1x14x14x576x!quant.uniform<u8:f32, 0.023528477177023888>>, tensor<96x1x1x576x!quant.uniform<u8<1:255>:f32, 0.023982593789696693:154>>, tensor<96x!quant.uniform<i32:f32, 5.6427391245961189E-4>>) -> tensor<1x14x14x96x!quant.uniform<u8:f32, 0.18619607388973236:127>>
    %124 = "tfl.add"(%123, %114) {fused_activation_function = "NONE"} : (tensor<1x14x14x96x!quant.uniform<u8:f32, 0.18619607388973236:127>>, tensor<1x14x14x96x!quant.uniform<u8:f32, 0.17615799605846405:127>>) -> tensor<1x14x14x96x!quant.uniform<u8:f32, 0.23340091109275818:126>>
    %125 = "tfl.pseudo_qconst"() {qtype = tensor<576x1x1x96x!quant.uniform<u8<1:255>:f32, 0.0013828007504343987:123>> : tensor<576x1x1x96xi8>} : () -> tensor<576x1x1x96x!quant.uniform<u8<1:255>:f32, 0.0013828007504343987:123>>
    %126 = "tfl.pseudo_qconst"() {qtype = tensor<576x!quant.uniform<i32:f32, 3.2274695695377886E-4>> : tensor<576xi32>} : () -> tensor<576x!quant.uniform<i32:f32, 3.2274695695377886E-4>>
    %127 = "tfl.conv_2d"(%124, %125, %126) {dilation_h_factor = 1 : i32, dilation_w_factor = 1 : i32, fused_activation_function = "NONE", padding = "SAME", stride_h = 1 : i32, stride_w = 1 : i32} : (tensor<1x14x14x96x!quant.uniform<u8:f32, 0.23340091109275818:126>>, tensor<576x1x1x96x!quant.uniform<u8<1:255>:f32, 0.0013828007504343987:123>>, tensor<576x!quant.uniform<i32:f32, 3.2274695695377886E-4>>) -> tensor<1x14x14x576x!quant.uniform<u8:f32, 0.023528477177023888>>
    %128 = "tfl.pseudo_qconst"() {qtype = tensor<1x3x3x576x!quant.uniform<u8<1:255>:f32, 0.015257931314408779:92>> : tensor<1x3x3x576xi8>} : () -> tensor<1x3x3x576x!quant.uniform<u8<1:255>:f32, 0.015257931314408779:92>>
    %129 = "tfl.pseudo_qconst"() {qtype = tensor<576x!quant.uniform<i32:f32, 3.5899589420296252E-4>> : tensor<576xi32>} : () -> tensor<576x!quant.uniform<i32:f32, 3.5899589420296252E-4>>
    %130 = "tfl.depthwise_conv_2d"(%127, %128, %129) {depth_multiplier = 1 : i32, dilation_h_factor = 1 : i32, dilation_w_factor = 1 : i32, fused_activation_function = "NONE", padding = "SAME", stride_h = 2 : i32, stride_w = 2 : i32} : (tensor<1x14x14x576x!quant.uniform<u8:f32, 0.023528477177023888>>, tensor<1x3x3x576x!quant.uniform<u8<1:255>:f32, 0.015257931314408779:92>>, tensor<576x!quant.uniform<i32:f32, 3.5899589420296252E-4>>) -> tensor<1x7x7x576x!quant.uniform<u8:f32, 0.023528477177023888>>
    %131 = "tfl.pseudo_qconst"() {qtype = tensor<160x1x1x576x!quant.uniform<u8<1:255>:f32, 0.009447949007153511:140>> : tensor<160x1x1x576xi8>} : () -> tensor<160x1x1x576x!quant.uniform<u8<1:255>:f32, 0.009447949007153511:140>>
    %132 = "tfl.pseudo_qconst"() {qtype = tensor<160x!quant.uniform<i32:f32, 2.2229585738386959E-4>> : tensor<160xi32>} : () -> tensor<160x!quant.uniform<i32:f32, 2.2229585738386959E-4>>
    %133 = "tfl.conv_2d"(%130, %131, %132) {dilation_h_factor = 1 : i32, dilation_w_factor = 1 : i32, fused_activation_function = "NONE", padding = "SAME", stride_h = 1 : i32, stride_w = 1 : i32} : (tensor<1x7x7x576x!quant.uniform<u8:f32, 0.023528477177023888>>, tensor<160x1x1x576x!quant.uniform<u8<1:255>:f32, 0.009447949007153511:140>>, tensor<160x!quant.uniform<i32:f32, 2.2229585738386959E-4>>) -> tensor<1x7x7x160x!quant.uniform<u8:f32, 0.13237787783145905:132>>
    %134 = "tfl.pseudo_qconst"() {qtype = tensor<960x1x1x160x!quant.uniform<u8<1:255>:f32, 0.0020222084131091833:135>> : tensor<960x1x1x160xi8>} : () -> tensor<960x1x1x160x!quant.uniform<u8<1:255>:f32, 0.0020222084131091833:135>>
    %135 = "tfl.pseudo_qconst"() {qtype = tensor<960x!quant.uniform<i32:f32, 2.6769566466100514E-4>> : tensor<960xi32>} : () -> tensor<960x!quant.uniform<i32:f32, 2.6769566466100514E-4>>
    %136 = "tfl.conv_2d"(%133, %134, %135) {dilation_h_factor = 1 : i32, dilation_w_factor = 1 : i32, fused_activation_function = "NONE", padding = "SAME", stride_h = 1 : i32, stride_w = 1 : i32} : (tensor<1x7x7x160x!quant.uniform<u8:f32, 0.13237787783145905:132>>, tensor<960x1x1x160x!quant.uniform<u8<1:255>:f32, 0.0020222084131091833:135>>, tensor<960x!quant.uniform<i32:f32, 2.6769566466100514E-4>>) -> tensor<1x7x7x960x!quant.uniform<u8:f32, 0.023528477177023888>>
    %137 = "tfl.pseudo_qconst"() {qtype = tensor<1x3x3x960x!quant.uniform<u8<1:255>:f32, 0.041667520999908447:147>> : tensor<1x3x3x960xi8>} : () -> tensor<1x3x3x960x!quant.uniform<u8<1:255>:f32, 0.041667520999908447:147>>
    %138 = "tfl.pseudo_qconst"() {qtype = tensor<960x!quant.uniform<i32:f32, 9.8037323914468288E-4>> : tensor<960xi32>} : () -> tensor<960x!quant.uniform<i32:f32, 9.8037323914468288E-4>>
    %139 = "tfl.depthwise_conv_2d"(%136, %137, %138) {depth_multiplier = 1 : i32, dilation_h_factor = 1 : i32, dilation_w_factor = 1 : i32, fused_activation_function = "NONE", padding = "SAME", stride_h = 1 : i32, stride_w = 1 : i32} : (tensor<1x7x7x960x!quant.uniform<u8:f32, 0.023528477177023888>>, tensor<1x3x3x960x!quant.uniform<u8<1:255>:f32, 0.041667520999908447:147>>, tensor<960x!quant.uniform<i32:f32, 9.8037323914468288E-4>>) -> tensor<1x7x7x960x!quant.uniform<u8:f32, 0.023528477177023888>>
    %140 = "tfl.pseudo_qconst"() {qtype = tensor<160x1x1x960x!quant.uniform<u8<1:255>:f32, 0.0078987013548612595:139>> : tensor<160x1x1x960xi8>} : () -> tensor<160x1x1x960x!quant.uniform<u8<1:255>:f32, 0.0078987013548612595:139>>
    %141 = "tfl.pseudo_qconst"() {qtype = tensor<160x!quant.uniform<i32:f32, 1.8584441568236798E-4>> : tensor<160xi32>} : () -> tensor<160x!quant.uniform<i32:f32, 1.8584441568236798E-4>>
    %142 = "tfl.conv_2d"(%139, %140, %141) {dilation_h_factor = 1 : i32, dilation_w_factor = 1 : i32, fused_activation_function = "NONE", padding = "SAME", stride_h = 1 : i32, stride_w = 1 : i32} : (tensor<1x7x7x960x!quant.uniform<u8:f32, 0.023528477177023888>>, tensor<160x1x1x960x!quant.uniform<u8<1:255>:f32, 0.0078987013548612595:139>>, tensor<160x!quant.uniform<i32:f32, 1.8584441568236798E-4>>) -> tensor<1x7x7x160x!quant.uniform<u8:f32, 0.10045691579580307:129>>
    %143 = "tfl.add"(%142, %133) {fused_activation_function = "NONE"} : (tensor<1x7x7x160x!quant.uniform<u8:f32, 0.10045691579580307:129>>, tensor<1x7x7x160x!quant.uniform<u8:f32, 0.13237787783145905:132>>) -> tensor<1x7x7x160x!quant.uniform<u8:f32, 0.15070965886116028:134>>
    %144 = "tfl.pseudo_qconst"() {qtype = tensor<960x1x1x160x!quant.uniform<u8<1:255>:f32, 0.0015944414772093296:127>> : tensor<960x1x1x160xi8>} : () -> tensor<960x1x1x160x!quant.uniform<u8<1:255>:f32, 0.0015944414772093296:127>>
    %145 = "tfl.pseudo_qconst"() {qtype = tensor<960x!quant.uniform<i32:f32, 2.4029774067457765E-4>> : tensor<960xi32>} : () -> tensor<960x!quant.uniform<i32:f32, 2.4029774067457765E-4>>
    %146 = "tfl.conv_2d"(%143, %144, %145) {dilation_h_factor = 1 : i32, dilation_w_factor = 1 : i32, fused_activation_function = "NONE", padding = "SAME", stride_h = 1 : i32, stride_w = 1 : i32} : (tensor<1x7x7x160x!quant.uniform<u8:f32, 0.15070965886116028:134>>, tensor<960x1x1x160x!quant.uniform<u8<1:255>:f32, 0.0015944414772093296:127>>, tensor<960x!quant.uniform<i32:f32, 2.4029774067457765E-4>>) -> tensor<1x7x7x960x!quant.uniform<u8:f32, 0.023528477177023888>>
    %147 = "tfl.pseudo_qconst"() {qtype = tensor<1x3x3x960x!quant.uniform<u8<1:255>:f32, 0.042819350957870483:102>> : tensor<1x3x3x960xi8>} : () -> tensor<1x3x3x960x!quant.uniform<u8<1:255>:f32, 0.042819350957870483:102>>
    %148 = "tfl.pseudo_qconst"() {qtype = tensor<960x!quant.uniform<i32:f32, 0.0010074740275740623>> : tensor<960xi32>} : () -> tensor<960x!quant.uniform<i32:f32, 0.0010074740275740623>>
    %149 = "tfl.depthwise_conv_2d"(%146, %147, %148) {depth_multiplier = 1 : i32, dilation_h_factor = 1 : i32, dilation_w_factor = 1 : i32, fused_activation_function = "NONE", padding = "SAME", stride_h = 1 : i32, stride_w = 1 : i32} : (tensor<1x7x7x960x!quant.uniform<u8:f32, 0.023528477177023888>>, tensor<1x3x3x960x!quant.uniform<u8<1:255>:f32, 0.042819350957870483:102>>, tensor<960x!quant.uniform<i32:f32, 0.0010074740275740623>>) -> tensor<1x7x7x960x!quant.uniform<u8:f32, 0.023528477177023888>>
    %150 = "tfl.pseudo_qconst"() {qtype = tensor<160x1x1x960x!quant.uniform<u8<1:255>:f32, 0.036974102258682251:131>> : tensor<160x1x1x960xi8>} : () -> tensor<160x1x1x960x!quant.uniform<u8<1:255>:f32, 0.036974102258682251:131>>
    %151 = "tfl.pseudo_qconst"() {qtype = tensor<160x!quant.uniform<i32:f32, 8.6994434241205454E-4>> : tensor<160xi32>} : () -> tensor<160x!quant.uniform<i32:f32, 8.6994434241205454E-4>>
    %152 = "tfl.conv_2d"(%149, %150, %151) {dilation_h_factor = 1 : i32, dilation_w_factor = 1 : i32, fused_activation_function = "NONE", padding = "SAME", stride_h = 1 : i32, stride_w = 1 : i32} : (tensor<1x7x7x960x!quant.uniform<u8:f32, 0.023528477177023888>>, tensor<160x1x1x960x!quant.uniform<u8<1:255>:f32, 0.036974102258682251:131>>, tensor<160x!quant.uniform<i32:f32, 8.6994434241205454E-4>>) -> tensor<1x7x7x160x!quant.uniform<u8:f32, 0.16960607469081879:133>>
    %153 = "tfl.add"(%152, %143) {fused_activation_function = "NONE"} : (tensor<1x7x7x160x!quant.uniform<u8:f32, 0.16960607469081879:133>>, tensor<1x7x7x160x!quant.uniform<u8:f32, 0.15070965886116028:134>>) -> tensor<1x7x7x160x!quant.uniform<u8:f32, 0.21005140244960785:131>>
    %154 = "tfl.pseudo_qconst"() {qtype = tensor<960x1x1x160x!quant.uniform<u8<1:255>:f32, 0.0020468255970627069:135>> : tensor<960x1x1x160xi8>} : () -> tensor<960x1x1x160x!quant.uniform<u8<1:255>:f32, 0.0020468255970627069:135>>
    %155 = "tfl.pseudo_qconst"() {qtype = tensor<960x!quant.uniform<i32:f32, 4.2993857641704381E-4>> : tensor<960xi32>} : () -> tensor<960x!quant.uniform<i32:f32, 4.2993857641704381E-4>>
    %156 = "tfl.conv_2d"(%153, %154, %155) {dilation_h_factor = 1 : i32, dilation_w_factor = 1 : i32, fused_activation_function = "NONE", padding = "SAME", stride_h = 1 : i32, stride_w = 1 : i32} : (tensor<1x7x7x160x!quant.uniform<u8:f32, 0.21005140244960785:131>>, tensor<960x1x1x160x!quant.uniform<u8<1:255>:f32, 0.0020468255970627069:135>>, tensor<960x!quant.uniform<i32:f32, 4.2993857641704381E-4>>) -> tensor<1x7x7x960x!quant.uniform<u8:f32, 0.023528477177023888>>
    %157 = "tfl.pseudo_qconst"() {qtype = tensor<1x3x3x960x!quant.uniform<u8<1:255>:f32, 0.16456253826618195:201>> : tensor<1x3x3x960xi8>} : () -> tensor<1x3x3x960x!quant.uniform<u8<1:255>:f32, 0.16456253826618195:201>>
    %158 = "tfl.pseudo_qconst"() {qtype = tensor<960x!quant.uniform<i32:f32, 0.0038719058502465487>> : tensor<960xi32>} : () -> tensor<960x!quant.uniform<i32:f32, 0.0038719058502465487>>
    %159 = "tfl.depthwise_conv_2d"(%156, %157, %158) {depth_multiplier = 1 : i32, dilation_h_factor = 1 : i32, dilation_w_factor = 1 : i32, fused_activation_function = "NONE", padding = "SAME", stride_h = 1 : i32, stride_w = 1 : i32} : (tensor<1x7x7x960x!quant.uniform<u8:f32, 0.023528477177023888>>, tensor<1x3x3x960x!quant.uniform<u8<1:255>:f32, 0.16456253826618195:201>>, tensor<960x!quant.uniform<i32:f32, 0.0038719058502465487>>) -> tensor<1x7x7x960x!quant.uniform<u8:f32, 0.023528477177023888>>
    %160 = "tfl.pseudo_qconst"() {qtype = tensor<320x1x1x960x!quant.uniform<u8<1:255>:f32, 0.0080092893913388252:111>> : tensor<320x1x1x960xi8>} : () -> tensor<320x1x1x960x!quant.uniform<u8<1:255>:f32, 0.0080092893913388252:111>>
    %161 = "tfl.pseudo_qconst"() {qtype = tensor<320x!quant.uniform<i32:f32, 1.8844637088477612E-4>> : tensor<320xi32>} : () -> tensor<320x!quant.uniform<i32:f32, 1.8844637088477612E-4>>
    %162 = "tfl.conv_2d"(%159, %160, %161) {dilation_h_factor = 1 : i32, dilation_w_factor = 1 : i32, fused_activation_function = "NONE", padding = "SAME", stride_h = 1 : i32, stride_w = 1 : i32} : (tensor<1x7x7x960x!quant.uniform<u8:f32, 0.023528477177023888>>, tensor<320x1x1x960x!quant.uniform<u8<1:255>:f32, 0.0080092893913388252:111>>, tensor<320x!quant.uniform<i32:f32, 1.8844637088477612E-4>>) -> tensor<1x7x7x320x!quant.uniform<u8:f32, 0.11694499105215073:130>>
    %163 = "tfl.pseudo_qconst"() {qtype = tensor<1280x1x1x320x!quant.uniform<u8<1:255>:f32, 0.0051670675165951252:125>> : tensor<1280x1x1x320xi8>} : () -> tensor<1280x1x1x320x!quant.uniform<u8<1:255>:f32, 0.0051670675165951252:125>>
    %164 = "tfl.pseudo_qconst"() {qtype = tensor<1280x!quant.uniform<i32:f32, 6.0426269192248583E-4>> : tensor<1280xi32>} : () -> tensor<1280x!quant.uniform<i32:f32, 6.0426269192248583E-4>>
    %165 = "tfl.conv_2d"(%162, %163, %164) {dilation_h_factor = 1 : i32, dilation_w_factor = 1 : i32, fused_activation_function = "NONE", padding = "SAME", stride_h = 1 : i32, stride_w = 1 : i32} : (tensor<1x7x7x320x!quant.uniform<u8:f32, 0.11694499105215073:130>>, tensor<1280x1x1x320x!quant.uniform<u8<1:255>:f32, 0.0051670675165951252:125>>, tensor<1280x!quant.uniform<i32:f32, 6.0426269192248583E-4>>) -> tensor<1x7x7x1280x!quant.uniform<u8:f32, 0.023528477177023888>>
    %166 = "tfl.average_pool_2d"(%165) {filter_height = 7 : i32, filter_width = 7 : i32, fused_activation_function = "NONE", padding = "VALID", stride_h = 1 : i32, stride_w = 1 : i32} : (tensor<1x7x7x1280x!quant.uniform<u8:f32, 0.023528477177023888>>) -> tensor<1x1x1x1280x!quant.uniform<u8:f32, 0.023528477177023888>>
    %167 = "tfl.pseudo_qconst"() {qtype = tensor<1001x1x1x1280x!quant.uniform<u8<1:255>:f32, 0.0016910821432247758:113>> : tensor<1001x1x1x1280xi8>} : () -> tensor<1001x1x1x1280x!quant.uniform<u8<1:255>:f32, 0.0016910821432247758:113>>
    %168 = "tfl.pseudo_qconst"() {qtype = tensor<1001x!quant.uniform<i32:f32, 3.9788588765077293E-5>> : tensor<1001xi32>} : () -> tensor<1001x!quant.uniform<i32:f32, 3.9788588765077293E-5>>
    %169 = "tfl.conv_2d"(%166, %167, %168) {dilation_h_factor = 1 : i32, dilation_w_factor = 1 : i32, fused_activation_function = "NONE", padding = "SAME", stride_h = 1 : i32, stride_w = 1 : i32} : (tensor<1x1x1x1280x!quant.uniform<u8:f32, 0.023528477177023888>>, tensor<1001x1x1x1280x!quant.uniform<u8<1:255>:f32, 0.0016910821432247758:113>>, tensor<1001x!quant.uniform<i32:f32, 3.9788588765077293E-5>>) -> tensor<1x1x1x1001x!quant.uniform<u8:f32, 0.098892539739608765:58>>
    %170 = "tfl.pseudo_const"() {value = dense<[1, 1001]> : tensor<2xi32>} : () -> tensor<2xi32>
    %171 = "tfl.reshape"(%169, %170) : (tensor<1x1x1x1001x!quant.uniform<u8:f32, 0.098892539739608765:58>>, tensor<2xi32>) -> tensor<1x1001x!quant.uniform<u8:f32, 0.098892539739608765:58>>
    return %171 : tensor<1x1001x!quant.uniform<u8:f32, 0.098892539739608765:58>>
  }
}
