

module attributes {tfl.description = "TOCO Converted.", tfl.schema_version = 3 : i32} {
  func @main(%arg0: tensor<1x224x224x3xf32>) -> tensor<1x1001xf32> attributes {tf.entry_function = {inputs = "input", outputs = "MobilenetV2/Predictions/Reshape_1"}} {
    %0 = "quant.stats"(%arg0) {layerStats = dense<[0.000000e+00, 2.550000e+02]> : tensor<2xf32>} : (tensor<1x224x224x3xf32>) -> tensor<1x224x224x3xf32>
    %1 = "tfl.pseudo_const"() {value = dense<"hex_value_removed_for_legibility_this_model_will_not_run_correctly_without_it"> : tensor<32x3x3x3xf32>} : () -> tensor<32x3x3x3xf32>
    %2 = "tfl.pseudo_const"() {value = dense<[… > : tensor<32xf32>} : () -> tensor<32xf32>
    %3 = "tfl.conv_2d"(%0, %1, %2) {dilation_h_factor = 1 : i32, dilation_w_factor = 1 : i32, fused_activation_function = "RELU6", padding = "SAME", stride_h = 2 : i32, stride_w = 2 : i32} : (tensor<1x224x224x3xf32>, tensor<32x3x3x3xf32>, tensor<32xf32>) -> tensor<1x112x112x32xf32>
    %4 = "tfl.pseudo_const"() {value = dense<"hex_value_removed_for_legibility_this_model_will_not_run_correctly_without_it"> : tensor<1x3x3x32xf32>} : () -> tensor<1x3x3x32xf32>
    %5 = "tfl.pseudo_const"() {value = dense<[… > : tensor<32xf32>} : () -> tensor<32xf32>
    %6 = "tfl.depthwise_conv_2d"(%3, %4, %5) {depth_multiplier = 1 : i32, dilation_h_factor = 1 : i32, dilation_w_factor = 1 : i32, fused_activation_function = "RELU6", padding = "SAME", stride_h = 1 : i32, stride_w = 1 : i32} : (tensor<1x112x112x32xf32>, tensor<1x3x3x32xf32>, tensor<32xf32>) -> tensor<1x112x112x32xf32>
    %7 = "tfl.pseudo_const"() {value = dense<"hex_value_removed_for_legibility_this_model_will_not_run_correctly_without_it"> : tensor<16x1x1x32xf32>} : () -> tensor<16x1x1x32xf32>
    %8 = "tfl.pseudo_const"() {value = dense<[… > : tensor<16xf32>} : () -> tensor<16xf32>
    %9 = "tfl.conv_2d"(%6, %7, %8) {dilation_h_factor = 1 : i32, dilation_w_factor = 1 : i32, fused_activation_function = "NONE", padding = "SAME", stride_h = 1 : i32, stride_w = 1 : i32} : (tensor<1x112x112x32xf32>, tensor<16x1x1x32xf32>, tensor<16xf32>) -> tensor<1x112x112x16xf32>
    %10 = "tfl.pseudo_const"() {value = dense<"hex_value_removed_for_legibility_this_model_will_not_run_correctly_without_it"> : tensor<96x1x1x16xf32>} : () -> tensor<96x1x1x16xf32>
    %11 = "tfl.pseudo_const"() {value = dense<[… > : tensor<96xf32>} : () -> tensor<96xf32>
    %12 = "tfl.conv_2d"(%9, %10, %11) {dilation_h_factor = 1 : i32, dilation_w_factor = 1 : i32, fused_activation_function = "RELU6", padding = "SAME", stride_h = 1 : i32, stride_w = 1 : i32} : (tensor<1x112x112x16xf32>, tensor<96x1x1x16xf32>, tensor<96xf32>) -> tensor<1x112x112x96xf32>
    %13 = "tfl.pseudo_const"() {value = dense<"hex_value_removed_for_legibility_this_model_will_not_run_correctly_without_it"> : tensor<1x3x3x96xf32>} : () -> tensor<1x3x3x96xf32>
    %14 = "tfl.pseudo_const"() {value = dense<[… > : tensor<96xf32>} : () -> tensor<96xf32>
    %15 = "tfl.depthwise_conv_2d"(%12, %13, %14) {depth_multiplier = 1 : i32, dilation_h_factor = 1 : i32, dilation_w_factor = 1 : i32, fused_activation_function = "RELU6", padding = "SAME", stride_h = 2 : i32, stride_w = 2 : i32} : (tensor<1x112x112x96xf32>, tensor<1x3x3x96xf32>, tensor<96xf32>) -> tensor<1x56x56x96xf32>
    %16 = "tfl.pseudo_const"() {value = dense<"hex_value_removed_for_legibility_this_model_will_not_run_correctly_without_it"> : tensor<24x1x1x96xf32>} : () -> tensor<24x1x1x96xf32>
    %17 = "tfl.pseudo_const"() {value = dense<[… > : tensor<24xf32>} : () -> tensor<24xf32>
    %18 = "tfl.conv_2d"(%15, %16, %17) {dilation_h_factor = 1 : i32, dilation_w_factor = 1 : i32, fused_activation_function = "NONE", padding = "SAME", stride_h = 1 : i32, stride_w = 1 : i32} : (tensor<1x56x56x96xf32>, tensor<24x1x1x96xf32>, tensor<24xf32>) -> tensor<1x56x56x24xf32>
    %19 = "tfl.pseudo_const"() {value = dense<"hex_value_removed_for_legibility_this_model_will_not_run_correctly_without_it"> : tensor<144x1x1x24xf32>} : () -> tensor<144x1x1x24xf32>
    %20 = "tfl.pseudo_const"() {value = dense<"hex_value_removed_for_legibility_this_model_will_not_run_correctly_without_it"> : tensor<144xf32>} : () -> tensor<144xf32>
    %21 = "tfl.conv_2d"(%18, %19, %20) {dilation_h_factor = 1 : i32, dilation_w_factor = 1 : i32, fused_activation_function = "RELU6", padding = "SAME", stride_h = 1 : i32, stride_w = 1 : i32} : (tensor<1x56x56x24xf32>, tensor<144x1x1x24xf32>, tensor<144xf32>) -> tensor<1x56x56x144xf32>
    %22 = "tfl.pseudo_const"() {value = dense<"hex_value_removed_for_legibility_this_model_will_not_run_correctly_without_it"> : tensor<1x3x3x144xf32>} : () -> tensor<1x3x3x144xf32>
    %23 = "tfl.pseudo_const"() {value = dense<"hex_value_removed_for_legibility_this_model_will_not_run_correctly_without_it"> : tensor<144xf32>} : () -> tensor<144xf32>
    %24 = "tfl.depthwise_conv_2d"(%21, %22, %23) {depth_multiplier = 1 : i32, dilation_h_factor = 1 : i32, dilation_w_factor = 1 : i32, fused_activation_function = "RELU6", padding = "SAME", stride_h = 1 : i32, stride_w = 1 : i32} : (tensor<1x56x56x144xf32>, tensor<1x3x3x144xf32>, tensor<144xf32>) -> tensor<1x56x56x144xf32>
    %25 = "tfl.pseudo_const"() {value = dense<"hex_value_removed_for_legibility_this_model_will_not_run_correctly_without_it"> : tensor<24x1x1x144xf32>} : () -> tensor<24x1x1x144xf32>
    %26 = "tfl.pseudo_const"() {value = dense<[… > : tensor<24xf32>} : () -> tensor<24xf32>
    %27 = "tfl.conv_2d"(%24, %25, %26) {dilation_h_factor = 1 : i32, dilation_w_factor = 1 : i32, fused_activation_function = "NONE", padding = "SAME", stride_h = 1 : i32, stride_w = 1 : i32} : (tensor<1x56x56x144xf32>, tensor<24x1x1x144xf32>, tensor<24xf32>) -> tensor<1x56x56x24xf32>
    %28 = tfl.add %27, %18 {fused_activation_function = "NONE"} : tensor<1x56x56x24xf32>
    %29 = "tfl.pseudo_const"() {value = dense<"hex_value_removed_for_legibility_this_model_will_not_run_correctly_without_it"> : tensor<144x1x1x24xf32>} : () -> tensor<144x1x1x24xf32>
    %30 = "tfl.pseudo_const"() {value = dense<"hex_value_removed_for_legibility_this_model_will_not_run_correctly_without_it"> : tensor<144xf32>} : () -> tensor<144xf32>
    %31 = "tfl.conv_2d"(%28, %29, %30) {dilation_h_factor = 1 : i32, dilation_w_factor = 1 : i32, fused_activation_function = "RELU6", padding = "SAME", stride_h = 1 : i32, stride_w = 1 : i32} : (tensor<1x56x56x24xf32>, tensor<144x1x1x24xf32>, tensor<144xf32>) -> tensor<1x56x56x144xf32>
    %32 = "tfl.pseudo_const"() {value = dense<"hex_value_removed_for_legibility_this_model_will_not_run_correctly_without_it"> : tensor<1x3x3x144xf32>} : () -> tensor<1x3x3x144xf32>
    %33 = "tfl.pseudo_const"() {value = dense<"hex_value_removed_for_legibility_this_model_will_not_run_correctly_without_it"> : tensor<144xf32>} : () -> tensor<144xf32>
    %34 = "tfl.depthwise_conv_2d"(%31, %32, %33) {depth_multiplier = 1 : i32, dilation_h_factor = 1 : i32, dilation_w_factor = 1 : i32, fused_activation_function = "RELU6", padding = "SAME", stride_h = 2 : i32, stride_w = 2 : i32} : (tensor<1x56x56x144xf32>, tensor<1x3x3x144xf32>, tensor<144xf32>) -> tensor<1x28x28x144xf32>
    %35 = "tfl.pseudo_const"() {value = dense<"hex_value_removed_for_legibility_this_model_will_not_run_correctly_without_it"> : tensor<32x1x1x144xf32>} : () -> tensor<32x1x1x144xf32>
    %36 = "tfl.pseudo_const"() {value = dense<[… > : tensor<32xf32>} : () -> tensor<32xf32>
    %37 = "tfl.conv_2d"(%34, %35, %36) {dilation_h_factor = 1 : i32, dilation_w_factor = 1 : i32, fused_activation_function = "NONE", padding = "SAME", stride_h = 1 : i32, stride_w = 1 : i32} : (tensor<1x28x28x144xf32>, tensor<32x1x1x144xf32>, tensor<32xf32>) -> tensor<1x28x28x32xf32>
    %38 = "tfl.pseudo_const"() {value = dense<"hex_value_removed_for_legibility_this_model_will_not_run_correctly_without_it"> : tensor<192x1x1x32xf32>} : () -> tensor<192x1x1x32xf32>
    %39 = "tfl.pseudo_const"() {value = dense<"hex_value_removed_for_legibility_this_model_will_not_run_correctly_without_it"> : tensor<192xf32>} : () -> tensor<192xf32>
    %40 = "tfl.conv_2d"(%37, %38, %39) {dilation_h_factor = 1 : i32, dilation_w_factor = 1 : i32, fused_activation_function = "RELU6", padding = "SAME", stride_h = 1 : i32, stride_w = 1 : i32} : (tensor<1x28x28x32xf32>, tensor<192x1x1x32xf32>, tensor<192xf32>) -> tensor<1x28x28x192xf32>
    %41 = "tfl.pseudo_const"() {value = dense<"hex_value_removed_for_legibility_this_model_will_not_run_correctly_without_it"> : tensor<1x3x3x192xf32>} : () -> tensor<1x3x3x192xf32>
    %42 = "tfl.pseudo_const"() {value = dense<"hex_value_removed_for_legibility_this_model_will_not_run_correctly_without_it"> : tensor<192xf32>} : () -> tensor<192xf32>
    %43 = "tfl.depthwise_conv_2d"(%40, %41, %42) {depth_multiplier = 1 : i32, dilation_h_factor = 1 : i32, dilation_w_factor = 1 : i32, fused_activation_function = "RELU6", padding = "SAME", stride_h = 1 : i32, stride_w = 1 : i32} : (tensor<1x28x28x192xf32>, tensor<1x3x3x192xf32>, tensor<192xf32>) -> tensor<1x28x28x192xf32>
    %44 = "tfl.pseudo_const"() {value = dense<"hex_value_removed_for_legibility_this_model_will_not_run_correctly_without_it"> : tensor<32x1x1x192xf32>} : () -> tensor<32x1x1x192xf32>
    %45 = "tfl.pseudo_const"() {value = dense<[… > : tensor<32xf32>} : () -> tensor<32xf32>
    %46 = "tfl.conv_2d"(%43, %44, %45) {dilation_h_factor = 1 : i32, dilation_w_factor = 1 : i32, fused_activation_function = "NONE", padding = "SAME", stride_h = 1 : i32, stride_w = 1 : i32} : (tensor<1x28x28x192xf32>, tensor<32x1x1x192xf32>, tensor<32xf32>) -> tensor<1x28x28x32xf32>
    %47 = tfl.add %46, %37 {fused_activation_function = "NONE"} : tensor<1x28x28x32xf32>
    %48 = "tfl.pseudo_const"() {value = dense<"hex_value_removed_for_legibility_this_model_will_not_run_correctly_without_it"> : tensor<192x1x1x32xf32>} : () -> tensor<192x1x1x32xf32>
    %49 = "tfl.pseudo_const"() {value = dense<"hex_value_removed_for_legibility_this_model_will_not_run_correctly_without_it"> : tensor<192xf32>} : () -> tensor<192xf32>
    %50 = "tfl.conv_2d"(%47, %48, %49) {dilation_h_factor = 1 : i32, dilation_w_factor = 1 : i32, fused_activation_function = "RELU6", padding = "SAME", stride_h = 1 : i32, stride_w = 1 : i32} : (tensor<1x28x28x32xf32>, tensor<192x1x1x32xf32>, tensor<192xf32>) -> tensor<1x28x28x192xf32>
    %51 = "tfl.pseudo_const"() {value = dense<"hex_value_removed_for_legibility_this_model_will_not_run_correctly_without_it"> : tensor<1x3x3x192xf32>} : () -> tensor<1x3x3x192xf32>
    %52 = "tfl.pseudo_const"() {value = dense<"hex_value_removed_for_legibility_this_model_will_not_run_correctly_without_it"> : tensor<192xf32>} : () -> tensor<192xf32>
    %53 = "tfl.depthwise_conv_2d"(%50, %51, %52) {depth_multiplier = 1 : i32, dilation_h_factor = 1 : i32, dilation_w_factor = 1 : i32, fused_activation_function = "RELU6", padding = "SAME", stride_h = 1 : i32, stride_w = 1 : i32} : (tensor<1x28x28x192xf32>, tensor<1x3x3x192xf32>, tensor<192xf32>) -> tensor<1x28x28x192xf32>
    %54 = "tfl.pseudo_const"() {value = dense<"hex_value_removed_for_legibility_this_model_will_not_run_correctly_without_it"> : tensor<32x1x1x192xf32>} : () -> tensor<32x1x1x192xf32>
    %55 = "tfl.pseudo_const"() {value = dense<[… > : tensor<32xf32>} : () -> tensor<32xf32>
    %56 = "tfl.conv_2d"(%53, %54, %55) {dilation_h_factor = 1 : i32, dilation_w_factor = 1 : i32, fused_activation_function = "NONE", padding = "SAME", stride_h = 1 : i32, stride_w = 1 : i32} : (tensor<1x28x28x192xf32>, tensor<32x1x1x192xf32>, tensor<32xf32>) -> tensor<1x28x28x32xf32>
    %57 = tfl.add %56, %47 {fused_activation_function = "NONE"} : tensor<1x28x28x32xf32>
    %58 = "tfl.pseudo_const"() {value = dense<"hex_value_removed_for_legibility_this_model_will_not_run_correctly_without_it"> : tensor<192x1x1x32xf32>} : () -> tensor<192x1x1x32xf32>
    %59 = "tfl.pseudo_const"() {value = dense<"hex_value_removed_for_legibility_this_model_will_not_run_correctly_without_it"> : tensor<192xf32>} : () -> tensor<192xf32>
    %60 = "tfl.conv_2d"(%57, %58, %59) {dilation_h_factor = 1 : i32, dilation_w_factor = 1 : i32, fused_activation_function = "RELU6", padding = "SAME", stride_h = 1 : i32, stride_w = 1 : i32} : (tensor<1x28x28x32xf32>, tensor<192x1x1x32xf32>, tensor<192xf32>) -> tensor<1x28x28x192xf32>
    %61 = "tfl.pseudo_const"() {value = dense<"hex_value_removed_for_legibility_this_model_will_not_run_correctly_without_it"> : tensor<1x3x3x192xf32>} : () -> tensor<1x3x3x192xf32>
    %62 = "tfl.pseudo_const"() {value = dense<"hex_value_removed_for_legibility_this_model_will_not_run_correctly_without_it"> : tensor<192xf32>} : () -> tensor<192xf32>
    %63 = "tfl.depthwise_conv_2d"(%60, %61, %62) {depth_multiplier = 1 : i32, dilation_h_factor = 1 : i32, dilation_w_factor = 1 : i32, fused_activation_function = "RELU6", padding = "SAME", stride_h = 2 : i32, stride_w = 2 : i32} : (tensor<1x28x28x192xf32>, tensor<1x3x3x192xf32>, tensor<192xf32>) -> tensor<1x14x14x192xf32>
    %64 = "tfl.pseudo_const"() {value = dense<"hex_value_removed_for_legibility_this_model_will_not_run_correctly_without_it"> : tensor<64x1x1x192xf32>} : () -> tensor<64x1x1x192xf32>
    %65 = "tfl.pseudo_const"() {value = dense<[… > : tensor<64xf32>} : () -> tensor<64xf32>
    %66 = "tfl.conv_2d"(%63, %64, %65) {dilation_h_factor = 1 : i32, dilation_w_factor = 1 : i32, fused_activation_function = "NONE", padding = "SAME", stride_h = 1 : i32, stride_w = 1 : i32} : (tensor<1x14x14x192xf32>, tensor<64x1x1x192xf32>, tensor<64xf32>) -> tensor<1x14x14x64xf32>
    %67 = "tfl.pseudo_const"() {value = dense<"hex_value_removed_for_legibility_this_model_will_not_run_correctly_without_it"> : tensor<384x1x1x64xf32>} : () -> tensor<384x1x1x64xf32>
    %68 = "tfl.pseudo_const"() {value = dense<"hex_value_removed_for_legibility_this_model_will_not_run_correctly_without_it"> : tensor<384xf32>} : () -> tensor<384xf32>
    %69 = "tfl.conv_2d"(%66, %67, %68) {dilation_h_factor = 1 : i32, dilation_w_factor = 1 : i32, fused_activation_function = "RELU6", padding = "SAME", stride_h = 1 : i32, stride_w = 1 : i32} : (tensor<1x14x14x64xf32>, tensor<384x1x1x64xf32>, tensor<384xf32>) -> tensor<1x14x14x384xf32>
    %70 = "tfl.pseudo_const"() {value = dense<"hex_value_removed_for_legibility_this_model_will_not_run_correctly_without_it"> : tensor<1x3x3x384xf32>} : () -> tensor<1x3x3x384xf32>
    %71 = "tfl.pseudo_const"() {value = dense<"hex_value_removed_for_legibility_this_model_will_not_run_correctly_without_it"> : tensor<384xf32>} : () -> tensor<384xf32>
    %72 = "tfl.depthwise_conv_2d"(%69, %70, %71) {depth_multiplier = 1 : i32, dilation_h_factor = 1 : i32, dilation_w_factor = 1 : i32, fused_activation_function = "RELU6", padding = "SAME", stride_h = 1 : i32, stride_w = 1 : i32} : (tensor<1x14x14x384xf32>, tensor<1x3x3x384xf32>, tensor<384xf32>) -> tensor<1x14x14x384xf32>
    %73 = "tfl.pseudo_const"() {value = dense<"hex_value_removed_for_legibility_this_model_will_not_run_correctly_without_it"> : tensor<64x1x1x384xf32>} : () -> tensor<64x1x1x384xf32>
    %74 = "tfl.pseudo_const"() {value = dense<[… > : tensor<64xf32>} : () -> tensor<64xf32>
    %75 = "tfl.conv_2d"(%72, %73, %74) {dilation_h_factor = 1 : i32, dilation_w_factor = 1 : i32, fused_activation_function = "NONE", padding = "SAME", stride_h = 1 : i32, stride_w = 1 : i32} : (tensor<1x14x14x384xf32>, tensor<64x1x1x384xf32>, tensor<64xf32>) -> tensor<1x14x14x64xf32>
    %76 = tfl.add %75, %66 {fused_activation_function = "NONE"} : tensor<1x14x14x64xf32>
    %77 = "tfl.pseudo_const"() {value = dense<"hex_value_removed_for_legibility_this_model_will_not_run_correctly_without_it"> : tensor<384x1x1x64xf32>} : () -> tensor<384x1x1x64xf32>
    %78 = "tfl.pseudo_const"() {value = dense<"hex_value_removed_for_legibility_this_model_will_not_run_correctly_without_it"> : tensor<384xf32>} : () -> tensor<384xf32>
    %79 = "tfl.conv_2d"(%76, %77, %78) {dilation_h_factor = 1 : i32, dilation_w_factor = 1 : i32, fused_activation_function = "RELU6", padding = "SAME", stride_h = 1 : i32, stride_w = 1 : i32} : (tensor<1x14x14x64xf32>, tensor<384x1x1x64xf32>, tensor<384xf32>) -> tensor<1x14x14x384xf32>
    %80 = "tfl.pseudo_const"() {value = dense<"hex_value_removed_for_legibility_this_model_will_not_run_correctly_without_it"> : tensor<1x3x3x384xf32>} : () -> tensor<1x3x3x384xf32>
    %81 = "tfl.pseudo_const"() {value = dense<"hex_value_removed_for_legibility_this_model_will_not_run_correctly_without_it"> : tensor<384xf32>} : () -> tensor<384xf32>
    %82 = "tfl.depthwise_conv_2d"(%79, %80, %81) {depth_multiplier = 1 : i32, dilation_h_factor = 1 : i32, dilation_w_factor = 1 : i32, fused_activation_function = "RELU6", padding = "SAME", stride_h = 1 : i32, stride_w = 1 : i32} : (tensor<1x14x14x384xf32>, tensor<1x3x3x384xf32>, tensor<384xf32>) -> tensor<1x14x14x384xf32>
    %83 = "tfl.pseudo_const"() {value = dense<"hex_value_removed_for_legibility_this_model_will_not_run_correctly_without_it"> : tensor<64x1x1x384xf32>} : () -> tensor<64x1x1x384xf32>
    %84 = "tfl.pseudo_const"() {value = dense<[… > : tensor<64xf32>} : () -> tensor<64xf32>
    %85 = "tfl.conv_2d"(%82, %83, %84) {dilation_h_factor = 1 : i32, dilation_w_factor = 1 : i32, fused_activation_function = "NONE", padding = "SAME", stride_h = 1 : i32, stride_w = 1 : i32} : (tensor<1x14x14x384xf32>, tensor<64x1x1x384xf32>, tensor<64xf32>) -> tensor<1x14x14x64xf32>
    %86 = tfl.add %85, %76 {fused_activation_function = "NONE"} : tensor<1x14x14x64xf32>
    %87 = "tfl.pseudo_const"() {value = dense<"hex_value_removed_for_legibility_this_model_will_not_run_correctly_without_it"> : tensor<384x1x1x64xf32>} : () -> tensor<384x1x1x64xf32>
    %88 = "tfl.pseudo_const"() {value = dense<"hex_value_removed_for_legibility_this_model_will_not_run_correctly_without_it"> : tensor<384xf32>} : () -> tensor<384xf32>
    %89 = "tfl.conv_2d"(%86, %87, %88) {dilation_h_factor = 1 : i32, dilation_w_factor = 1 : i32, fused_activation_function = "RELU6", padding = "SAME", stride_h = 1 : i32, stride_w = 1 : i32} : (tensor<1x14x14x64xf32>, tensor<384x1x1x64xf32>, tensor<384xf32>) -> tensor<1x14x14x384xf32>
    %90 = "tfl.pseudo_const"() {value = dense<"hex_value_removed_for_legibility_this_model_will_not_run_correctly_without_it"> : tensor<1x3x3x384xf32>} : () -> tensor<1x3x3x384xf32>
    %91 = "tfl.pseudo_const"() {value = dense<"hex_value_removed_for_legibility_this_model_will_not_run_correctly_without_it"> : tensor<384xf32>} : () -> tensor<384xf32>
    %92 = "tfl.depthwise_conv_2d"(%89, %90, %91) {depth_multiplier = 1 : i32, dilation_h_factor = 1 : i32, dilation_w_factor = 1 : i32, fused_activation_function = "RELU6", padding = "SAME", stride_h = 1 : i32, stride_w = 1 : i32} : (tensor<1x14x14x384xf32>, tensor<1x3x3x384xf32>, tensor<384xf32>) -> tensor<1x14x14x384xf32>
    %93 = "tfl.pseudo_const"() {value = dense<"hex_value_removed_for_legibility_this_model_will_not_run_correctly_without_it"> : tensor<64x1x1x384xf32>} : () -> tensor<64x1x1x384xf32>
    %94 = "tfl.pseudo_const"() {value = dense<[… > : tensor<64xf32>} : () -> tensor<64xf32>
    %95 = "tfl.conv_2d"(%92, %93, %94) {dilation_h_factor = 1 : i32, dilation_w_factor = 1 : i32, fused_activation_function = "NONE", padding = "SAME", stride_h = 1 : i32, stride_w = 1 : i32} : (tensor<1x14x14x384xf32>, tensor<64x1x1x384xf32>, tensor<64xf32>) -> tensor<1x14x14x64xf32>
    %96 = tfl.add %95, %86 {fused_activation_function = "NONE"} : tensor<1x14x14x64xf32>
    %97 = "tfl.pseudo_const"() {value = dense<"hex_value_removed_for_legibility_this_model_will_not_run_correctly_without_it"> : tensor<384x1x1x64xf32>} : () -> tensor<384x1x1x64xf32>
    %98 = "tfl.pseudo_const"() {value = dense<"hex_value_removed_for_legibility_this_model_will_not_run_correctly_without_it"> : tensor<384xf32>} : () -> tensor<384xf32>
    %99 = "tfl.conv_2d"(%96, %97, %98) {dilation_h_factor = 1 : i32, dilation_w_factor = 1 : i32, fused_activation_function = "RELU6", padding = "SAME", stride_h = 1 : i32, stride_w = 1 : i32} : (tensor<1x14x14x64xf32>, tensor<384x1x1x64xf32>, tensor<384xf32>) -> tensor<1x14x14x384xf32>
    %100 = "tfl.pseudo_const"() {value = dense<"hex_value_removed_for_legibility_this_model_will_not_run_correctly_without_it"> : tensor<1x3x3x384xf32>} : () -> tensor<1x3x3x384xf32>
    %101 = "tfl.pseudo_const"() {value = dense<"hex_value_removed_for_legibility_this_model_will_not_run_correctly_without_it"> : tensor<384xf32>} : () -> tensor<384xf32>
    %102 = "tfl.depthwise_conv_2d"(%99, %100, %101) {depth_multiplier = 1 : i32, dilation_h_factor = 1 : i32, dilation_w_factor = 1 : i32, fused_activation_function = "RELU6", padding = "SAME", stride_h = 1 : i32, stride_w = 1 : i32} : (tensor<1x14x14x384xf32>, tensor<1x3x3x384xf32>, tensor<384xf32>) -> tensor<1x14x14x384xf32>
    %103 = "tfl.pseudo_const"() {value = dense<"hex_value_removed_for_legibility_this_model_will_not_run_correctly_without_it"> : tensor<96x1x1x384xf32>} : () -> tensor<96x1x1x384xf32>
    %104 = "tfl.pseudo_const"() {value = dense<[… > : tensor<96xf32>} : () -> tensor<96xf32>
    %105 = "tfl.conv_2d"(%102, %103, %104) {dilation_h_factor = 1 : i32, dilation_w_factor = 1 : i32, fused_activation_function = "NONE", padding = "SAME", stride_h = 1 : i32, stride_w = 1 : i32} : (tensor<1x14x14x384xf32>, tensor<96x1x1x384xf32>, tensor<96xf32>) -> tensor<1x14x14x96xf32>
    %106 = "tfl.pseudo_const"() {value = dense<"hex_value_removed_for_legibility_this_model_will_not_run_correctly_without_it"> : tensor<576x1x1x96xf32>} : () -> tensor<576x1x1x96xf32>
    %107 = "tfl.pseudo_const"() {value = dense<"hex_value_removed_for_legibility_this_model_will_not_run_correctly_without_it"> : tensor<576xf32>} : () -> tensor<576xf32>
    %108 = "tfl.conv_2d"(%105, %106, %107) {dilation_h_factor = 1 : i32, dilation_w_factor = 1 : i32, fused_activation_function = "RELU6", padding = "SAME", stride_h = 1 : i32, stride_w = 1 : i32} : (tensor<1x14x14x96xf32>, tensor<576x1x1x96xf32>, tensor<576xf32>) -> tensor<1x14x14x576xf32>
    %109 = "tfl.pseudo_const"() {value = dense<"hex_value_removed_for_legibility_this_model_will_not_run_correctly_without_it"> : tensor<1x3x3x576xf32>} : () -> tensor<1x3x3x576xf32>
    %110 = "tfl.pseudo_const"() {value = dense<"hex_value_removed_for_legibility_this_model_will_not_run_correctly_without_it"> : tensor<576xf32>} : () -> tensor<576xf32>
    %111 = "tfl.depthwise_conv_2d"(%108, %109, %110) {depth_multiplier = 1 : i32, dilation_h_factor = 1 : i32, dilation_w_factor = 1 : i32, fused_activation_function = "RELU6", padding = "SAME", stride_h = 1 : i32, stride_w = 1 : i32} : (tensor<1x14x14x576xf32>, tensor<1x3x3x576xf32>, tensor<576xf32>) -> tensor<1x14x14x576xf32>
    %112 = "tfl.pseudo_const"() {value = dense<"hex_value_removed_for_legibility_this_model_will_not_run_correctly_without_it"> : tensor<96x1x1x576xf32>} : () -> tensor<96x1x1x576xf32>
    %113 = "tfl.pseudo_const"() {value = dense<[… > : tensor<96xf32>} : () -> tensor<96xf32>
    %114 = "tfl.conv_2d"(%111, %112, %113) {dilation_h_factor = 1 : i32, dilation_w_factor = 1 : i32, fused_activation_function = "NONE", padding = "SAME", stride_h = 1 : i32, stride_w = 1 : i32} : (tensor<1x14x14x576xf32>, tensor<96x1x1x576xf32>, tensor<96xf32>) -> tensor<1x14x14x96xf32>
    %115 = tfl.add %114, %105 {fused_activation_function = "NONE"} : tensor<1x14x14x96xf32>
    %116 = "tfl.pseudo_const"() {value = dense<"hex_value_removed_for_legibility_this_model_will_not_run_correctly_without_it"> : tensor<576x1x1x96xf32>} : () -> tensor<576x1x1x96xf32>
    %117 = "tfl.pseudo_const"() {value = dense<"hex_value_removed_for_legibility_this_model_will_not_run_correctly_without_it"> : tensor<576xf32>} : () -> tensor<576xf32>
    %118 = "tfl.conv_2d"(%115, %116, %117) {dilation_h_factor = 1 : i32, dilation_w_factor = 1 : i32, fused_activation_function = "RELU6", padding = "SAME", stride_h = 1 : i32, stride_w = 1 : i32} : (tensor<1x14x14x96xf32>, tensor<576x1x1x96xf32>, tensor<576xf32>) -> tensor<1x14x14x576xf32>
    %119 = "tfl.pseudo_const"() {value = dense<"hex_value_removed_for_legibility_this_model_will_not_run_correctly_without_it"> : tensor<1x3x3x576xf32>} : () -> tensor<1x3x3x576xf32>
    %120 = "tfl.pseudo_const"() {value = dense<"hex_value_removed_for_legibility_this_model_will_not_run_correctly_without_it"> : tensor<576xf32>} : () -> tensor<576xf32>
    %121 = "tfl.depthwise_conv_2d"(%118, %119, %120) {depth_multiplier = 1 : i32, dilation_h_factor = 1 : i32, dilation_w_factor = 1 : i32, fused_activation_function = "RELU6", padding = "SAME", stride_h = 1 : i32, stride_w = 1 : i32} : (tensor<1x14x14x576xf32>, tensor<1x3x3x576xf32>, tensor<576xf32>) -> tensor<1x14x14x576xf32>
    %122 = "tfl.pseudo_const"() {value = dense<"hex_value_removed_for_legibility_this_model_will_not_run_correctly_without_it"> : tensor<96x1x1x576xf32>} : () -> tensor<96x1x1x576xf32>
    %123 = "tfl.pseudo_const"() {value = dense<[… > : tensor<96xf32>} : () -> tensor<96xf32>
    %124 = "tfl.conv_2d"(%121, %122, %123) {dilation_h_factor = 1 : i32, dilation_w_factor = 1 : i32, fused_activation_function = "NONE", padding = "SAME", stride_h = 1 : i32, stride_w = 1 : i32} : (tensor<1x14x14x576xf32>, tensor<96x1x1x576xf32>, tensor<96xf32>) -> tensor<1x14x14x96xf32>
    %125 = tfl.add %124, %115 {fused_activation_function = "NONE"} : tensor<1x14x14x96xf32>
    %126 = "tfl.pseudo_const"() {value = dense<"hex_value_removed_for_legibility_this_model_will_not_run_correctly_without_it"> : tensor<576x1x1x96xf32>} : () -> tensor<576x1x1x96xf32>
    %127 = "tfl.pseudo_const"() {value = dense<"hex_value_removed_for_legibility_this_model_will_not_run_correctly_without_it"> : tensor<576xf32>} : () -> tensor<576xf32>
    %128 = "tfl.conv_2d"(%125, %126, %127) {dilation_h_factor = 1 : i32, dilation_w_factor = 1 : i32, fused_activation_function = "RELU6", padding = "SAME", stride_h = 1 : i32, stride_w = 1 : i32} : (tensor<1x14x14x96xf32>, tensor<576x1x1x96xf32>, tensor<576xf32>) -> tensor<1x14x14x576xf32>
    %129 = "tfl.pseudo_const"() {value = dense<"hex_value_removed_for_legibility_this_model_will_not_run_correctly_without_it"> : tensor<1x3x3x576xf32>} : () -> tensor<1x3x3x576xf32>
    %130 = "tfl.pseudo_const"() {value = dense<"hex_value_removed_for_legibility_this_model_will_not_run_correctly_without_it"> : tensor<576xf32>} : () -> tensor<576xf32>
    %131 = "tfl.depthwise_conv_2d"(%128, %129, %130) {depth_multiplier = 1 : i32, dilation_h_factor = 1 : i32, dilation_w_factor = 1 : i32, fused_activation_function = "RELU6", padding = "SAME", stride_h = 2 : i32, stride_w = 2 : i32} : (tensor<1x14x14x576xf32>, tensor<1x3x3x576xf32>, tensor<576xf32>) -> tensor<1x7x7x576xf32>
    %132 = "tfl.pseudo_const"() {value = dense<"hex_value_removed_for_legibility_this_model_will_not_run_correctly_without_it"> : tensor<160x1x1x576xf32>} : () -> tensor<160x1x1x576xf32>
    %133 = "tfl.pseudo_const"() {value = dense<"hex_value_removed_for_legibility_this_model_will_not_run_correctly_without_it"> : tensor<160xf32>} : () -> tensor<160xf32>
    %134 = "tfl.conv_2d"(%131, %132, %133) {dilation_h_factor = 1 : i32, dilation_w_factor = 1 : i32, fused_activation_function = "NONE", padding = "SAME", stride_h = 1 : i32, stride_w = 1 : i32} : (tensor<1x7x7x576xf32>, tensor<160x1x1x576xf32>, tensor<160xf32>) -> tensor<1x7x7x160xf32>
    %135 = "tfl.pseudo_const"() {value = dense<"hex_value_removed_for_legibility_this_model_will_not_run_correctly_without_it"> : tensor<960x1x1x160xf32>} : () -> tensor<960x1x1x160xf32>
    %136 = "tfl.pseudo_const"() {value = dense<"hex_value_removed_for_legibility_this_model_will_not_run_correctly_without_it"> : tensor<960xf32>} : () -> tensor<960xf32>
    %137 = "tfl.conv_2d"(%134, %135, %136) {dilation_h_factor = 1 : i32, dilation_w_factor = 1 : i32, fused_activation_function = "RELU6", padding = "SAME", stride_h = 1 : i32, stride_w = 1 : i32} : (tensor<1x7x7x160xf32>, tensor<960x1x1x160xf32>, tensor<960xf32>) -> tensor<1x7x7x960xf32>
    %138 = "tfl.pseudo_const"() {value = dense<"hex_value_removed_for_legibility_this_model_will_not_run_correctly_without_it"> : tensor<1x3x3x960xf32>} : () -> tensor<1x3x3x960xf32>
    %139 = "tfl.pseudo_const"() {value = dense<"hex_value_removed_for_legibility_this_model_will_not_run_correctly_without_it"> : tensor<960xf32>} : () -> tensor<960xf32>
    %140 = "tfl.depthwise_conv_2d"(%137, %138, %139) {depth_multiplier = 1 : i32, dilation_h_factor = 1 : i32, dilation_w_factor = 1 : i32, fused_activation_function = "RELU6", padding = "SAME", stride_h = 1 : i32, stride_w = 1 : i32} : (tensor<1x7x7x960xf32>, tensor<1x3x3x960xf32>, tensor<960xf32>) -> tensor<1x7x7x960xf32>
    %141 = "tfl.pseudo_const"() {value = dense<"hex_value_removed_for_legibility_this_model_will_not_run_correctly_without_it"> : tensor<160x1x1x960xf32>} : () -> tensor<160x1x1x960xf32>
    %142 = "tfl.pseudo_const"() {value = dense<"hex_value_removed_for_legibility_this_model_will_not_run_correctly_without_it"> : tensor<160xf32>} : () -> tensor<160xf32>
    %143 = "tfl.conv_2d"(%140, %141, %142) {dilation_h_factor = 1 : i32, dilation_w_factor = 1 : i32, fused_activation_function = "NONE", padding = "SAME", stride_h = 1 : i32, stride_w = 1 : i32} : (tensor<1x7x7x960xf32>, tensor<160x1x1x960xf32>, tensor<160xf32>) -> tensor<1x7x7x160xf32>
    %144 = tfl.add %143, %134 {fused_activation_function = "NONE"} : tensor<1x7x7x160xf32>
    %145 = "tfl.pseudo_const"() {value = dense<"hex_value_removed_for_legibility_this_model_will_not_run_correctly_without_it"> : tensor<960x1x1x160xf32>} : () -> tensor<960x1x1x160xf32>
    %146 = "tfl.pseudo_const"() {value = dense<"hex_value_removed_for_legibility_this_model_will_not_run_correctly_without_it"> : tensor<960xf32>} : () -> tensor<960xf32>
    %147 = "tfl.conv_2d"(%144, %145, %146) {dilation_h_factor = 1 : i32, dilation_w_factor = 1 : i32, fused_activation_function = "RELU6", padding = "SAME", stride_h = 1 : i32, stride_w = 1 : i32} : (tensor<1x7x7x160xf32>, tensor<960x1x1x160xf32>, tensor<960xf32>) -> tensor<1x7x7x960xf32>
    %148 = "tfl.pseudo_const"() {value = dense<"hex_value_removed_for_legibility_this_model_will_not_run_correctly_without_it"> : tensor<1x3x3x960xf32>} : () -> tensor<1x3x3x960xf32>
    %149 = "tfl.pseudo_const"() {value = dense<"hex_value_removed_for_legibility_this_model_will_not_run_correctly_without_it"> : tensor<960xf32>} : () -> tensor<960xf32>
    %150 = "tfl.depthwise_conv_2d"(%147, %148, %149) {depth_multiplier = 1 : i32, dilation_h_factor = 1 : i32, dilation_w_factor = 1 : i32, fused_activation_function = "RELU6", padding = "SAME", stride_h = 1 : i32, stride_w = 1 : i32} : (tensor<1x7x7x960xf32>, tensor<1x3x3x960xf32>, tensor<960xf32>) -> tensor<1x7x7x960xf32>
    %151 = "tfl.pseudo_const"() {value = dense<"hex_value_removed_for_legibility_this_model_will_not_run_correctly_without_it"> : tensor<160x1x1x960xf32>} : () -> tensor<160x1x1x960xf32>
    %152 = "tfl.pseudo_const"() {value = dense<"hex_value_removed_for_legibility_this_model_will_not_run_correctly_without_it"> : tensor<160xf32>} : () -> tensor<160xf32>
    %153 = "tfl.conv_2d"(%150, %151, %152) {dilation_h_factor = 1 : i32, dilation_w_factor = 1 : i32, fused_activation_function = "NONE", padding = "SAME", stride_h = 1 : i32, stride_w = 1 : i32} : (tensor<1x7x7x960xf32>, tensor<160x1x1x960xf32>, tensor<160xf32>) -> tensor<1x7x7x160xf32>
    %154 = tfl.add %153, %144 {fused_activation_function = "NONE"} : tensor<1x7x7x160xf32>
    %155 = "tfl.pseudo_const"() {value = dense<"hex_value_removed_for_legibility_this_model_will_not_run_correctly_without_it"> : tensor<960x1x1x160xf32>} : () -> tensor<960x1x1x160xf32>
    %156 = "tfl.pseudo_const"() {value = dense<"hex_value_removed_for_legibility_this_model_will_not_run_correctly_without_it"> : tensor<960xf32>} : () -> tensor<960xf32>
    %157 = "tfl.conv_2d"(%154, %155, %156) {dilation_h_factor = 1 : i32, dilation_w_factor = 1 : i32, fused_activation_function = "RELU6", padding = "SAME", stride_h = 1 : i32, stride_w = 1 : i32} : (tensor<1x7x7x160xf32>, tensor<960x1x1x160xf32>, tensor<960xf32>) -> tensor<1x7x7x960xf32>
    %158 = "tfl.pseudo_const"() {value = dense<"hex_value_removed_for_legibility_this_model_will_not_run_correctly_without_it"> : tensor<1x3x3x960xf32>} : () -> tensor<1x3x3x960xf32>
    %159 = "tfl.pseudo_const"() {value = dense<"hex_value_removed_for_legibility_this_model_will_not_run_correctly_without_it"> : tensor<960xf32>} : () -> tensor<960xf32>
    %160 = "tfl.depthwise_conv_2d"(%157, %158, %159) {depth_multiplier = 1 : i32, dilation_h_factor = 1 : i32, dilation_w_factor = 1 : i32, fused_activation_function = "RELU6", padding = "SAME", stride_h = 1 : i32, stride_w = 1 : i32} : (tensor<1x7x7x960xf32>, tensor<1x3x3x960xf32>, tensor<960xf32>) -> tensor<1x7x7x960xf32>
    %161 = "tfl.pseudo_const"() {value = dense<"hex_value_removed_for_legibility_this_model_will_not_run_correctly_without_it"> : tensor<320x1x1x960xf32>} : () -> tensor<320x1x1x960xf32>
    %162 = "tfl.pseudo_const"() {value = dense<"hex_value_removed_for_legibility_this_model_will_not_run_correctly_without_it"> : tensor<320xf32>} : () -> tensor<320xf32>
    %163 = "tfl.conv_2d"(%160, %161, %162) {dilation_h_factor = 1 : i32, dilation_w_factor = 1 : i32, fused_activation_function = "NONE", padding = "SAME", stride_h = 1 : i32, stride_w = 1 : i32} : (tensor<1x7x7x960xf32>, tensor<320x1x1x960xf32>, tensor<320xf32>) -> tensor<1x7x7x320xf32>
    %164 = "tfl.pseudo_const"() {value = dense<"hex_value_removed_for_legibility_this_model_will_not_run_correctly_without_it"> : tensor<1280x1x1x320xf32>} : () -> tensor<1280x1x1x320xf32>
    %165 = "tfl.pseudo_const"() {value = dense<"hex_value_removed_for_legibility_this_model_will_not_run_correctly_without_it"> : tensor<1280xf32>} : () -> tensor<1280xf32>
    %166 = "tfl.conv_2d"(%163, %164, %165) {dilation_h_factor = 1 : i32, dilation_w_factor = 1 : i32, fused_activation_function = "RELU6", padding = "SAME", stride_h = 1 : i32, stride_w = 1 : i32} : (tensor<1x7x7x320xf32>, tensor<1280x1x1x320xf32>, tensor<1280xf32>) -> tensor<1x7x7x1280xf32>
    %167 = "tfl.average_pool_2d"(%166) {filter_height = 7 : i32, filter_width = 7 : i32, fused_activation_function = "NONE", padding = "VALID", stride_h = 1 : i32, stride_w = 1 : i32} : (tensor<1x7x7x1280xf32>) -> tensor<1x1x1x1280xf32>
    %168 = "tfl.pseudo_const"() {value = dense<"hex_value_removed_for_legibility_this_model_will_not_run_correctly_without_it"> : tensor<1001x1x1x1280xf32>} : () -> tensor<1001x1x1x1280xf32>
    %169 = "tfl.pseudo_const"() {value = dense<"hex_value_removed_for_legibility_this_model_will_not_run_correctly_without_it"> : tensor<1001xf32>} : () -> tensor<1001xf32>
    %170 = "tfl.conv_2d"(%167, %168, %169) {dilation_h_factor = 1 : i32, dilation_w_factor = 1 : i32, fused_activation_function = "NONE", padding = "SAME", stride_h = 1 : i32, stride_w = 1 : i32} : (tensor<1x1x1x1280xf32>, tensor<1001x1x1x1280xf32>, tensor<1001xf32>) -> tensor<1x1x1x1001xf32>
    %171 = "tfl.pseudo_const"() {value = dense<[1, 1001]> : tensor<2xi32>} : () -> tensor<2xi32>
    %172 = "tfl.reshape"(%170, %171) : (tensor<1x1x1x1001xf32>, tensor<2xi32>) -> tensor<1x1001xf32>
    %173 = "tfl.softmax"(%172) {beta = 1.000000e+00 : f32} : (tensor<1x1001xf32>) -> tensor<1x1001xf32>
    return %173 : tensor<1x1001xf32>
  }
}