

module attributes {tfl.description = "TOCO Converted.", tfl.schema_version = 3 : i32} {
  func @main(%arg0: tensor<1x257x257x3xf32>) -> (tensor<1x9x9x17xf32>, tensor<1x9x9x34xf32>, tensor<1x9x9x32xf32>, tensor<1x9x9x32xf32>) attributes {tf.entry_function = {inputs = "sub_2", outputs = "MobilenetV1/heatmap_2/BiasAdd,MobilenetV1/offset_2/BiasAdd,MobilenetV1/displacement_fwd_2/BiasAdd,MobilenetV1/displacement_bwd_2/BiasAdd"}} {
    %0 = "quant.stats"(%arg0) {layerStats = dense<[0.000000e+00, 2.550000e+02]> : tensor<2xf32>} : (tensor<1x257x257x3xf32>) -> tensor<1x257x257x3xf32>
    %1 = "tfl.pseudo_const"() {value = dense<"hex_value_removed_for_legibility_this_model_will_not_run_correctly_without_it"> : tensor<32x3x3x3xf32>} : () -> tensor<32x3x3x3xf32>
    %2 = "tfl.pseudo_const"() {value = dense<[… > : tensor<32xf32>} : () -> tensor<32xf32>
    %3 = "tfl.conv_2d"(%0, %1, %2) {dilation_h_factor = 1 : i32, dilation_w_factor = 1 : i32, fused_activation_function = "RELU6", padding = "SAME", stride_h = 2 : i32, stride_w = 2 : i32} : (tensor<1x257x257x3xf32>, tensor<32x3x3x3xf32>, tensor<32xf32>) -> tensor<1x129x129x32xf32>
    %4 = "tfl.pseudo_const"() {value = dense<"hex_value_removed_for_legibility_this_model_will_not_run_correctly_without_it"> : tensor<1x3x3x32xf32>} : () -> tensor<1x3x3x32xf32>
    %5 = "tfl.pseudo_const"() {value = dense<[… > : tensor<32xf32>} : () -> tensor<32xf32>
    %6 = "tfl.depthwise_conv_2d"(%3, %4, %5) {depth_multiplier = 1 : i32, dilation_h_factor = 1 : i32, dilation_w_factor = 1 : i32, fused_activation_function = "RELU6", padding = "SAME", stride_h = 1 : i32, stride_w = 1 : i32} : (tensor<1x129x129x32xf32>, tensor<1x3x3x32xf32>, tensor<32xf32>) -> tensor<1x129x129x32xf32>
    %7 = "tfl.pseudo_const"() {value = dense<"hex_value_removed_for_legibility_this_model_will_not_run_correctly_without_it"> : tensor<64x1x1x32xf32>} : () -> tensor<64x1x1x32xf32>
    %8 = "tfl.pseudo_const"() {value = dense<[… > : tensor<64xf32>} : () -> tensor<64xf32>
    %9 = "tfl.conv_2d"(%6, %7, %8) {dilation_h_factor = 1 : i32, dilation_w_factor = 1 : i32, fused_activation_function = "RELU6", padding = "SAME", stride_h = 1 : i32, stride_w = 1 : i32} : (tensor<1x129x129x32xf32>, tensor<64x1x1x32xf32>, tensor<64xf32>) -> tensor<1x129x129x64xf32>
    %10 = "tfl.pseudo_const"() {value = dense<"hex_value_removed_for_legibility_this_model_will_not_run_correctly_without_it"> : tensor<1x3x3x64xf32>} : () -> tensor<1x3x3x64xf32>
    %11 = "tfl.pseudo_const"() {value = dense<[… > : tensor<64xf32>} : () -> tensor<64xf32>
    %12 = "tfl.depthwise_conv_2d"(%9, %10, %11) {depth_multiplier = 1 : i32, dilation_h_factor = 1 : i32, dilation_w_factor = 1 : i32, fused_activation_function = "RELU6", padding = "SAME", stride_h = 2 : i32, stride_w = 2 : i32} : (tensor<1x129x129x64xf32>, tensor<1x3x3x64xf32>, tensor<64xf32>) -> tensor<1x65x65x64xf32>
    %13 = "tfl.pseudo_const"() {value = dense<"hex_value_removed_for_legibility_this_model_will_not_run_correctly_without_it"> : tensor<128x1x1x64xf32>} : () -> tensor<128x1x1x64xf32>
    %14 = "tfl.pseudo_const"() {value = dense<"hex_value_removed_for_legibility_this_model_will_not_run_correctly_without_it"> : tensor<128xf32>} : () -> tensor<128xf32>
    %15 = "tfl.conv_2d"(%12, %13, %14) {dilation_h_factor = 1 : i32, dilation_w_factor = 1 : i32, fused_activation_function = "RELU6", padding = "SAME", stride_h = 1 : i32, stride_w = 1 : i32} : (tensor<1x65x65x64xf32>, tensor<128x1x1x64xf32>, tensor<128xf32>) -> tensor<1x65x65x128xf32>
    %16 = "tfl.pseudo_const"() {value = dense<"hex_value_removed_for_legibility_this_model_will_not_run_correctly_without_it"> : tensor<1x3x3x128xf32>} : () -> tensor<1x3x3x128xf32>
    %17 = "tfl.pseudo_const"() {value = dense<"hex_value_removed_for_legibility_this_model_will_not_run_correctly_without_it"> : tensor<128xf32>} : () -> tensor<128xf32>
    %18 = "tfl.depthwise_conv_2d"(%15, %16, %17) {depth_multiplier = 1 : i32, dilation_h_factor = 1 : i32, dilation_w_factor = 1 : i32, fused_activation_function = "RELU6", padding = "SAME", stride_h = 1 : i32, stride_w = 1 : i32} : (tensor<1x65x65x128xf32>, tensor<1x3x3x128xf32>, tensor<128xf32>) -> tensor<1x65x65x128xf32>
    %19 = "tfl.pseudo_const"() {value = dense<"hex_value_removed_for_legibility_this_model_will_not_run_correctly_without_it"> : tensor<128x1x1x128xf32>} : () -> tensor<128x1x1x128xf32>
    %20 = "tfl.pseudo_const"() {value = dense<"hex_value_removed_for_legibility_this_model_will_not_run_correctly_without_it"> : tensor<128xf32>} : () -> tensor<128xf32>
    %21 = "tfl.conv_2d"(%18, %19, %20) {dilation_h_factor = 1 : i32, dilation_w_factor = 1 : i32, fused_activation_function = "RELU6", padding = "SAME", stride_h = 1 : i32, stride_w = 1 : i32} : (tensor<1x65x65x128xf32>, tensor<128x1x1x128xf32>, tensor<128xf32>) -> tensor<1x65x65x128xf32>
    %22 = "tfl.pseudo_const"() {value = dense<"hex_value_removed_for_legibility_this_model_will_not_run_correctly_without_it"> : tensor<1x3x3x128xf32>} : () -> tensor<1x3x3x128xf32>
    %23 = "tfl.pseudo_const"() {value = dense<"hex_value_removed_for_legibility_this_model_will_not_run_correctly_without_it"> : tensor<128xf32>} : () -> tensor<128xf32>
    %24 = "tfl.depthwise_conv_2d"(%21, %22, %23) {depth_multiplier = 1 : i32, dilation_h_factor = 1 : i32, dilation_w_factor = 1 : i32, fused_activation_function = "RELU6", padding = "SAME", stride_h = 2 : i32, stride_w = 2 : i32} : (tensor<1x65x65x128xf32>, tensor<1x3x3x128xf32>, tensor<128xf32>) -> tensor<1x33x33x128xf32>
    %25 = "tfl.pseudo_const"() {value = dense<"hex_value_removed_for_legibility_this_model_will_not_run_correctly_without_it"> : tensor<256x1x1x128xf32>} : () -> tensor<256x1x1x128xf32>
    %26 = "tfl.pseudo_const"() {value = dense<"hex_value_removed_for_legibility_this_model_will_not_run_correctly_without_it"> : tensor<256xf32>} : () -> tensor<256xf32>
    %27 = "tfl.conv_2d"(%24, %25, %26) {dilation_h_factor = 1 : i32, dilation_w_factor = 1 : i32, fused_activation_function = "RELU6", padding = "SAME", stride_h = 1 : i32, stride_w = 1 : i32} : (tensor<1x33x33x128xf32>, tensor<256x1x1x128xf32>, tensor<256xf32>) -> tensor<1x33x33x256xf32>
    %28 = "tfl.pseudo_const"() {value = dense<"hex_value_removed_for_legibility_this_model_will_not_run_correctly_without_it"> : tensor<1x3x3x256xf32>} : () -> tensor<1x3x3x256xf32>
    %29 = "tfl.pseudo_const"() {value = dense<"hex_value_removed_for_legibility_this_model_will_not_run_correctly_without_it"> : tensor<256xf32>} : () -> tensor<256xf32>
    %30 = "tfl.depthwise_conv_2d"(%27, %28, %29) {depth_multiplier = 1 : i32, dilation_h_factor = 1 : i32, dilation_w_factor = 1 : i32, fused_activation_function = "RELU6", padding = "SAME", stride_h = 1 : i32, stride_w = 1 : i32} : (tensor<1x33x33x256xf32>, tensor<1x3x3x256xf32>, tensor<256xf32>) -> tensor<1x33x33x256xf32>
    %31 = "tfl.pseudo_const"() {value = dense<"hex_value_removed_for_legibility_this_model_will_not_run_correctly_without_it"> : tensor<256x1x1x256xf32>} : () -> tensor<256x1x1x256xf32>
    %32 = "tfl.pseudo_const"() {value = dense<"hex_value_removed_for_legibility_this_model_will_not_run_correctly_without_it"> : tensor<256xf32>} : () -> tensor<256xf32>
    %33 = "tfl.conv_2d"(%30, %31, %32) {dilation_h_factor = 1 : i32, dilation_w_factor = 1 : i32, fused_activation_function = "RELU6", padding = "SAME", stride_h = 1 : i32, stride_w = 1 : i32} : (tensor<1x33x33x256xf32>, tensor<256x1x1x256xf32>, tensor<256xf32>) -> tensor<1x33x33x256xf32>
    %34 = "tfl.pseudo_const"() {value = dense<"hex_value_removed_for_legibility_this_model_will_not_run_correctly_without_it"> : tensor<1x3x3x256xf32>} : () -> tensor<1x3x3x256xf32>
    %35 = "tfl.pseudo_const"() {value = dense<"hex_value_removed_for_legibility_this_model_will_not_run_correctly_without_it"> : tensor<256xf32>} : () -> tensor<256xf32>
    %36 = "tfl.depthwise_conv_2d"(%33, %34, %35) {depth_multiplier = 1 : i32, dilation_h_factor = 1 : i32, dilation_w_factor = 1 : i32, fused_activation_function = "RELU6", padding = "SAME", stride_h = 2 : i32, stride_w = 2 : i32} : (tensor<1x33x33x256xf32>, tensor<1x3x3x256xf32>, tensor<256xf32>) -> tensor<1x17x17x256xf32>
    %37 = "tfl.pseudo_const"() {value = dense<"hex_value_removed_for_legibility_this_model_will_not_run_correctly_without_it"> : tensor<512x1x1x256xf32>} : () -> tensor<512x1x1x256xf32>
    %38 = "tfl.pseudo_const"() {value = dense<"hex_value_removed_for_legibility_this_model_will_not_run_correctly_without_it"> : tensor<512xf32>} : () -> tensor<512xf32>
    %39 = "tfl.conv_2d"(%36, %37, %38) {dilation_h_factor = 1 : i32, dilation_w_factor = 1 : i32, fused_activation_function = "RELU6", padding = "SAME", stride_h = 1 : i32, stride_w = 1 : i32} : (tensor<1x17x17x256xf32>, tensor<512x1x1x256xf32>, tensor<512xf32>) -> tensor<1x17x17x512xf32>
    %40 = "tfl.pseudo_const"() {value = dense<"hex_value_removed_for_legibility_this_model_will_not_run_correctly_without_it"> : tensor<1x3x3x512xf32>} : () -> tensor<1x3x3x512xf32>
    %41 = "tfl.pseudo_const"() {value = dense<"hex_value_removed_for_legibility_this_model_will_not_run_correctly_without_it"> : tensor<512xf32>} : () -> tensor<512xf32>
    %42 = "tfl.depthwise_conv_2d"(%39, %40, %41) {depth_multiplier = 1 : i32, dilation_h_factor = 1 : i32, dilation_w_factor = 1 : i32, fused_activation_function = "RELU6", padding = "SAME", stride_h = 1 : i32, stride_w = 1 : i32} : (tensor<1x17x17x512xf32>, tensor<1x3x3x512xf32>, tensor<512xf32>) -> tensor<1x17x17x512xf32>
    %43 = "tfl.pseudo_const"() {value = dense<"hex_value_removed_for_legibility_this_model_will_not_run_correctly_without_it"> : tensor<512x1x1x512xf32>} : () -> tensor<512x1x1x512xf32>
    %44 = "tfl.pseudo_const"() {value = dense<"hex_value_removed_for_legibility_this_model_will_not_run_correctly_without_it"> : tensor<512xf32>} : () -> tensor<512xf32>
    %45 = "tfl.conv_2d"(%42, %43, %44) {dilation_h_factor = 1 : i32, dilation_w_factor = 1 : i32, fused_activation_function = "RELU6", padding = "SAME", stride_h = 1 : i32, stride_w = 1 : i32} : (tensor<1x17x17x512xf32>, tensor<512x1x1x512xf32>, tensor<512xf32>) -> tensor<1x17x17x512xf32>
    %46 = "tfl.pseudo_const"() {value = dense<"hex_value_removed_for_legibility_this_model_will_not_run_correctly_without_it"> : tensor<1x3x3x512xf32>} : () -> tensor<1x3x3x512xf32>
    %47 = "tfl.pseudo_const"() {value = dense<"hex_value_removed_for_legibility_this_model_will_not_run_correctly_without_it"> : tensor<512xf32>} : () -> tensor<512xf32>
    %48 = "tfl.depthwise_conv_2d"(%45, %46, %47) {depth_multiplier = 1 : i32, dilation_h_factor = 1 : i32, dilation_w_factor = 1 : i32, fused_activation_function = "RELU6", padding = "SAME", stride_h = 1 : i32, stride_w = 1 : i32} : (tensor<1x17x17x512xf32>, tensor<1x3x3x512xf32>, tensor<512xf32>) -> tensor<1x17x17x512xf32>
    %49 = "tfl.pseudo_const"() {value = dense<"hex_value_removed_for_legibility_this_model_will_not_run_correctly_without_it"> : tensor<512x1x1x512xf32>} : () -> tensor<512x1x1x512xf32>
    %50 = "tfl.pseudo_const"() {value = dense<"hex_value_removed_for_legibility_this_model_will_not_run_correctly_without_it"> : tensor<512xf32>} : () -> tensor<512xf32>
    %51 = "tfl.conv_2d"(%48, %49, %50) {dilation_h_factor = 1 : i32, dilation_w_factor = 1 : i32, fused_activation_function = "RELU6", padding = "SAME", stride_h = 1 : i32, stride_w = 1 : i32} : (tensor<1x17x17x512xf32>, tensor<512x1x1x512xf32>, tensor<512xf32>) -> tensor<1x17x17x512xf32>
    %52 = "tfl.pseudo_const"() {value = dense<"hex_value_removed_for_legibility_this_model_will_not_run_correctly_without_it"> : tensor<1x3x3x512xf32>} : () -> tensor<1x3x3x512xf32>
    %53 = "tfl.pseudo_const"() {value = dense<"hex_value_removed_for_legibility_this_model_will_not_run_correctly_without_it"> : tensor<512xf32>} : () -> tensor<512xf32>
    %54 = "tfl.depthwise_conv_2d"(%51, %52, %53) {depth_multiplier = 1 : i32, dilation_h_factor = 1 : i32, dilation_w_factor = 1 : i32, fused_activation_function = "RELU6", padding = "SAME", stride_h = 1 : i32, stride_w = 1 : i32} : (tensor<1x17x17x512xf32>, tensor<1x3x3x512xf32>, tensor<512xf32>) -> tensor<1x17x17x512xf32>
    %55 = "tfl.pseudo_const"() {value = dense<"hex_value_removed_for_legibility_this_model_will_not_run_correctly_without_it"> : tensor<512x1x1x512xf32>} : () -> tensor<512x1x1x512xf32>
    %56 = "tfl.pseudo_const"() {value = dense<"hex_value_removed_for_legibility_this_model_will_not_run_correctly_without_it"> : tensor<512xf32>} : () -> tensor<512xf32>
    %57 = "tfl.conv_2d"(%54, %55, %56) {dilation_h_factor = 1 : i32, dilation_w_factor = 1 : i32, fused_activation_function = "RELU6", padding = "SAME", stride_h = 1 : i32, stride_w = 1 : i32} : (tensor<1x17x17x512xf32>, tensor<512x1x1x512xf32>, tensor<512xf32>) -> tensor<1x17x17x512xf32>
    %58 = "tfl.pseudo_const"() {value = dense<"hex_value_removed_for_legibility_this_model_will_not_run_correctly_without_it"> : tensor<1x3x3x512xf32>} : () -> tensor<1x3x3x512xf32>
    %59 = "tfl.pseudo_const"() {value = dense<"hex_value_removed_for_legibility_this_model_will_not_run_correctly_without_it"> : tensor<512xf32>} : () -> tensor<512xf32>
    %60 = "tfl.depthwise_conv_2d"(%57, %58, %59) {depth_multiplier = 1 : i32, dilation_h_factor = 1 : i32, dilation_w_factor = 1 : i32, fused_activation_function = "RELU6", padding = "SAME", stride_h = 1 : i32, stride_w = 1 : i32} : (tensor<1x17x17x512xf32>, tensor<1x3x3x512xf32>, tensor<512xf32>) -> tensor<1x17x17x512xf32>
    %61 = "tfl.pseudo_const"() {value = dense<"hex_value_removed_for_legibility_this_model_will_not_run_correctly_without_it"> : tensor<512x1x1x512xf32>} : () -> tensor<512x1x1x512xf32>
    %62 = "tfl.pseudo_const"() {value = dense<"hex_value_removed_for_legibility_this_model_will_not_run_correctly_without_it"> : tensor<512xf32>} : () -> tensor<512xf32>
    %63 = "tfl.conv_2d"(%60, %61, %62) {dilation_h_factor = 1 : i32, dilation_w_factor = 1 : i32, fused_activation_function = "RELU6", padding = "SAME", stride_h = 1 : i32, stride_w = 1 : i32} : (tensor<1x17x17x512xf32>, tensor<512x1x1x512xf32>, tensor<512xf32>) -> tensor<1x17x17x512xf32>
    %64 = "tfl.pseudo_const"() {value = dense<"hex_value_removed_for_legibility_this_model_will_not_run_correctly_without_it"> : tensor<1x3x3x512xf32>} : () -> tensor<1x3x3x512xf32>
    %65 = "tfl.pseudo_const"() {value = dense<"hex_value_removed_for_legibility_this_model_will_not_run_correctly_without_it"> : tensor<512xf32>} : () -> tensor<512xf32>
    %66 = "tfl.depthwise_conv_2d"(%63, %64, %65) {depth_multiplier = 1 : i32, dilation_h_factor = 1 : i32, dilation_w_factor = 1 : i32, fused_activation_function = "RELU6", padding = "SAME", stride_h = 1 : i32, stride_w = 1 : i32} : (tensor<1x17x17x512xf32>, tensor<1x3x3x512xf32>, tensor<512xf32>) -> tensor<1x17x17x512xf32>
    %67 = "tfl.pseudo_const"() {value = dense<"hex_value_removed_for_legibility_this_model_will_not_run_correctly_without_it"> : tensor<512x1x1x512xf32>} : () -> tensor<512x1x1x512xf32>
    %68 = "tfl.pseudo_const"() {value = dense<"hex_value_removed_for_legibility_this_model_will_not_run_correctly_without_it"> : tensor<512xf32>} : () -> tensor<512xf32>
    %69 = "tfl.conv_2d"(%66, %67, %68) {dilation_h_factor = 1 : i32, dilation_w_factor = 1 : i32, fused_activation_function = "RELU6", padding = "SAME", stride_h = 1 : i32, stride_w = 1 : i32} : (tensor<1x17x17x512xf32>, tensor<512x1x1x512xf32>, tensor<512xf32>) -> tensor<1x17x17x512xf32>
    %70 = "tfl.pseudo_const"() {value = dense<"hex_value_removed_for_legibility_this_model_will_not_run_correctly_without_it"> : tensor<1x3x3x512xf32>} : () -> tensor<1x3x3x512xf32>
    %71 = "tfl.pseudo_const"() {value = dense<"hex_value_removed_for_legibility_this_model_will_not_run_correctly_without_it"> : tensor<512xf32>} : () -> tensor<512xf32>
    %72 = "tfl.depthwise_conv_2d"(%69, %70, %71) {depth_multiplier = 1 : i32, dilation_h_factor = 1 : i32, dilation_w_factor = 1 : i32, fused_activation_function = "RELU6", padding = "SAME", stride_h = 2 : i32, stride_w = 2 : i32} : (tensor<1x17x17x512xf32>, tensor<1x3x3x512xf32>, tensor<512xf32>) -> tensor<1x9x9x512xf32>
    %73 = "tfl.pseudo_const"() {value = dense<"hex_value_removed_for_legibility_this_model_will_not_run_correctly_without_it"> : tensor<1024x1x1x512xf32>} : () -> tensor<1024x1x1x512xf32>
    %74 = "tfl.pseudo_const"() {value = dense<"hex_value_removed_for_legibility_this_model_will_not_run_correctly_without_it"> : tensor<1024xf32>} : () -> tensor<1024xf32>
    %75 = "tfl.conv_2d"(%72, %73, %74) {dilation_h_factor = 1 : i32, dilation_w_factor = 1 : i32, fused_activation_function = "RELU6", padding = "SAME", stride_h = 1 : i32, stride_w = 1 : i32} : (tensor<1x9x9x512xf32>, tensor<1024x1x1x512xf32>, tensor<1024xf32>) -> tensor<1x9x9x1024xf32>
    %76 = "tfl.pseudo_const"() {value = dense<"hex_value_removed_for_legibility_this_model_will_not_run_correctly_without_it"> : tensor<1x3x3x1024xf32>} : () -> tensor<1x3x3x1024xf32>
    %77 = "tfl.pseudo_const"() {value = dense<"hex_value_removed_for_legibility_this_model_will_not_run_correctly_without_it"> : tensor<1024xf32>} : () -> tensor<1024xf32>
    %78 = "tfl.depthwise_conv_2d"(%75, %76, %77) {depth_multiplier = 1 : i32, dilation_h_factor = 1 : i32, dilation_w_factor = 1 : i32, fused_activation_function = "RELU6", padding = "SAME", stride_h = 1 : i32, stride_w = 1 : i32} : (tensor<1x9x9x1024xf32>, tensor<1x3x3x1024xf32>, tensor<1024xf32>) -> tensor<1x9x9x1024xf32>
    %79 = "tfl.pseudo_const"() {value = dense<"hex_value_removed_for_legibility_this_model_will_not_run_correctly_without_it"> : tensor<1024x1x1x1024xf32>} : () -> tensor<1024x1x1x1024xf32>
    %80 = "tfl.pseudo_const"() {value = dense<"hex_value_removed_for_legibility_this_model_will_not_run_correctly_without_it"> : tensor<1024xf32>} : () -> tensor<1024xf32>
    %81 = "tfl.conv_2d"(%78, %79, %80) {dilation_h_factor = 1 : i32, dilation_w_factor = 1 : i32, fused_activation_function = "RELU6", padding = "SAME", stride_h = 1 : i32, stride_w = 1 : i32} : (tensor<1x9x9x1024xf32>, tensor<1024x1x1x1024xf32>, tensor<1024xf32>) -> tensor<1x9x9x1024xf32>
    %82 = "tfl.pseudo_const"() {value = dense<"hex_value_removed_for_legibility_this_model_will_not_run_correctly_without_it"> : tensor<17x1x1x1024xf32>} : () -> tensor<17x1x1x1024xf32>
    %83 = "tfl.pseudo_const"() {value = dense<[… > : tensor<17xf32>} : () -> tensor<17xf32>
    %84 = "tfl.conv_2d"(%81, %82, %83) {dilation_h_factor = 1 : i32, dilation_w_factor = 1 : i32, fused_activation_function = "NONE", padding = "SAME", stride_h = 1 : i32, stride_w = 1 : i32} : (tensor<1x9x9x1024xf32>, tensor<17x1x1x1024xf32>, tensor<17xf32>) -> tensor<1x9x9x17xf32>
    %85 = "tfl.pseudo_const"() {value = dense<"hex_value_removed_for_legibility_this_model_will_not_run_correctly_without_it"> : tensor<34x1x1x1024xf32>} : () -> tensor<34x1x1x1024xf32>
    %86 = "tfl.pseudo_const"() {value = dense<[… > : tensor<34xf32>} : () -> tensor<34xf32>
    %87 = "tfl.conv_2d"(%81, %85, %86) {dilation_h_factor = 1 : i32, dilation_w_factor = 1 : i32, fused_activation_function = "NONE", padding = "SAME", stride_h = 1 : i32, stride_w = 1 : i32} : (tensor<1x9x9x1024xf32>, tensor<34x1x1x1024xf32>, tensor<34xf32>) -> tensor<1x9x9x34xf32>
    %88 = "tfl.pseudo_const"() {value = dense<"hex_value_removed_for_legibility_this_model_will_not_run_correctly_without_it"> : tensor<32x1x1x1024xf32>} : () -> tensor<32x1x1x1024xf32>
    %89 = "tfl.pseudo_const"() {value = dense<[… > : tensor<32xf32>} : () -> tensor<32xf32>
    %90 = "tfl.conv_2d"(%81, %88, %89) {dilation_h_factor = 1 : i32, dilation_w_factor = 1 : i32, fused_activation_function = "NONE", padding = "SAME", stride_h = 1 : i32, stride_w = 1 : i32} : (tensor<1x9x9x1024xf32>, tensor<32x1x1x1024xf32>, tensor<32xf32>) -> tensor<1x9x9x32xf32>
    %91 = "tfl.pseudo_const"() {value = dense<"hex_value_removed_for_legibility_this_model_will_not_run_correctly_without_it"> : tensor<32x1x1x1024xf32>} : () -> tensor<32x1x1x1024xf32>
    %92 = "tfl.pseudo_const"() {value = dense<[… > : tensor<32xf32>} : () -> tensor<32xf32>
    %93 = "tfl.conv_2d"(%81, %91, %92) {dilation_h_factor = 1 : i32, dilation_w_factor = 1 : i32, fused_activation_function = "NONE", padding = "SAME", stride_h = 1 : i32, stride_w = 1 : i32} : (tensor<1x9x9x1024xf32>, tensor<32x1x1x1024xf32>, tensor<32xf32>) -> tensor<1x9x9x32xf32>
    return %84, %87, %93, %90 : tensor<1x9x9x17xf32>, tensor<1x9x9x34xf32>, tensor<1x9x9x32xf32>, tensor<1x9x9x32xf32>
  }
}