

module attributes {tfl.description = "TOCO Converted.", tfl.schema_version = 3 : i32} {
  func @main(%arg0: tensor<1x256x256x3xf32>) -> tensor<1x1x1x100xf32> attributes {tf.entry_function = {inputs = "style_image", outputs = "mobilenet_conv/Conv/BiasAdd"}} {
    %0 = "quant.stats"(%arg0) {layerStats = dense<[0.000000e+00, 2.550000e+02]> : tensor<2xf32>} : (tensor<1x256x256x3xf32>) -> tensor<1x256x256x3xf32>
    %1 = "tfl.pseudo_const"() {value = dense<[… > : tensor<32xf16>} : () -> tensor<32xf16>
    %2 = "tfl.dequantize"(%1) : (tensor<32xf16>) -> tensor<32xf32>
    %3 = "tfl.pseudo_const"() {value = dense<"hex_value_removed_for_legibility_this_model_will_not_run_correctly_without_it"> : tensor<32x3x3x3xf16>} : () -> tensor<32x3x3x3xf16>
    %4 = "tfl.dequantize"(%3) : (tensor<32x3x3x3xf16>) -> tensor<32x3x3x3xf32>
    %5 = "tfl.conv_2d"(%0, %4, %2) {dilation_h_factor = 1 : i32, dilation_w_factor = 1 : i32, fused_activation_function = "RELU6", padding = "SAME", stride_h = 2 : i32, stride_w = 2 : i32} : (tensor<1x256x256x3xf32>, tensor<32x3x3x3xf32>, tensor<32xf32>) -> tensor<1x128x128x32xf32>
    %6 = "tfl.pseudo_const"() {value = dense<"hex_value_removed_for_legibility_this_model_will_not_run_correctly_without_it"> : tensor<1x3x3x32xf16>} : () -> tensor<1x3x3x32xf16>
    %7 = "tfl.dequantize"(%6) : (tensor<1x3x3x32xf16>) -> tensor<1x3x3x32xf32>
    %8 = "tfl.pseudo_const"() {value = dense<[… > : tensor<32xf16>} : () -> tensor<32xf16>
    %9 = "tfl.dequantize"(%8) : (tensor<32xf16>) -> tensor<32xf32>
    %10 = "tfl.depthwise_conv_2d"(%5, %7, %9) {depth_multiplier = 1 : i32, dilation_h_factor = 1 : i32, dilation_w_factor = 1 : i32, fused_activation_function = "RELU6", padding = "SAME", stride_h = 1 : i32, stride_w = 1 : i32} : (tensor<1x128x128x32xf32>, tensor<1x3x3x32xf32>, tensor<32xf32>) -> tensor<1x128x128x32xf32>
    %11 = "tfl.pseudo_const"() {value = dense<"hex_value_removed_for_legibility_this_model_will_not_run_correctly_without_it"> : tensor<16x1x1x32xf16>} : () -> tensor<16x1x1x32xf16>
    %12 = "tfl.dequantize"(%11) : (tensor<16x1x1x32xf16>) -> tensor<16x1x1x32xf32>
    %13 = "tfl.pseudo_const"() {value = dense<[… > : tensor<16xf16>} : () -> tensor<16xf16>
    %14 = "tfl.dequantize"(%13) : (tensor<16xf16>) -> tensor<16xf32>
    %15 = "tfl.conv_2d"(%10, %12, %14) {dilation_h_factor = 1 : i32, dilation_w_factor = 1 : i32, fused_activation_function = "NONE", padding = "SAME", stride_h = 1 : i32, stride_w = 1 : i32} : (tensor<1x128x128x32xf32>, tensor<16x1x1x32xf32>, tensor<16xf32>) -> tensor<1x128x128x16xf32>
    %16 = "tfl.pseudo_const"() {value = dense<[… > : tensor<96xf16>} : () -> tensor<96xf16>
    %17 = "tfl.dequantize"(%16) : (tensor<96xf16>) -> tensor<96xf32>
    %18 = "tfl.pseudo_const"() {value = dense<"hex_value_removed_for_legibility_this_model_will_not_run_correctly_without_it"> : tensor<96x1x1x16xf16>} : () -> tensor<96x1x1x16xf16>
    %19 = "tfl.dequantize"(%18) : (tensor<96x1x1x16xf16>) -> tensor<96x1x1x16xf32>
    %20 = "tfl.conv_2d"(%15, %19, %17) {dilation_h_factor = 1 : i32, dilation_w_factor = 1 : i32, fused_activation_function = "RELU6", padding = "SAME", stride_h = 1 : i32, stride_w = 1 : i32} : (tensor<1x128x128x16xf32>, tensor<96x1x1x16xf32>, tensor<96xf32>) -> tensor<1x128x128x96xf32>
    %21 = "tfl.pseudo_const"() {value = dense<"hex_value_removed_for_legibility_this_model_will_not_run_correctly_without_it"> : tensor<1x3x3x96xf16>} : () -> tensor<1x3x3x96xf16>
    %22 = "tfl.dequantize"(%21) : (tensor<1x3x3x96xf16>) -> tensor<1x3x3x96xf32>
    %23 = "tfl.pseudo_const"() {value = dense<[… > : tensor<96xf16>} : () -> tensor<96xf16>
    %24 = "tfl.dequantize"(%23) : (tensor<96xf16>) -> tensor<96xf32>
    %25 = "tfl.depthwise_conv_2d"(%20, %22, %24) {depth_multiplier = 1 : i32, dilation_h_factor = 1 : i32, dilation_w_factor = 1 : i32, fused_activation_function = "RELU6", padding = "SAME", stride_h = 2 : i32, stride_w = 2 : i32} : (tensor<1x128x128x96xf32>, tensor<1x3x3x96xf32>, tensor<96xf32>) -> tensor<1x64x64x96xf32>
    %26 = "tfl.pseudo_const"() {value = dense<"hex_value_removed_for_legibility_this_model_will_not_run_correctly_without_it"> : tensor<24x1x1x96xf16>} : () -> tensor<24x1x1x96xf16>
    %27 = "tfl.dequantize"(%26) : (tensor<24x1x1x96xf16>) -> tensor<24x1x1x96xf32>
    %28 = "tfl.pseudo_const"() {value = dense<[… > : tensor<24xf16>} : () -> tensor<24xf16>
    %29 = "tfl.dequantize"(%28) : (tensor<24xf16>) -> tensor<24xf32>
    %30 = "tfl.conv_2d"(%25, %27, %29) {dilation_h_factor = 1 : i32, dilation_w_factor = 1 : i32, fused_activation_function = "NONE", padding = "SAME", stride_h = 1 : i32, stride_w = 1 : i32} : (tensor<1x64x64x96xf32>, tensor<24x1x1x96xf32>, tensor<24xf32>) -> tensor<1x64x64x24xf32>
    %31 = "tfl.pseudo_const"() {value = dense<"hex_value_removed_for_legibility_this_model_will_not_run_correctly_without_it"> : tensor<144x1x1x24xf16>} : () -> tensor<144x1x1x24xf16>
    %32 = "tfl.dequantize"(%31) : (tensor<144x1x1x24xf16>) -> tensor<144x1x1x24xf32>
    %33 = "tfl.pseudo_const"() {value = dense<"hex_value_removed_for_legibility_this_model_will_not_run_correctly_without_it"> : tensor<144xf16>} : () -> tensor<144xf16>
    %34 = "tfl.dequantize"(%33) : (tensor<144xf16>) -> tensor<144xf32>
    %35 = "tfl.conv_2d"(%30, %32, %34) {dilation_h_factor = 1 : i32, dilation_w_factor = 1 : i32, fused_activation_function = "RELU6", padding = "SAME", stride_h = 1 : i32, stride_w = 1 : i32} : (tensor<1x64x64x24xf32>, tensor<144x1x1x24xf32>, tensor<144xf32>) -> tensor<1x64x64x144xf32>
    %36 = "tfl.pseudo_const"() {value = dense<"hex_value_removed_for_legibility_this_model_will_not_run_correctly_without_it"> : tensor<144xf16>} : () -> tensor<144xf16>
    %37 = "tfl.dequantize"(%36) : (tensor<144xf16>) -> tensor<144xf32>
    %38 = "tfl.pseudo_const"() {value = dense<"hex_value_removed_for_legibility_this_model_will_not_run_correctly_without_it"> : tensor<1x3x3x144xf16>} : () -> tensor<1x3x3x144xf16>
    %39 = "tfl.dequantize"(%38) : (tensor<1x3x3x144xf16>) -> tensor<1x3x3x144xf32>
    %40 = "tfl.depthwise_conv_2d"(%35, %39, %37) {depth_multiplier = 1 : i32, dilation_h_factor = 1 : i32, dilation_w_factor = 1 : i32, fused_activation_function = "RELU6", padding = "SAME", stride_h = 1 : i32, stride_w = 1 : i32} : (tensor<1x64x64x144xf32>, tensor<1x3x3x144xf32>, tensor<144xf32>) -> tensor<1x64x64x144xf32>
    %41 = "tfl.pseudo_const"() {value = dense<"hex_value_removed_for_legibility_this_model_will_not_run_correctly_without_it"> : tensor<24x1x1x144xf16>} : () -> tensor<24x1x1x144xf16>
    %42 = "tfl.dequantize"(%41) : (tensor<24x1x1x144xf16>) -> tensor<24x1x1x144xf32>
    %43 = "tfl.pseudo_const"() {value = dense<[… > : tensor<24xf16>} : () -> tensor<24xf16>
    %44 = "tfl.dequantize"(%43) : (tensor<24xf16>) -> tensor<24xf32>
    %45 = "tfl.conv_2d"(%40, %42, %44) {dilation_h_factor = 1 : i32, dilation_w_factor = 1 : i32, fused_activation_function = "NONE", padding = "SAME", stride_h = 1 : i32, stride_w = 1 : i32} : (tensor<1x64x64x144xf32>, tensor<24x1x1x144xf32>, tensor<24xf32>) -> tensor<1x64x64x24xf32>
    %46 = tfl.add %45, %30 {fused_activation_function = "NONE"} : tensor<1x64x64x24xf32>
    %47 = "tfl.pseudo_const"() {value = dense<"hex_value_removed_for_legibility_this_model_will_not_run_correctly_without_it"> : tensor<144xf16>} : () -> tensor<144xf16>
    %48 = "tfl.dequantize"(%47) : (tensor<144xf16>) -> tensor<144xf32>
    %49 = "tfl.pseudo_const"() {value = dense<"hex_value_removed_for_legibility_this_model_will_not_run_correctly_without_it"> : tensor<144x1x1x24xf16>} : () -> tensor<144x1x1x24xf16>
    %50 = "tfl.dequantize"(%49) : (tensor<144x1x1x24xf16>) -> tensor<144x1x1x24xf32>
    %51 = "tfl.conv_2d"(%46, %50, %48) {dilation_h_factor = 1 : i32, dilation_w_factor = 1 : i32, fused_activation_function = "RELU6", padding = "SAME", stride_h = 1 : i32, stride_w = 1 : i32} : (tensor<1x64x64x24xf32>, tensor<144x1x1x24xf32>, tensor<144xf32>) -> tensor<1x64x64x144xf32>
    %52 = "tfl.pseudo_const"() {value = dense<"hex_value_removed_for_legibility_this_model_will_not_run_correctly_without_it"> : tensor<1x3x3x144xf16>} : () -> tensor<1x3x3x144xf16>
    %53 = "tfl.dequantize"(%52) : (tensor<1x3x3x144xf16>) -> tensor<1x3x3x144xf32>
    %54 = "tfl.pseudo_const"() {value = dense<"hex_value_removed_for_legibility_this_model_will_not_run_correctly_without_it"> : tensor<144xf16>} : () -> tensor<144xf16>
    %55 = "tfl.dequantize"(%54) : (tensor<144xf16>) -> tensor<144xf32>
    %56 = "tfl.depthwise_conv_2d"(%51, %53, %55) {depth_multiplier = 1 : i32, dilation_h_factor = 1 : i32, dilation_w_factor = 1 : i32, fused_activation_function = "RELU6", padding = "SAME", stride_h = 2 : i32, stride_w = 2 : i32} : (tensor<1x64x64x144xf32>, tensor<1x3x3x144xf32>, tensor<144xf32>) -> tensor<1x32x32x144xf32>
    %57 = "tfl.pseudo_const"() {value = dense<"hex_value_removed_for_legibility_this_model_will_not_run_correctly_without_it"> : tensor<32x1x1x144xf16>} : () -> tensor<32x1x1x144xf16>
    %58 = "tfl.dequantize"(%57) : (tensor<32x1x1x144xf16>) -> tensor<32x1x1x144xf32>
    %59 = "tfl.pseudo_const"() {value = dense<[… > : tensor<32xf16>} : () -> tensor<32xf16>
    %60 = "tfl.dequantize"(%59) : (tensor<32xf16>) -> tensor<32xf32>
    %61 = "tfl.conv_2d"(%56, %58, %60) {dilation_h_factor = 1 : i32, dilation_w_factor = 1 : i32, fused_activation_function = "NONE", padding = "SAME", stride_h = 1 : i32, stride_w = 1 : i32} : (tensor<1x32x32x144xf32>, tensor<32x1x1x144xf32>, tensor<32xf32>) -> tensor<1x32x32x32xf32>
    %62 = "tfl.pseudo_const"() {value = dense<"hex_value_removed_for_legibility_this_model_will_not_run_correctly_without_it"> : tensor<192xf16>} : () -> tensor<192xf16>
    %63 = "tfl.dequantize"(%62) : (tensor<192xf16>) -> tensor<192xf32>
    %64 = "tfl.pseudo_const"() {value = dense<"hex_value_removed_for_legibility_this_model_will_not_run_correctly_without_it"> : tensor<192x1x1x32xf16>} : () -> tensor<192x1x1x32xf16>
    %65 = "tfl.dequantize"(%64) : (tensor<192x1x1x32xf16>) -> tensor<192x1x1x32xf32>
    %66 = "tfl.conv_2d"(%61, %65, %63) {dilation_h_factor = 1 : i32, dilation_w_factor = 1 : i32, fused_activation_function = "RELU6", padding = "SAME", stride_h = 1 : i32, stride_w = 1 : i32} : (tensor<1x32x32x32xf32>, tensor<192x1x1x32xf32>, tensor<192xf32>) -> tensor<1x32x32x192xf32>
    %67 = "tfl.pseudo_const"() {value = dense<"hex_value_removed_for_legibility_this_model_will_not_run_correctly_without_it"> : tensor<1x3x3x192xf16>} : () -> tensor<1x3x3x192xf16>
    %68 = "tfl.dequantize"(%67) : (tensor<1x3x3x192xf16>) -> tensor<1x3x3x192xf32>
    %69 = "tfl.pseudo_const"() {value = dense<"hex_value_removed_for_legibility_this_model_will_not_run_correctly_without_it"> : tensor<192xf16>} : () -> tensor<192xf16>
    %70 = "tfl.dequantize"(%69) : (tensor<192xf16>) -> tensor<192xf32>
    %71 = "tfl.depthwise_conv_2d"(%66, %68, %70) {depth_multiplier = 1 : i32, dilation_h_factor = 1 : i32, dilation_w_factor = 1 : i32, fused_activation_function = "RELU6", padding = "SAME", stride_h = 1 : i32, stride_w = 1 : i32} : (tensor<1x32x32x192xf32>, tensor<1x3x3x192xf32>, tensor<192xf32>) -> tensor<1x32x32x192xf32>
    %72 = "tfl.pseudo_const"() {value = dense<"hex_value_removed_for_legibility_this_model_will_not_run_correctly_without_it"> : tensor<32x1x1x192xf16>} : () -> tensor<32x1x1x192xf16>
    %73 = "tfl.dequantize"(%72) : (tensor<32x1x1x192xf16>) -> tensor<32x1x1x192xf32>
    %74 = "tfl.pseudo_const"() {value = dense<[… > : tensor<32xf16>} : () -> tensor<32xf16>
    %75 = "tfl.dequantize"(%74) : (tensor<32xf16>) -> tensor<32xf32>
    %76 = "tfl.conv_2d"(%71, %73, %75) {dilation_h_factor = 1 : i32, dilation_w_factor = 1 : i32, fused_activation_function = "NONE", padding = "SAME", stride_h = 1 : i32, stride_w = 1 : i32} : (tensor<1x32x32x192xf32>, tensor<32x1x1x192xf32>, tensor<32xf32>) -> tensor<1x32x32x32xf32>
    %77 = tfl.add %76, %61 {fused_activation_function = "NONE"} : tensor<1x32x32x32xf32>
    %78 = "tfl.pseudo_const"() {value = dense<"hex_value_removed_for_legibility_this_model_will_not_run_correctly_without_it"> : tensor<192xf16>} : () -> tensor<192xf16>
    %79 = "tfl.dequantize"(%78) : (tensor<192xf16>) -> tensor<192xf32>
    %80 = "tfl.pseudo_const"() {value = dense<"hex_value_removed_for_legibility_this_model_will_not_run_correctly_without_it"> : tensor<192x1x1x32xf16>} : () -> tensor<192x1x1x32xf16>
    %81 = "tfl.dequantize"(%80) : (tensor<192x1x1x32xf16>) -> tensor<192x1x1x32xf32>
    %82 = "tfl.conv_2d"(%77, %81, %79) {dilation_h_factor = 1 : i32, dilation_w_factor = 1 : i32, fused_activation_function = "RELU6", padding = "SAME", stride_h = 1 : i32, stride_w = 1 : i32} : (tensor<1x32x32x32xf32>, tensor<192x1x1x32xf32>, tensor<192xf32>) -> tensor<1x32x32x192xf32>
    %83 = "tfl.pseudo_const"() {value = dense<"hex_value_removed_for_legibility_this_model_will_not_run_correctly_without_it"> : tensor<1x3x3x192xf16>} : () -> tensor<1x3x3x192xf16>
    %84 = "tfl.dequantize"(%83) : (tensor<1x3x3x192xf16>) -> tensor<1x3x3x192xf32>
    %85 = "tfl.pseudo_const"() {value = dense<"hex_value_removed_for_legibility_this_model_will_not_run_correctly_without_it"> : tensor<192xf16>} : () -> tensor<192xf16>
    %86 = "tfl.dequantize"(%85) : (tensor<192xf16>) -> tensor<192xf32>
    %87 = "tfl.depthwise_conv_2d"(%82, %84, %86) {depth_multiplier = 1 : i32, dilation_h_factor = 1 : i32, dilation_w_factor = 1 : i32, fused_activation_function = "RELU6", padding = "SAME", stride_h = 1 : i32, stride_w = 1 : i32} : (tensor<1x32x32x192xf32>, tensor<1x3x3x192xf32>, tensor<192xf32>) -> tensor<1x32x32x192xf32>
    %88 = "tfl.pseudo_const"() {value = dense<[… > : tensor<32xf16>} : () -> tensor<32xf16>
    %89 = "tfl.dequantize"(%88) : (tensor<32xf16>) -> tensor<32xf32>
    %90 = "tfl.pseudo_const"() {value = dense<"hex_value_removed_for_legibility_this_model_will_not_run_correctly_without_it"> : tensor<32x1x1x192xf16>} : () -> tensor<32x1x1x192xf16>
    %91 = "tfl.dequantize"(%90) : (tensor<32x1x1x192xf16>) -> tensor<32x1x1x192xf32>
    %92 = "tfl.conv_2d"(%87, %91, %89) {dilation_h_factor = 1 : i32, dilation_w_factor = 1 : i32, fused_activation_function = "NONE", padding = "SAME", stride_h = 1 : i32, stride_w = 1 : i32} : (tensor<1x32x32x192xf32>, tensor<32x1x1x192xf32>, tensor<32xf32>) -> tensor<1x32x32x32xf32>
    %93 = tfl.add %92, %77 {fused_activation_function = "NONE"} : tensor<1x32x32x32xf32>
    %94 = "tfl.pseudo_const"() {value = dense<"hex_value_removed_for_legibility_this_model_will_not_run_correctly_without_it"> : tensor<192x1x1x32xf16>} : () -> tensor<192x1x1x32xf16>
    %95 = "tfl.dequantize"(%94) : (tensor<192x1x1x32xf16>) -> tensor<192x1x1x32xf32>
    %96 = "tfl.pseudo_const"() {value = dense<"hex_value_removed_for_legibility_this_model_will_not_run_correctly_without_it"> : tensor<192xf16>} : () -> tensor<192xf16>
    %97 = "tfl.dequantize"(%96) : (tensor<192xf16>) -> tensor<192xf32>
    %98 = "tfl.conv_2d"(%93, %95, %97) {dilation_h_factor = 1 : i32, dilation_w_factor = 1 : i32, fused_activation_function = "RELU6", padding = "SAME", stride_h = 1 : i32, stride_w = 1 : i32} : (tensor<1x32x32x32xf32>, tensor<192x1x1x32xf32>, tensor<192xf32>) -> tensor<1x32x32x192xf32>
    %99 = "tfl.pseudo_const"() {value = dense<"hex_value_removed_for_legibility_this_model_will_not_run_correctly_without_it"> : tensor<1x3x3x192xf16>} : () -> tensor<1x3x3x192xf16>
    %100 = "tfl.dequantize"(%99) : (tensor<1x3x3x192xf16>) -> tensor<1x3x3x192xf32>
    %101 = "tfl.pseudo_const"() {value = dense<"hex_value_removed_for_legibility_this_model_will_not_run_correctly_without_it"> : tensor<192xf16>} : () -> tensor<192xf16>
    %102 = "tfl.dequantize"(%101) : (tensor<192xf16>) -> tensor<192xf32>
    %103 = "tfl.depthwise_conv_2d"(%98, %100, %102) {depth_multiplier = 1 : i32, dilation_h_factor = 1 : i32, dilation_w_factor = 1 : i32, fused_activation_function = "RELU6", padding = "SAME", stride_h = 2 : i32, stride_w = 2 : i32} : (tensor<1x32x32x192xf32>, tensor<1x3x3x192xf32>, tensor<192xf32>) -> tensor<1x16x16x192xf32>
    %104 = "tfl.pseudo_const"() {value = dense<"hex_value_removed_for_legibility_this_model_will_not_run_correctly_without_it"> : tensor<64x1x1x192xf16>} : () -> tensor<64x1x1x192xf16>
    %105 = "tfl.dequantize"(%104) : (tensor<64x1x1x192xf16>) -> tensor<64x1x1x192xf32>
    %106 = "tfl.pseudo_const"() {value = dense<[… > : tensor<64xf16>} : () -> tensor<64xf16>
    %107 = "tfl.dequantize"(%106) : (tensor<64xf16>) -> tensor<64xf32>
    %108 = "tfl.conv_2d"(%103, %105, %107) {dilation_h_factor = 1 : i32, dilation_w_factor = 1 : i32, fused_activation_function = "NONE", padding = "SAME", stride_h = 1 : i32, stride_w = 1 : i32} : (tensor<1x16x16x192xf32>, tensor<64x1x1x192xf32>, tensor<64xf32>) -> tensor<1x16x16x64xf32>
    %109 = "tfl.pseudo_const"() {value = dense<"hex_value_removed_for_legibility_this_model_will_not_run_correctly_without_it"> : tensor<384x1x1x64xf16>} : () -> tensor<384x1x1x64xf16>
    %110 = "tfl.dequantize"(%109) : (tensor<384x1x1x64xf16>) -> tensor<384x1x1x64xf32>
    %111 = "tfl.pseudo_const"() {value = dense<"hex_value_removed_for_legibility_this_model_will_not_run_correctly_without_it"> : tensor<384xf16>} : () -> tensor<384xf16>
    %112 = "tfl.dequantize"(%111) : (tensor<384xf16>) -> tensor<384xf32>
    %113 = "tfl.conv_2d"(%108, %110, %112) {dilation_h_factor = 1 : i32, dilation_w_factor = 1 : i32, fused_activation_function = "RELU6", padding = "SAME", stride_h = 1 : i32, stride_w = 1 : i32} : (tensor<1x16x16x64xf32>, tensor<384x1x1x64xf32>, tensor<384xf32>) -> tensor<1x16x16x384xf32>
    %114 = "tfl.pseudo_const"() {value = dense<"hex_value_removed_for_legibility_this_model_will_not_run_correctly_without_it"> : tensor<1x3x3x384xf16>} : () -> tensor<1x3x3x384xf16>
    %115 = "tfl.dequantize"(%114) : (tensor<1x3x3x384xf16>) -> tensor<1x3x3x384xf32>
    %116 = "tfl.pseudo_const"() {value = dense<"hex_value_removed_for_legibility_this_model_will_not_run_correctly_without_it"> : tensor<384xf16>} : () -> tensor<384xf16>
    %117 = "tfl.dequantize"(%116) : (tensor<384xf16>) -> tensor<384xf32>
    %118 = "tfl.depthwise_conv_2d"(%113, %115, %117) {depth_multiplier = 1 : i32, dilation_h_factor = 1 : i32, dilation_w_factor = 1 : i32, fused_activation_function = "RELU6", padding = "SAME", stride_h = 1 : i32, stride_w = 1 : i32} : (tensor<1x16x16x384xf32>, tensor<1x3x3x384xf32>, tensor<384xf32>) -> tensor<1x16x16x384xf32>
    %119 = "tfl.pseudo_const"() {value = dense<"hex_value_removed_for_legibility_this_model_will_not_run_correctly_without_it"> : tensor<64x1x1x384xf16>} : () -> tensor<64x1x1x384xf16>
    %120 = "tfl.dequantize"(%119) : (tensor<64x1x1x384xf16>) -> tensor<64x1x1x384xf32>
    %121 = "tfl.pseudo_const"() {value = dense<[… > : tensor<64xf16>} : () -> tensor<64xf16>
    %122 = "tfl.dequantize"(%121) : (tensor<64xf16>) -> tensor<64xf32>
    %123 = "tfl.conv_2d"(%118, %120, %122) {dilation_h_factor = 1 : i32, dilation_w_factor = 1 : i32, fused_activation_function = "NONE", padding = "SAME", stride_h = 1 : i32, stride_w = 1 : i32} : (tensor<1x16x16x384xf32>, tensor<64x1x1x384xf32>, tensor<64xf32>) -> tensor<1x16x16x64xf32>
    %124 = tfl.add %123, %108 {fused_activation_function = "NONE"} : tensor<1x16x16x64xf32>
    %125 = "tfl.pseudo_const"() {value = dense<"hex_value_removed_for_legibility_this_model_will_not_run_correctly_without_it"> : tensor<384x1x1x64xf16>} : () -> tensor<384x1x1x64xf16>
    %126 = "tfl.dequantize"(%125) : (tensor<384x1x1x64xf16>) -> tensor<384x1x1x64xf32>
    %127 = "tfl.pseudo_const"() {value = dense<"hex_value_removed_for_legibility_this_model_will_not_run_correctly_without_it"> : tensor<384xf16>} : () -> tensor<384xf16>
    %128 = "tfl.dequantize"(%127) : (tensor<384xf16>) -> tensor<384xf32>
    %129 = "tfl.conv_2d"(%124, %126, %128) {dilation_h_factor = 1 : i32, dilation_w_factor = 1 : i32, fused_activation_function = "RELU6", padding = "SAME", stride_h = 1 : i32, stride_w = 1 : i32} : (tensor<1x16x16x64xf32>, tensor<384x1x1x64xf32>, tensor<384xf32>) -> tensor<1x16x16x384xf32>
    %130 = "tfl.pseudo_const"() {value = dense<"hex_value_removed_for_legibility_this_model_will_not_run_correctly_without_it"> : tensor<1x3x3x384xf16>} : () -> tensor<1x3x3x384xf16>
    %131 = "tfl.dequantize"(%130) : (tensor<1x3x3x384xf16>) -> tensor<1x3x3x384xf32>
    %132 = "tfl.pseudo_const"() {value = dense<"hex_value_removed_for_legibility_this_model_will_not_run_correctly_without_it"> : tensor<384xf16>} : () -> tensor<384xf16>
    %133 = "tfl.dequantize"(%132) : (tensor<384xf16>) -> tensor<384xf32>
    %134 = "tfl.depthwise_conv_2d"(%129, %131, %133) {depth_multiplier = 1 : i32, dilation_h_factor = 1 : i32, dilation_w_factor = 1 : i32, fused_activation_function = "RELU6", padding = "SAME", stride_h = 1 : i32, stride_w = 1 : i32} : (tensor<1x16x16x384xf32>, tensor<1x3x3x384xf32>, tensor<384xf32>) -> tensor<1x16x16x384xf32>
    %135 = "tfl.pseudo_const"() {value = dense<"hex_value_removed_for_legibility_this_model_will_not_run_correctly_without_it"> : tensor<64x1x1x384xf16>} : () -> tensor<64x1x1x384xf16>
    %136 = "tfl.dequantize"(%135) : (tensor<64x1x1x384xf16>) -> tensor<64x1x1x384xf32>
    %137 = "tfl.pseudo_const"() {value = dense<[… > : tensor<64xf16>} : () -> tensor<64xf16>
    %138 = "tfl.dequantize"(%137) : (tensor<64xf16>) -> tensor<64xf32>
    %139 = "tfl.conv_2d"(%134, %136, %138) {dilation_h_factor = 1 : i32, dilation_w_factor = 1 : i32, fused_activation_function = "NONE", padding = "SAME", stride_h = 1 : i32, stride_w = 1 : i32} : (tensor<1x16x16x384xf32>, tensor<64x1x1x384xf32>, tensor<64xf32>) -> tensor<1x16x16x64xf32>
    %140 = tfl.add %139, %124 {fused_activation_function = "NONE"} : tensor<1x16x16x64xf32>
    %141 = "tfl.pseudo_const"() {value = dense<"hex_value_removed_for_legibility_this_model_will_not_run_correctly_without_it"> : tensor<384xf16>} : () -> tensor<384xf16>
    %142 = "tfl.dequantize"(%141) : (tensor<384xf16>) -> tensor<384xf32>
    %143 = "tfl.pseudo_const"() {value = dense<"hex_value_removed_for_legibility_this_model_will_not_run_correctly_without_it"> : tensor<384x1x1x64xf16>} : () -> tensor<384x1x1x64xf16>
    %144 = "tfl.dequantize"(%143) : (tensor<384x1x1x64xf16>) -> tensor<384x1x1x64xf32>
    %145 = "tfl.conv_2d"(%140, %144, %142) {dilation_h_factor = 1 : i32, dilation_w_factor = 1 : i32, fused_activation_function = "RELU6", padding = "SAME", stride_h = 1 : i32, stride_w = 1 : i32} : (tensor<1x16x16x64xf32>, tensor<384x1x1x64xf32>, tensor<384xf32>) -> tensor<1x16x16x384xf32>
    %146 = "tfl.pseudo_const"() {value = dense<"hex_value_removed_for_legibility_this_model_will_not_run_correctly_without_it"> : tensor<1x3x3x384xf16>} : () -> tensor<1x3x3x384xf16>
    %147 = "tfl.dequantize"(%146) : (tensor<1x3x3x384xf16>) -> tensor<1x3x3x384xf32>
    %148 = "tfl.pseudo_const"() {value = dense<"hex_value_removed_for_legibility_this_model_will_not_run_correctly_without_it"> : tensor<384xf16>} : () -> tensor<384xf16>
    %149 = "tfl.dequantize"(%148) : (tensor<384xf16>) -> tensor<384xf32>
    %150 = "tfl.depthwise_conv_2d"(%145, %147, %149) {depth_multiplier = 1 : i32, dilation_h_factor = 1 : i32, dilation_w_factor = 1 : i32, fused_activation_function = "RELU6", padding = "SAME", stride_h = 1 : i32, stride_w = 1 : i32} : (tensor<1x16x16x384xf32>, tensor<1x3x3x384xf32>, tensor<384xf32>) -> tensor<1x16x16x384xf32>
    %151 = "tfl.pseudo_const"() {value = dense<"hex_value_removed_for_legibility_this_model_will_not_run_correctly_without_it"> : tensor<64x1x1x384xf16>} : () -> tensor<64x1x1x384xf16>
    %152 = "tfl.dequantize"(%151) : (tensor<64x1x1x384xf16>) -> tensor<64x1x1x384xf32>
    %153 = "tfl.pseudo_const"() {value = dense<[… > : tensor<64xf16>} : () -> tensor<64xf16>
    %154 = "tfl.dequantize"(%153) : (tensor<64xf16>) -> tensor<64xf32>
    %155 = "tfl.conv_2d"(%150, %152, %154) {dilation_h_factor = 1 : i32, dilation_w_factor = 1 : i32, fused_activation_function = "NONE", padding = "SAME", stride_h = 1 : i32, stride_w = 1 : i32} : (tensor<1x16x16x384xf32>, tensor<64x1x1x384xf32>, tensor<64xf32>) -> tensor<1x16x16x64xf32>
    %156 = tfl.add %155, %140 {fused_activation_function = "NONE"} : tensor<1x16x16x64xf32>
    %157 = "tfl.pseudo_const"() {value = dense<"hex_value_removed_for_legibility_this_model_will_not_run_correctly_without_it"> : tensor<384xf16>} : () -> tensor<384xf16>
    %158 = "tfl.dequantize"(%157) : (tensor<384xf16>) -> tensor<384xf32>
    %159 = "tfl.pseudo_const"() {value = dense<"hex_value_removed_for_legibility_this_model_will_not_run_correctly_without_it"> : tensor<384x1x1x64xf16>} : () -> tensor<384x1x1x64xf16>
    %160 = "tfl.dequantize"(%159) : (tensor<384x1x1x64xf16>) -> tensor<384x1x1x64xf32>
    %161 = "tfl.conv_2d"(%156, %160, %158) {dilation_h_factor = 1 : i32, dilation_w_factor = 1 : i32, fused_activation_function = "RELU6", padding = "SAME", stride_h = 1 : i32, stride_w = 1 : i32} : (tensor<1x16x16x64xf32>, tensor<384x1x1x64xf32>, tensor<384xf32>) -> tensor<1x16x16x384xf32>
    %162 = "tfl.pseudo_const"() {value = dense<"hex_value_removed_for_legibility_this_model_will_not_run_correctly_without_it"> : tensor<1x3x3x384xf16>} : () -> tensor<1x3x3x384xf16>
    %163 = "tfl.dequantize"(%162) : (tensor<1x3x3x384xf16>) -> tensor<1x3x3x384xf32>
    %164 = "tfl.pseudo_const"() {value = dense<"hex_value_removed_for_legibility_this_model_will_not_run_correctly_without_it"> : tensor<384xf16>} : () -> tensor<384xf16>
    %165 = "tfl.dequantize"(%164) : (tensor<384xf16>) -> tensor<384xf32>
    %166 = "tfl.depthwise_conv_2d"(%161, %163, %165) {depth_multiplier = 1 : i32, dilation_h_factor = 1 : i32, dilation_w_factor = 1 : i32, fused_activation_function = "RELU6", padding = "SAME", stride_h = 1 : i32, stride_w = 1 : i32} : (tensor<1x16x16x384xf32>, tensor<1x3x3x384xf32>, tensor<384xf32>) -> tensor<1x16x16x384xf32>
    %167 = "tfl.pseudo_const"() {value = dense<[… > : tensor<96xf16>} : () -> tensor<96xf16>
    %168 = "tfl.dequantize"(%167) : (tensor<96xf16>) -> tensor<96xf32>
    %169 = "tfl.pseudo_const"() {value = dense<"hex_value_removed_for_legibility_this_model_will_not_run_correctly_without_it"> : tensor<96x1x1x384xf16>} : () -> tensor<96x1x1x384xf16>
    %170 = "tfl.dequantize"(%169) : (tensor<96x1x1x384xf16>) -> tensor<96x1x1x384xf32>
    %171 = "tfl.conv_2d"(%166, %170, %168) {dilation_h_factor = 1 : i32, dilation_w_factor = 1 : i32, fused_activation_function = "NONE", padding = "SAME", stride_h = 1 : i32, stride_w = 1 : i32} : (tensor<1x16x16x384xf32>, tensor<96x1x1x384xf32>, tensor<96xf32>) -> tensor<1x16x16x96xf32>
    %172 = "tfl.pseudo_const"() {value = dense<"hex_value_removed_for_legibility_this_model_will_not_run_correctly_without_it"> : tensor<576xf16>} : () -> tensor<576xf16>
    %173 = "tfl.dequantize"(%172) : (tensor<576xf16>) -> tensor<576xf32>
    %174 = "tfl.pseudo_const"() {value = dense<"hex_value_removed_for_legibility_this_model_will_not_run_correctly_without_it"> : tensor<576x1x1x96xf16>} : () -> tensor<576x1x1x96xf16>
    %175 = "tfl.dequantize"(%174) : (tensor<576x1x1x96xf16>) -> tensor<576x1x1x96xf32>
    %176 = "tfl.conv_2d"(%171, %175, %173) {dilation_h_factor = 1 : i32, dilation_w_factor = 1 : i32, fused_activation_function = "RELU6", padding = "SAME", stride_h = 1 : i32, stride_w = 1 : i32} : (tensor<1x16x16x96xf32>, tensor<576x1x1x96xf32>, tensor<576xf32>) -> tensor<1x16x16x576xf32>
    %177 = "tfl.pseudo_const"() {value = dense<"hex_value_removed_for_legibility_this_model_will_not_run_correctly_without_it"> : tensor<576xf16>} : () -> tensor<576xf16>
    %178 = "tfl.dequantize"(%177) : (tensor<576xf16>) -> tensor<576xf32>
    %179 = "tfl.pseudo_const"() {value = dense<"hex_value_removed_for_legibility_this_model_will_not_run_correctly_without_it"> : tensor<1x3x3x576xf16>} : () -> tensor<1x3x3x576xf16>
    %180 = "tfl.dequantize"(%179) : (tensor<1x3x3x576xf16>) -> tensor<1x3x3x576xf32>
    %181 = "tfl.depthwise_conv_2d"(%176, %180, %178) {depth_multiplier = 1 : i32, dilation_h_factor = 1 : i32, dilation_w_factor = 1 : i32, fused_activation_function = "RELU6", padding = "SAME", stride_h = 1 : i32, stride_w = 1 : i32} : (tensor<1x16x16x576xf32>, tensor<1x3x3x576xf32>, tensor<576xf32>) -> tensor<1x16x16x576xf32>
    %182 = "tfl.pseudo_const"() {value = dense<"hex_value_removed_for_legibility_this_model_will_not_run_correctly_without_it"> : tensor<96x1x1x576xf16>} : () -> tensor<96x1x1x576xf16>
    %183 = "tfl.dequantize"(%182) : (tensor<96x1x1x576xf16>) -> tensor<96x1x1x576xf32>
    %184 = "tfl.pseudo_const"() {value = dense<[… > : tensor<96xf16>} : () -> tensor<96xf16>
    %185 = "tfl.dequantize"(%184) : (tensor<96xf16>) -> tensor<96xf32>
    %186 = "tfl.conv_2d"(%181, %183, %185) {dilation_h_factor = 1 : i32, dilation_w_factor = 1 : i32, fused_activation_function = "NONE", padding = "SAME", stride_h = 1 : i32, stride_w = 1 : i32} : (tensor<1x16x16x576xf32>, tensor<96x1x1x576xf32>, tensor<96xf32>) -> tensor<1x16x16x96xf32>
    %187 = tfl.add %186, %171 {fused_activation_function = "NONE"} : tensor<1x16x16x96xf32>
    %188 = "tfl.pseudo_const"() {value = dense<"hex_value_removed_for_legibility_this_model_will_not_run_correctly_without_it"> : tensor<576x1x1x96xf16>} : () -> tensor<576x1x1x96xf16>
    %189 = "tfl.dequantize"(%188) : (tensor<576x1x1x96xf16>) -> tensor<576x1x1x96xf32>
    %190 = "tfl.pseudo_const"() {value = dense<"hex_value_removed_for_legibility_this_model_will_not_run_correctly_without_it"> : tensor<576xf16>} : () -> tensor<576xf16>
    %191 = "tfl.dequantize"(%190) : (tensor<576xf16>) -> tensor<576xf32>
    %192 = "tfl.conv_2d"(%187, %189, %191) {dilation_h_factor = 1 : i32, dilation_w_factor = 1 : i32, fused_activation_function = "RELU6", padding = "SAME", stride_h = 1 : i32, stride_w = 1 : i32} : (tensor<1x16x16x96xf32>, tensor<576x1x1x96xf32>, tensor<576xf32>) -> tensor<1x16x16x576xf32>
    %193 = "tfl.pseudo_const"() {value = dense<"hex_value_removed_for_legibility_this_model_will_not_run_correctly_without_it"> : tensor<576xf16>} : () -> tensor<576xf16>
    %194 = "tfl.dequantize"(%193) : (tensor<576xf16>) -> tensor<576xf32>
    %195 = "tfl.pseudo_const"() {value = dense<"hex_value_removed_for_legibility_this_model_will_not_run_correctly_without_it"> : tensor<1x3x3x576xf16>} : () -> tensor<1x3x3x576xf16>
    %196 = "tfl.dequantize"(%195) : (tensor<1x3x3x576xf16>) -> tensor<1x3x3x576xf32>
    %197 = "tfl.depthwise_conv_2d"(%192, %196, %194) {depth_multiplier = 1 : i32, dilation_h_factor = 1 : i32, dilation_w_factor = 1 : i32, fused_activation_function = "RELU6", padding = "SAME", stride_h = 1 : i32, stride_w = 1 : i32} : (tensor<1x16x16x576xf32>, tensor<1x3x3x576xf32>, tensor<576xf32>) -> tensor<1x16x16x576xf32>
    %198 = "tfl.pseudo_const"() {value = dense<"hex_value_removed_for_legibility_this_model_will_not_run_correctly_without_it"> : tensor<96x1x1x576xf16>} : () -> tensor<96x1x1x576xf16>
    %199 = "tfl.dequantize"(%198) : (tensor<96x1x1x576xf16>) -> tensor<96x1x1x576xf32>
    %200 = "tfl.pseudo_const"() {value = dense<[… > : tensor<96xf16>} : () -> tensor<96xf16>
    %201 = "tfl.dequantize"(%200) : (tensor<96xf16>) -> tensor<96xf32>
    %202 = "tfl.conv_2d"(%197, %199, %201) {dilation_h_factor = 1 : i32, dilation_w_factor = 1 : i32, fused_activation_function = "NONE", padding = "SAME", stride_h = 1 : i32, stride_w = 1 : i32} : (tensor<1x16x16x576xf32>, tensor<96x1x1x576xf32>, tensor<96xf32>) -> tensor<1x16x16x96xf32>
    %203 = tfl.add %202, %187 {fused_activation_function = "NONE"} : tensor<1x16x16x96xf32>
    %204 = "tfl.pseudo_const"() {value = dense<"hex_value_removed_for_legibility_this_model_will_not_run_correctly_without_it"> : tensor<576x1x1x96xf16>} : () -> tensor<576x1x1x96xf16>
    %205 = "tfl.dequantize"(%204) : (tensor<576x1x1x96xf16>) -> tensor<576x1x1x96xf32>
    %206 = "tfl.pseudo_const"() {value = dense<"hex_value_removed_for_legibility_this_model_will_not_run_correctly_without_it"> : tensor<576xf16>} : () -> tensor<576xf16>
    %207 = "tfl.dequantize"(%206) : (tensor<576xf16>) -> tensor<576xf32>
    %208 = "tfl.conv_2d"(%203, %205, %207) {dilation_h_factor = 1 : i32, dilation_w_factor = 1 : i32, fused_activation_function = "RELU6", padding = "SAME", stride_h = 1 : i32, stride_w = 1 : i32} : (tensor<1x16x16x96xf32>, tensor<576x1x1x96xf32>, tensor<576xf32>) -> tensor<1x16x16x576xf32>
    %209 = "tfl.pseudo_const"() {value = dense<"hex_value_removed_for_legibility_this_model_will_not_run_correctly_without_it"> : tensor<1x3x3x576xf16>} : () -> tensor<1x3x3x576xf16>
    %210 = "tfl.dequantize"(%209) : (tensor<1x3x3x576xf16>) -> tensor<1x3x3x576xf32>
    %211 = "tfl.pseudo_const"() {value = dense<"hex_value_removed_for_legibility_this_model_will_not_run_correctly_without_it"> : tensor<576xf16>} : () -> tensor<576xf16>
    %212 = "tfl.dequantize"(%211) : (tensor<576xf16>) -> tensor<576xf32>
    %213 = "tfl.depthwise_conv_2d"(%208, %210, %212) {depth_multiplier = 1 : i32, dilation_h_factor = 1 : i32, dilation_w_factor = 1 : i32, fused_activation_function = "RELU6", padding = "SAME", stride_h = 2 : i32, stride_w = 2 : i32} : (tensor<1x16x16x576xf32>, tensor<1x3x3x576xf32>, tensor<576xf32>) -> tensor<1x8x8x576xf32>
    %214 = "tfl.pseudo_const"() {value = dense<"hex_value_removed_for_legibility_this_model_will_not_run_correctly_without_it"> : tensor<160x1x1x576xf16>} : () -> tensor<160x1x1x576xf16>
    %215 = "tfl.dequantize"(%214) : (tensor<160x1x1x576xf16>) -> tensor<160x1x1x576xf32>
    %216 = "tfl.pseudo_const"() {value = dense<"hex_value_removed_for_legibility_this_model_will_not_run_correctly_without_it"> : tensor<160xf16>} : () -> tensor<160xf16>
    %217 = "tfl.dequantize"(%216) : (tensor<160xf16>) -> tensor<160xf32>
    %218 = "tfl.conv_2d"(%213, %215, %217) {dilation_h_factor = 1 : i32, dilation_w_factor = 1 : i32, fused_activation_function = "NONE", padding = "SAME", stride_h = 1 : i32, stride_w = 1 : i32} : (tensor<1x8x8x576xf32>, tensor<160x1x1x576xf32>, tensor<160xf32>) -> tensor<1x8x8x160xf32>
    %219 = "tfl.pseudo_const"() {value = dense<"hex_value_removed_for_legibility_this_model_will_not_run_correctly_without_it"> : tensor<960xf16>} : () -> tensor<960xf16>
    %220 = "tfl.dequantize"(%219) : (tensor<960xf16>) -> tensor<960xf32>
    %221 = "tfl.pseudo_const"() {value = dense<"hex_value_removed_for_legibility_this_model_will_not_run_correctly_without_it"> : tensor<960x1x1x160xf16>} : () -> tensor<960x1x1x160xf16>
    %222 = "tfl.dequantize"(%221) : (tensor<960x1x1x160xf16>) -> tensor<960x1x1x160xf32>
    %223 = "tfl.conv_2d"(%218, %222, %220) {dilation_h_factor = 1 : i32, dilation_w_factor = 1 : i32, fused_activation_function = "RELU6", padding = "SAME", stride_h = 1 : i32, stride_w = 1 : i32} : (tensor<1x8x8x160xf32>, tensor<960x1x1x160xf32>, tensor<960xf32>) -> tensor<1x8x8x960xf32>
    %224 = "tfl.pseudo_const"() {value = dense<"hex_value_removed_for_legibility_this_model_will_not_run_correctly_without_it"> : tensor<1x3x3x960xf16>} : () -> tensor<1x3x3x960xf16>
    %225 = "tfl.dequantize"(%224) : (tensor<1x3x3x960xf16>) -> tensor<1x3x3x960xf32>
    %226 = "tfl.pseudo_const"() {value = dense<"hex_value_removed_for_legibility_this_model_will_not_run_correctly_without_it"> : tensor<960xf16>} : () -> tensor<960xf16>
    %227 = "tfl.dequantize"(%226) : (tensor<960xf16>) -> tensor<960xf32>
    %228 = "tfl.depthwise_conv_2d"(%223, %225, %227) {depth_multiplier = 1 : i32, dilation_h_factor = 1 : i32, dilation_w_factor = 1 : i32, fused_activation_function = "RELU6", padding = "SAME", stride_h = 1 : i32, stride_w = 1 : i32} : (tensor<1x8x8x960xf32>, tensor<1x3x3x960xf32>, tensor<960xf32>) -> tensor<1x8x8x960xf32>
    %229 = "tfl.pseudo_const"() {value = dense<"hex_value_removed_for_legibility_this_model_will_not_run_correctly_without_it"> : tensor<160x1x1x960xf16>} : () -> tensor<160x1x1x960xf16>
    %230 = "tfl.dequantize"(%229) : (tensor<160x1x1x960xf16>) -> tensor<160x1x1x960xf32>
    %231 = "tfl.pseudo_const"() {value = dense<"hex_value_removed_for_legibility_this_model_will_not_run_correctly_without_it"> : tensor<160xf16>} : () -> tensor<160xf16>
    %232 = "tfl.dequantize"(%231) : (tensor<160xf16>) -> tensor<160xf32>
    %233 = "tfl.conv_2d"(%228, %230, %232) {dilation_h_factor = 1 : i32, dilation_w_factor = 1 : i32, fused_activation_function = "NONE", padding = "SAME", stride_h = 1 : i32, stride_w = 1 : i32} : (tensor<1x8x8x960xf32>, tensor<160x1x1x960xf32>, tensor<160xf32>) -> tensor<1x8x8x160xf32>
    %234 = tfl.add %233, %218 {fused_activation_function = "NONE"} : tensor<1x8x8x160xf32>
    %235 = "tfl.pseudo_const"() {value = dense<"hex_value_removed_for_legibility_this_model_will_not_run_correctly_without_it"> : tensor<960xf16>} : () -> tensor<960xf16>
    %236 = "tfl.dequantize"(%235) : (tensor<960xf16>) -> tensor<960xf32>
    %237 = "tfl.pseudo_const"() {value = dense<"hex_value_removed_for_legibility_this_model_will_not_run_correctly_without_it"> : tensor<960x1x1x160xf16>} : () -> tensor<960x1x1x160xf16>
    %238 = "tfl.dequantize"(%237) : (tensor<960x1x1x160xf16>) -> tensor<960x1x1x160xf32>
    %239 = "tfl.conv_2d"(%234, %238, %236) {dilation_h_factor = 1 : i32, dilation_w_factor = 1 : i32, fused_activation_function = "RELU6", padding = "SAME", stride_h = 1 : i32, stride_w = 1 : i32} : (tensor<1x8x8x160xf32>, tensor<960x1x1x160xf32>, tensor<960xf32>) -> tensor<1x8x8x960xf32>
    %240 = "tfl.pseudo_const"() {value = dense<"hex_value_removed_for_legibility_this_model_will_not_run_correctly_without_it"> : tensor<1x3x3x960xf16>} : () -> tensor<1x3x3x960xf16>
    %241 = "tfl.dequantize"(%240) : (tensor<1x3x3x960xf16>) -> tensor<1x3x3x960xf32>
    %242 = "tfl.pseudo_const"() {value = dense<"hex_value_removed_for_legibility_this_model_will_not_run_correctly_without_it"> : tensor<960xf16>} : () -> tensor<960xf16>
    %243 = "tfl.dequantize"(%242) : (tensor<960xf16>) -> tensor<960xf32>
    %244 = "tfl.depthwise_conv_2d"(%239, %241, %243) {depth_multiplier = 1 : i32, dilation_h_factor = 1 : i32, dilation_w_factor = 1 : i32, fused_activation_function = "RELU6", padding = "SAME", stride_h = 1 : i32, stride_w = 1 : i32} : (tensor<1x8x8x960xf32>, tensor<1x3x3x960xf32>, tensor<960xf32>) -> tensor<1x8x8x960xf32>
    %245 = "tfl.pseudo_const"() {value = dense<"hex_value_removed_for_legibility_this_model_will_not_run_correctly_without_it"> : tensor<160xf16>} : () -> tensor<160xf16>
    %246 = "tfl.dequantize"(%245) : (tensor<160xf16>) -> tensor<160xf32>
    %247 = "tfl.pseudo_const"() {value = dense<"hex_value_removed_for_legibility_this_model_will_not_run_correctly_without_it"> : tensor<160x1x1x960xf16>} : () -> tensor<160x1x1x960xf16>
    %248 = "tfl.dequantize"(%247) : (tensor<160x1x1x960xf16>) -> tensor<160x1x1x960xf32>
    %249 = "tfl.conv_2d"(%244, %248, %246) {dilation_h_factor = 1 : i32, dilation_w_factor = 1 : i32, fused_activation_function = "NONE", padding = "SAME", stride_h = 1 : i32, stride_w = 1 : i32} : (tensor<1x8x8x960xf32>, tensor<160x1x1x960xf32>, tensor<160xf32>) -> tensor<1x8x8x160xf32>
    %250 = tfl.add %249, %234 {fused_activation_function = "NONE"} : tensor<1x8x8x160xf32>
    %251 = "tfl.pseudo_const"() {value = dense<"hex_value_removed_for_legibility_this_model_will_not_run_correctly_without_it"> : tensor<960xf16>} : () -> tensor<960xf16>
    %252 = "tfl.dequantize"(%251) : (tensor<960xf16>) -> tensor<960xf32>
    %253 = "tfl.pseudo_const"() {value = dense<"hex_value_removed_for_legibility_this_model_will_not_run_correctly_without_it"> : tensor<960x1x1x160xf16>} : () -> tensor<960x1x1x160xf16>
    %254 = "tfl.dequantize"(%253) : (tensor<960x1x1x160xf16>) -> tensor<960x1x1x160xf32>
    %255 = "tfl.conv_2d"(%250, %254, %252) {dilation_h_factor = 1 : i32, dilation_w_factor = 1 : i32, fused_activation_function = "RELU6", padding = "SAME", stride_h = 1 : i32, stride_w = 1 : i32} : (tensor<1x8x8x160xf32>, tensor<960x1x1x160xf32>, tensor<960xf32>) -> tensor<1x8x8x960xf32>
    %256 = "tfl.pseudo_const"() {value = dense<"hex_value_removed_for_legibility_this_model_will_not_run_correctly_without_it"> : tensor<960xf16>} : () -> tensor<960xf16>
    %257 = "tfl.dequantize"(%256) : (tensor<960xf16>) -> tensor<960xf32>
    %258 = "tfl.pseudo_const"() {value = dense<"hex_value_removed_for_legibility_this_model_will_not_run_correctly_without_it"> : tensor<1x3x3x960xf16>} : () -> tensor<1x3x3x960xf16>
    %259 = "tfl.dequantize"(%258) : (tensor<1x3x3x960xf16>) -> tensor<1x3x3x960xf32>
    %260 = "tfl.depthwise_conv_2d"(%255, %259, %257) {depth_multiplier = 1 : i32, dilation_h_factor = 1 : i32, dilation_w_factor = 1 : i32, fused_activation_function = "RELU6", padding = "SAME", stride_h = 1 : i32, stride_w = 1 : i32} : (tensor<1x8x8x960xf32>, tensor<1x3x3x960xf32>, tensor<960xf32>) -> tensor<1x8x8x960xf32>
    %261 = "tfl.pseudo_const"() {value = dense<"hex_value_removed_for_legibility_this_model_will_not_run_correctly_without_it"> : tensor<320x1x1x960xf16>} : () -> tensor<320x1x1x960xf16>
    %262 = "tfl.dequantize"(%261) : (tensor<320x1x1x960xf16>) -> tensor<320x1x1x960xf32>
    %263 = "tfl.pseudo_const"() {value = dense<"hex_value_removed_for_legibility_this_model_will_not_run_correctly_without_it"> : tensor<320xf16>} : () -> tensor<320xf16>
    %264 = "tfl.dequantize"(%263) : (tensor<320xf16>) -> tensor<320xf32>
    %265 = "tfl.conv_2d"(%260, %262, %264) {dilation_h_factor = 1 : i32, dilation_w_factor = 1 : i32, fused_activation_function = "NONE", padding = "SAME", stride_h = 1 : i32, stride_w = 1 : i32} : (tensor<1x8x8x960xf32>, tensor<320x1x1x960xf32>, tensor<320xf32>) -> tensor<1x8x8x320xf32>
    %266 = "tfl.pseudo_const"() {value = dense<"hex_value_removed_for_legibility_this_model_will_not_run_correctly_without_it"> : tensor<1280xf16>} : () -> tensor<1280xf16>
    %267 = "tfl.dequantize"(%266) : (tensor<1280xf16>) -> tensor<1280xf32>
    %268 = "tfl.pseudo_const"() {value = dense<"hex_value_removed_for_legibility_this_model_will_not_run_correctly_without_it"> : tensor<1280x1x1x320xf16>} : () -> tensor<1280x1x1x320xf16>
    %269 = "tfl.dequantize"(%268) : (tensor<1280x1x1x320xf16>) -> tensor<1280x1x1x320xf32>
    %270 = "tfl.conv_2d"(%265, %269, %267) {dilation_h_factor = 1 : i32, dilation_w_factor = 1 : i32, fused_activation_function = "RELU6", padding = "SAME", stride_h = 1 : i32, stride_w = 1 : i32} : (tensor<1x8x8x320xf32>, tensor<1280x1x1x320xf32>, tensor<1280xf32>) -> tensor<1x8x8x1280xf32>
    %271 = "tfl.pseudo_const"() {value = dense<[1, 2]> : tensor<2xi32>} : () -> tensor<2xi32>
    %272 = "tfl.mean"(%270, %271) {keep_dims = true} : (tensor<1x8x8x1280xf32>, tensor<2xi32>) -> tensor<1x1x1x1280xf32>
    %273 = "tfl.pseudo_const"() {value = dense<0.000000e+00> : tensor<100xf16>} : () -> tensor<100xf16>
    %274 = "tfl.dequantize"(%273) : (tensor<100xf16>) -> tensor<100xf32>
    %275 = "tfl.pseudo_const"() {value = dense<"hex_value_removed_for_legibility_this_model_will_not_run_correctly_without_it"> : tensor<100x1x1x1280xf16>} : () -> tensor<100x1x1x1280xf16>
    %276 = "tfl.dequantize"(%275) : (tensor<100x1x1x1280xf16>) -> tensor<100x1x1x1280xf32>
    %277 = "tfl.conv_2d"(%272, %276, %274) {dilation_h_factor = 1 : i32, dilation_w_factor = 1 : i32, fused_activation_function = "NONE", padding = "SAME", stride_h = 1 : i32, stride_w = 1 : i32} : (tensor<1x1x1x1280xf32>, tensor<100x1x1x1280xf32>, tensor<100xf32>) -> tensor<1x1x1x100xf32>
    return %277 : tensor<1x1x1x100xf32>
  }
}