

module attributes {tfl.description = "TOCO Converted.", tfl.schema_version = 3 : i32} {
  func @main(%arg0: tensor<1x384x384x3xf32>, %arg1: tensor<1x1x1x100xf32>) -> tensor<1x384x384x3xf32> attributes {tf.entry_function = {inputs = "content_image,mobilenet_conv/Conv/BiasAdd", outputs = "transformer/expand/conv3/conv/Sigmoid"}} {
    %0 = "quant.stats"(%arg0) {layerStats = dense<[0.000000e+00, 2.550000e+02]> : tensor<2xf32>} : (tensor<1x384x384x3xf32>) -> tensor<1x384x384x3xf32>
    %1 = "quant.stats"(%arg1) {layerStats = dense<[0.000000e+00, 2.550000e+02]> : tensor<2xf32>} : (tensor<1x1x1x100xf32>) -> tensor<1x1x1x100xf32>
    %2 = "tfl.pseudo_const"() {value = dense<[[0, 0], [4, 4], [4, 4], [0, 0]]> : tensor<4x2xi32>} : () -> tensor<4x2xi32>
    %3 = "tfl.mirror_pad"(%0, %2) {mode = "REFLECT"} : (tensor<1x384x384x3xf32>, tensor<4x2xi32>) -> tensor<1x392x392x3xf32>
    %4 = "tfl.pseudo_const"() {value = dense<"hex_value_removed_for_legibility_this_model_will_not_run_correctly_without_it"> : tensor<8x9x9x3xf16>} : () -> tensor<8x9x9x3xf16>
    %5 = "tfl.dequantize"(%4) : (tensor<8x9x9x3xf16>) -> tensor<8x9x9x3xf32>
    %6 = "tfl.pseudo_const"() {value = dense<[1.139650e+00, 1.200200e+00, -9.624020e-01, 1.521000e-01, 3.063960e-01, -1.085940e+00, 3.742680e-01, 1.035160e+00]> : tensor<8xf16>} : () -> tensor<8xf16>
    %7 = "tfl.dequantize"(%6) : (tensor<8xf16>) -> tensor<8xf32>
    %8 = "tfl.conv_2d"(%3, %5, %7) {dilation_h_factor = 1 : i32, dilation_w_factor = 1 : i32, fused_activation_function = "RELU", padding = "VALID", stride_h = 1 : i32, stride_w = 1 : i32} : (tensor<1x392x392x3xf32>, tensor<8x9x9x3xf32>, tensor<8xf32>) -> tensor<1x384x384x8xf32>
    %9 = "tfl.pseudo_const"() {value = dense<[[0, 0], [1, 1], [1, 1], [0, 0]]> : tensor<4x2xi32>} : () -> tensor<4x2xi32>
    %10 = "tfl.mirror_pad"(%8, %9) {mode = "REFLECT"} : (tensor<1x384x384x8xf32>, tensor<4x2xi32>) -> tensor<1x386x386x8xf32>
    %11 = "tfl.pseudo_const"() {value = dense<"hex_value_removed_for_legibility_this_model_will_not_run_correctly_without_it"> : tensor<16x3x3x8xf16>} : () -> tensor<16x3x3x8xf16>
    %12 = "tfl.dequantize"(%11) : (tensor<16x3x3x8xf16>) -> tensor<16x3x3x8xf32>
    %13 = "tfl.pseudo_const"() {value = dense<[… > : tensor<16xf16>} : () -> tensor<16xf16>
    %14 = "tfl.dequantize"(%13) : (tensor<16xf16>) -> tensor<16xf32>
    %15 = "tfl.conv_2d"(%10, %12, %14) {dilation_h_factor = 1 : i32, dilation_w_factor = 1 : i32, fused_activation_function = "RELU", padding = "VALID", stride_h = 2 : i32, stride_w = 2 : i32} : (tensor<1x386x386x8xf32>, tensor<16x3x3x8xf32>, tensor<16xf32>) -> tensor<1x192x192x16xf32>
    %16 = "tfl.pseudo_const"() {value = dense<[[0, 0], [1, 1], [1, 1], [0, 0]]> : tensor<4x2xi32>} : () -> tensor<4x2xi32>
    %17 = "tfl.mirror_pad"(%15, %16) {mode = "REFLECT"} : (tensor<1x192x192x16xf32>, tensor<4x2xi32>) -> tensor<1x194x194x16xf32>
    %18 = "tfl.pseudo_const"() {value = dense<[… > : tensor<32xf16>} : () -> tensor<32xf16>
    %19 = "tfl.dequantize"(%18) : (tensor<32xf16>) -> tensor<32xf32>
    %20 = "tfl.pseudo_const"() {value = dense<"hex_value_removed_for_legibility_this_model_will_not_run_correctly_without_it"> : tensor<32x3x3x16xf16>} : () -> tensor<32x3x3x16xf16>
    %21 = "tfl.dequantize"(%20) : (tensor<32x3x3x16xf16>) -> tensor<32x3x3x16xf32>
    %22 = "tfl.conv_2d"(%17, %21, %19) {dilation_h_factor = 1 : i32, dilation_w_factor = 1 : i32, fused_activation_function = "RELU", padding = "VALID", stride_h = 2 : i32, stride_w = 2 : i32} : (tensor<1x194x194x16xf32>, tensor<32x3x3x16xf32>, tensor<32xf32>) -> tensor<1x96x96x32xf32>
    %23 = "tfl.pseudo_const"() {value = dense<[[0, 0], [1, 1], [1, 1], [0, 0]]> : tensor<4x2xi32>} : () -> tensor<4x2xi32>
    %24 = "tfl.mirror_pad"(%22, %23) {mode = "REFLECT"} : (tensor<1x96x96x32xf32>, tensor<4x2xi32>) -> tensor<1x98x98x32xf32>
    %25 = "tfl.pseudo_const"() {value = dense<"hex_value_removed_for_legibility_this_model_will_not_run_correctly_without_it"> : tensor<32x3x3x32xf16>} : () -> tensor<32x3x3x32xf16>
    %26 = "tfl.dequantize"(%25) : (tensor<32x3x3x32xf16>) -> tensor<32x3x3x32xf32>
    %27 = "tfl.pseudo_const"() {value = dense<0.000000e+00> : tensor<32xf16>} : () -> tensor<32xf16>
    %28 = "tfl.dequantize"(%27) : (tensor<32xf16>) -> tensor<32xf32>
    %29 = "tfl.conv_2d"(%24, %26, %28) {dilation_h_factor = 1 : i32, dilation_w_factor = 1 : i32, fused_activation_function = "NONE", padding = "VALID", stride_h = 1 : i32, stride_w = 1 : i32} : (tensor<1x98x98x32xf32>, tensor<32x3x3x32xf32>, tensor<32xf32>) -> tensor<1x96x96x32xf32>
    %30 = "tfl.pseudo_const"() {value = dense<[1, 2]> : tensor<2xi32>} : () -> tensor<2xi32>
    %31 = "tfl.mean"(%29, %30) {keep_dims = true} : (tensor<1x96x96x32xf32>, tensor<2xi32>) -> tensor<1x1x1x32xf32>
    %32 = "tfl.squared_difference"(%29, %31) : (tensor<1x96x96x32xf32>, tensor<1x1x1x32xf32>) -> tensor<1x96x96x32xf32>
    %33 = "tfl.pseudo_const"() {value = dense<[1, 2]> : tensor<2xi32>} : () -> tensor<2xi32>
    %34 = "tfl.mean"(%32, %33) {keep_dims = true} : (tensor<1x96x96x32xf32>, tensor<2xi32>) -> tensor<1x1x1x32xf32>
    %35 = "tfl.pseudo_const"() {value = dense<1.001360e-05> : tensor<f16>} : () -> tensor<f16>
    %36 = "tfl.dequantize"(%35) : (tensor<f16>) -> tensor<*xf32>
    %37 = "tfl.add"(%34, %36) {fused_activation_function = "NONE"} : (tensor<1x1x1x32xf32>, tensor<*xf32>) -> tensor<1x1x1x32xf32>
    %38 = "tfl.rsqrt"(%37) : (tensor<1x1x1x32xf32>) -> tensor<1x1x1x32xf32>
    %39 = "tfl.pseudo_const"() {value = dense<"hex_value_removed_for_legibility_this_model_will_not_run_correctly_without_it"> : tensor<32x1x1x100xf16>} : () -> tensor<32x1x1x100xf16>
    %40 = "tfl.dequantize"(%39) : (tensor<32x1x1x100xf16>) -> tensor<32x1x1x100xf32>
    %41 = "tfl.pseudo_const"() {value = dense<[… > : tensor<32xf16>} : () -> tensor<32xf16>
    %42 = "tfl.dequantize"(%41) : (tensor<32xf16>) -> tensor<32xf32>
    %43 = "tfl.conv_2d"(%1, %40, %42) {dilation_h_factor = 1 : i32, dilation_w_factor = 1 : i32, fused_activation_function = "NONE", padding = "SAME", stride_h = 1 : i32, stride_w = 1 : i32} : (tensor<1x1x1x100xf32>, tensor<32x1x1x100xf32>, tensor<32xf32>) -> tensor<1x1x1x32xf32>
    %44 = "tfl.pseudo_const"() {value = dense<[… > : tensor<32xf16>} : () -> tensor<32xf16>
    %45 = "tfl.dequantize"(%44) : (tensor<32xf16>) -> tensor<32xf32>
    %46 = "tfl.pseudo_const"() {value = dense<"hex_value_removed_for_legibility_this_model_will_not_run_correctly_without_it"> : tensor<32x1x1x100xf16>} : () -> tensor<32x1x1x100xf16>
    %47 = "tfl.dequantize"(%46) : (tensor<32x1x1x100xf16>) -> tensor<32x1x1x100xf32>
    %48 = "tfl.conv_2d"(%1, %47, %45) {dilation_h_factor = 1 : i32, dilation_w_factor = 1 : i32, fused_activation_function = "NONE", padding = "SAME", stride_h = 1 : i32, stride_w = 1 : i32} : (tensor<1x1x1x100xf32>, tensor<32x1x1x100xf32>, tensor<32xf32>) -> tensor<1x1x1x32xf32>
    %49 = "tfl.pseudo_const"() {value = dense<[… > : tensor<32xf16>} : () -> tensor<32xf16>
    %50 = "tfl.dequantize"(%49) : (tensor<32xf16>) -> tensor<32xf32>
    %51 = "tfl.pseudo_const"() {value = dense<"hex_value_removed_for_legibility_this_model_will_not_run_correctly_without_it"> : tensor<32x1x1x100xf16>} : () -> tensor<32x1x1x100xf16>
    %52 = "tfl.dequantize"(%51) : (tensor<32x1x1x100xf16>) -> tensor<32x1x1x100xf32>
    %53 = "tfl.conv_2d"(%1, %52, %50) {dilation_h_factor = 1 : i32, dilation_w_factor = 1 : i32, fused_activation_function = "NONE", padding = "SAME", stride_h = 1 : i32, stride_w = 1 : i32} : (tensor<1x1x1x100xf32>, tensor<32x1x1x100xf32>, tensor<32xf32>) -> tensor<1x1x1x32xf32>
    %54 = "tfl.pseudo_const"() {value = dense<[… > : tensor<32xf16>} : () -> tensor<32xf16>
    %55 = "tfl.dequantize"(%54) : (tensor<32xf16>) -> tensor<32xf32>
    %56 = "tfl.pseudo_const"() {value = dense<"hex_value_removed_for_legibility_this_model_will_not_run_correctly_without_it"> : tensor<32x1x1x100xf16>} : () -> tensor<32x1x1x100xf16>
    %57 = "tfl.dequantize"(%56) : (tensor<32x1x1x100xf16>) -> tensor<32x1x1x100xf32>
    %58 = "tfl.conv_2d"(%1, %57, %55) {dilation_h_factor = 1 : i32, dilation_w_factor = 1 : i32, fused_activation_function = "NONE", padding = "SAME", stride_h = 1 : i32, stride_w = 1 : i32} : (tensor<1x1x1x100xf32>, tensor<32x1x1x100xf32>, tensor<32xf32>) -> tensor<1x1x1x32xf32>
    %59 = "tfl.pseudo_const"() {value = dense<[… > : tensor<32xf16>} : () -> tensor<32xf16>
    %60 = "tfl.dequantize"(%59) : (tensor<32xf16>) -> tensor<32xf32>
    %61 = "tfl.pseudo_const"() {value = dense<"hex_value_removed_for_legibility_this_model_will_not_run_correctly_without_it"> : tensor<32x1x1x100xf16>} : () -> tensor<32x1x1x100xf16>
    %62 = "tfl.dequantize"(%61) : (tensor<32x1x1x100xf16>) -> tensor<32x1x1x100xf32>
    %63 = "tfl.conv_2d"(%1, %62, %60) {dilation_h_factor = 1 : i32, dilation_w_factor = 1 : i32, fused_activation_function = "NONE", padding = "SAME", stride_h = 1 : i32, stride_w = 1 : i32} : (tensor<1x1x1x100xf32>, tensor<32x1x1x100xf32>, tensor<32xf32>) -> tensor<1x1x1x32xf32>
    %64 = "tfl.pseudo_const"() {value = dense<[… > : tensor<32xf16>} : () -> tensor<32xf16>
    %65 = "tfl.dequantize"(%64) : (tensor<32xf16>) -> tensor<32xf32>
    %66 = "tfl.pseudo_const"() {value = dense<"hex_value_removed_for_legibility_this_model_will_not_run_correctly_without_it"> : tensor<32x1x1x100xf16>} : () -> tensor<32x1x1x100xf16>
    %67 = "tfl.dequantize"(%66) : (tensor<32x1x1x100xf16>) -> tensor<32x1x1x100xf32>
    %68 = "tfl.conv_2d"(%1, %67, %65) {dilation_h_factor = 1 : i32, dilation_w_factor = 1 : i32, fused_activation_function = "NONE", padding = "SAME", stride_h = 1 : i32, stride_w = 1 : i32} : (tensor<1x1x1x100xf32>, tensor<32x1x1x100xf32>, tensor<32xf32>) -> tensor<1x1x1x32xf32>
    %69 = "tfl.pseudo_const"() {value = dense<"hex_value_removed_for_legibility_this_model_will_not_run_correctly_without_it"> : tensor<32x1x1x100xf16>} : () -> tensor<32x1x1x100xf16>
    %70 = "tfl.dequantize"(%69) : (tensor<32x1x1x100xf16>) -> tensor<32x1x1x100xf32>
    %71 = "tfl.pseudo_const"() {value = dense<[… > : tensor<32xf16>} : () -> tensor<32xf16>
    %72 = "tfl.dequantize"(%71) : (tensor<32xf16>) -> tensor<32xf32>
    %73 = "tfl.conv_2d"(%1, %70, %72) {dilation_h_factor = 1 : i32, dilation_w_factor = 1 : i32, fused_activation_function = "NONE", padding = "SAME", stride_h = 1 : i32, stride_w = 1 : i32} : (tensor<1x1x1x100xf32>, tensor<32x1x1x100xf32>, tensor<32xf32>) -> tensor<1x1x1x32xf32>
    %74 = "tfl.pseudo_const"() {value = dense<"hex_value_removed_for_legibility_this_model_will_not_run_correctly_without_it"> : tensor<32x1x1x100xf16>} : () -> tensor<32x1x1x100xf16>
    %75 = "tfl.dequantize"(%74) : (tensor<32x1x1x100xf16>) -> tensor<32x1x1x100xf32>
    %76 = "tfl.pseudo_const"() {value = dense<[… > : tensor<32xf16>} : () -> tensor<32xf16>
    %77 = "tfl.dequantize"(%76) : (tensor<32xf16>) -> tensor<32xf32>
    %78 = "tfl.conv_2d"(%1, %75, %77) {dilation_h_factor = 1 : i32, dilation_w_factor = 1 : i32, fused_activation_function = "NONE", padding = "SAME", stride_h = 1 : i32, stride_w = 1 : i32} : (tensor<1x1x1x100xf32>, tensor<32x1x1x100xf32>, tensor<32xf32>) -> tensor<1x1x1x32xf32>
    %79 = "tfl.pseudo_const"() {value = dense<[… > : tensor<32xf16>} : () -> tensor<32xf16>
    %80 = "tfl.dequantize"(%79) : (tensor<32xf16>) -> tensor<32xf32>
    %81 = "tfl.pseudo_const"() {value = dense<"hex_value_removed_for_legibility_this_model_will_not_run_correctly_without_it"> : tensor<32x1x1x100xf16>} : () -> tensor<32x1x1x100xf16>
    %82 = "tfl.dequantize"(%81) : (tensor<32x1x1x100xf16>) -> tensor<32x1x1x100xf32>
    %83 = "tfl.conv_2d"(%1, %82, %80) {dilation_h_factor = 1 : i32, dilation_w_factor = 1 : i32, fused_activation_function = "NONE", padding = "SAME", stride_h = 1 : i32, stride_w = 1 : i32} : (tensor<1x1x1x100xf32>, tensor<32x1x1x100xf32>, tensor<32xf32>) -> tensor<1x1x1x32xf32>
    %84 = "tfl.pseudo_const"() {value = dense<[… > : tensor<32xf16>} : () -> tensor<32xf16>
    %85 = "tfl.dequantize"(%84) : (tensor<32xf16>) -> tensor<32xf32>
    %86 = "tfl.pseudo_const"() {value = dense<"hex_value_removed_for_legibility_this_model_will_not_run_correctly_without_it"> : tensor<32x1x1x100xf16>} : () -> tensor<32x1x1x100xf16>
    %87 = "tfl.dequantize"(%86) : (tensor<32x1x1x100xf16>) -> tensor<32x1x1x100xf32>
    %88 = "tfl.conv_2d"(%1, %87, %85) {dilation_h_factor = 1 : i32, dilation_w_factor = 1 : i32, fused_activation_function = "NONE", padding = "SAME", stride_h = 1 : i32, stride_w = 1 : i32} : (tensor<1x1x1x100xf32>, tensor<32x1x1x100xf32>, tensor<32xf32>) -> tensor<1x1x1x32xf32>
    %89 = "tfl.pseudo_const"() {value = dense<[… > : tensor<32xf16>} : () -> tensor<32xf16>
    %90 = "tfl.dequantize"(%89) : (tensor<32xf16>) -> tensor<32xf32>
    %91 = "tfl.pseudo_const"() {value = dense<"hex_value_removed_for_legibility_this_model_will_not_run_correctly_without_it"> : tensor<32x1x1x100xf16>} : () -> tensor<32x1x1x100xf16>
    %92 = "tfl.dequantize"(%91) : (tensor<32x1x1x100xf16>) -> tensor<32x1x1x100xf32>
    %93 = "tfl.conv_2d"(%1, %92, %90) {dilation_h_factor = 1 : i32, dilation_w_factor = 1 : i32, fused_activation_function = "NONE", padding = "SAME", stride_h = 1 : i32, stride_w = 1 : i32} : (tensor<1x1x1x100xf32>, tensor<32x1x1x100xf32>, tensor<32xf32>) -> tensor<1x1x1x32xf32>
    %94 = "tfl.pseudo_const"() {value = dense<[… > : tensor<32xf16>} : () -> tensor<32xf16>
    %95 = "tfl.dequantize"(%94) : (tensor<32xf16>) -> tensor<32xf32>
    %96 = "tfl.pseudo_const"() {value = dense<"hex_value_removed_for_legibility_this_model_will_not_run_correctly_without_it"> : tensor<32x1x1x100xf16>} : () -> tensor<32x1x1x100xf16>
    %97 = "tfl.dequantize"(%96) : (tensor<32x1x1x100xf16>) -> tensor<32x1x1x100xf32>
    %98 = "tfl.conv_2d"(%1, %97, %95) {dilation_h_factor = 1 : i32, dilation_w_factor = 1 : i32, fused_activation_function = "NONE", padding = "SAME", stride_h = 1 : i32, stride_w = 1 : i32} : (tensor<1x1x1x100xf32>, tensor<32x1x1x100xf32>, tensor<32xf32>) -> tensor<1x1x1x32xf32>
    %99 = "tfl.pseudo_const"() {value = dense<[… > : tensor<32xf16>} : () -> tensor<32xf16>
    %100 = "tfl.dequantize"(%99) : (tensor<32xf16>) -> tensor<32xf32>
    %101 = "tfl.pseudo_const"() {value = dense<"hex_value_removed_for_legibility_this_model_will_not_run_correctly_without_it"> : tensor<32x1x1x100xf16>} : () -> tensor<32x1x1x100xf16>
    %102 = "tfl.dequantize"(%101) : (tensor<32x1x1x100xf16>) -> tensor<32x1x1x100xf32>
    %103 = "tfl.conv_2d"(%1, %102, %100) {dilation_h_factor = 1 : i32, dilation_w_factor = 1 : i32, fused_activation_function = "NONE", padding = "SAME", stride_h = 1 : i32, stride_w = 1 : i32} : (tensor<1x1x1x100xf32>, tensor<32x1x1x100xf32>, tensor<32xf32>) -> tensor<1x1x1x32xf32>
    %104 = "tfl.pseudo_const"() {value = dense<[… > : tensor<32xf16>} : () -> tensor<32xf16>
    %105 = "tfl.dequantize"(%104) : (tensor<32xf16>) -> tensor<32xf32>
    %106 = "tfl.pseudo_const"() {value = dense<"hex_value_removed_for_legibility_this_model_will_not_run_correctly_without_it"> : tensor<32x1x1x100xf16>} : () -> tensor<32x1x1x100xf16>
    %107 = "tfl.dequantize"(%106) : (tensor<32x1x1x100xf16>) -> tensor<32x1x1x100xf32>
    %108 = "tfl.conv_2d"(%1, %107, %105) {dilation_h_factor = 1 : i32, dilation_w_factor = 1 : i32, fused_activation_function = "NONE", padding = "SAME", stride_h = 1 : i32, stride_w = 1 : i32} : (tensor<1x1x1x100xf32>, tensor<32x1x1x100xf32>, tensor<32xf32>) -> tensor<1x1x1x32xf32>
    %109 = "tfl.pseudo_const"() {value = dense<"hex_value_removed_for_legibility_this_model_will_not_run_correctly_without_it"> : tensor<32x1x1x100xf16>} : () -> tensor<32x1x1x100xf16>
    %110 = "tfl.dequantize"(%109) : (tensor<32x1x1x100xf16>) -> tensor<32x1x1x100xf32>
    %111 = "tfl.pseudo_const"() {value = dense<[… > : tensor<32xf16>} : () -> tensor<32xf16>
    %112 = "tfl.dequantize"(%111) : (tensor<32xf16>) -> tensor<32xf32>
    %113 = "tfl.conv_2d"(%1, %110, %112) {dilation_h_factor = 1 : i32, dilation_w_factor = 1 : i32, fused_activation_function = "NONE", padding = "SAME", stride_h = 1 : i32, stride_w = 1 : i32} : (tensor<1x1x1x100xf32>, tensor<32x1x1x100xf32>, tensor<32xf32>) -> tensor<1x1x1x32xf32>
    %114 = "tfl.pseudo_const"() {value = dense<"hex_value_removed_for_legibility_this_model_will_not_run_correctly_without_it"> : tensor<32x1x1x100xf16>} : () -> tensor<32x1x1x100xf16>
    %115 = "tfl.dequantize"(%114) : (tensor<32x1x1x100xf16>) -> tensor<32x1x1x100xf32>
    %116 = "tfl.pseudo_const"() {value = dense<[… > : tensor<32xf16>} : () -> tensor<32xf16>
    %117 = "tfl.dequantize"(%116) : (tensor<32xf16>) -> tensor<32xf32>
    %118 = "tfl.conv_2d"(%1, %115, %117) {dilation_h_factor = 1 : i32, dilation_w_factor = 1 : i32, fused_activation_function = "NONE", padding = "SAME", stride_h = 1 : i32, stride_w = 1 : i32} : (tensor<1x1x1x100xf32>, tensor<32x1x1x100xf32>, tensor<32xf32>) -> tensor<1x1x1x32xf32>
    %119 = "tfl.pseudo_const"() {value = dense<[… > : tensor<32xf16>} : () -> tensor<32xf16>
    %120 = "tfl.dequantize"(%119) : (tensor<32xf16>) -> tensor<32xf32>
    %121 = "tfl.pseudo_const"() {value = dense<"hex_value_removed_for_legibility_this_model_will_not_run_correctly_without_it"> : tensor<32x1x1x100xf16>} : () -> tensor<32x1x1x100xf16>
    %122 = "tfl.dequantize"(%121) : (tensor<32x1x1x100xf16>) -> tensor<32x1x1x100xf32>
    %123 = "tfl.conv_2d"(%1, %122, %120) {dilation_h_factor = 1 : i32, dilation_w_factor = 1 : i32, fused_activation_function = "NONE", padding = "SAME", stride_h = 1 : i32, stride_w = 1 : i32} : (tensor<1x1x1x100xf32>, tensor<32x1x1x100xf32>, tensor<32xf32>) -> tensor<1x1x1x32xf32>
    %124 = "tfl.pseudo_const"() {value = dense<[… > : tensor<32xf16>} : () -> tensor<32xf16>
    %125 = "tfl.dequantize"(%124) : (tensor<32xf16>) -> tensor<32xf32>
    %126 = "tfl.pseudo_const"() {value = dense<"hex_value_removed_for_legibility_this_model_will_not_run_correctly_without_it"> : tensor<32x1x1x100xf16>} : () -> tensor<32x1x1x100xf16>
    %127 = "tfl.dequantize"(%126) : (tensor<32x1x1x100xf16>) -> tensor<32x1x1x100xf32>
    %128 = "tfl.conv_2d"(%1, %127, %125) {dilation_h_factor = 1 : i32, dilation_w_factor = 1 : i32, fused_activation_function = "NONE", padding = "SAME", stride_h = 1 : i32, stride_w = 1 : i32} : (tensor<1x1x1x100xf32>, tensor<32x1x1x100xf32>, tensor<32xf32>) -> tensor<1x1x1x32xf32>
    %129 = "tfl.pseudo_const"() {value = dense<[… > : tensor<32xf16>} : () -> tensor<32xf16>
    %130 = "tfl.dequantize"(%129) : (tensor<32xf16>) -> tensor<32xf32>
    %131 = "tfl.pseudo_const"() {value = dense<"hex_value_removed_for_legibility_this_model_will_not_run_correctly_without_it"> : tensor<32x1x1x100xf16>} : () -> tensor<32x1x1x100xf16>
    %132 = "tfl.dequantize"(%131) : (tensor<32x1x1x100xf16>) -> tensor<32x1x1x100xf32>
    %133 = "tfl.conv_2d"(%1, %132, %130) {dilation_h_factor = 1 : i32, dilation_w_factor = 1 : i32, fused_activation_function = "NONE", padding = "SAME", stride_h = 1 : i32, stride_w = 1 : i32} : (tensor<1x1x1x100xf32>, tensor<32x1x1x100xf32>, tensor<32xf32>) -> tensor<1x1x1x32xf32>
    %134 = "tfl.pseudo_const"() {value = dense<[… > : tensor<32xf16>} : () -> tensor<32xf16>
    %135 = "tfl.dequantize"(%134) : (tensor<32xf16>) -> tensor<32xf32>
    %136 = "tfl.pseudo_const"() {value = dense<"hex_value_removed_for_legibility_this_model_will_not_run_correctly_without_it"> : tensor<32x1x1x100xf16>} : () -> tensor<32x1x1x100xf16>
    %137 = "tfl.dequantize"(%136) : (tensor<32x1x1x100xf16>) -> tensor<32x1x1x100xf32>
    %138 = "tfl.conv_2d"(%1, %137, %135) {dilation_h_factor = 1 : i32, dilation_w_factor = 1 : i32, fused_activation_function = "NONE", padding = "SAME", stride_h = 1 : i32, stride_w = 1 : i32} : (tensor<1x1x1x100xf32>, tensor<32x1x1x100xf32>, tensor<32xf32>) -> tensor<1x1x1x32xf32>
    %139 = "tfl.pseudo_const"() {value = dense<[… > : tensor<16xf16>} : () -> tensor<16xf16>
    %140 = "tfl.dequantize"(%139) : (tensor<16xf16>) -> tensor<16xf32>
    %141 = "tfl.pseudo_const"() {value = dense<"hex_value_removed_for_legibility_this_model_will_not_run_correctly_without_it"> : tensor<16x1x1x100xf16>} : () -> tensor<16x1x1x100xf16>
    %142 = "tfl.dequantize"(%141) : (tensor<16x1x1x100xf16>) -> tensor<16x1x1x100xf32>
    %143 = "tfl.conv_2d"(%1, %142, %140) {dilation_h_factor = 1 : i32, dilation_w_factor = 1 : i32, fused_activation_function = "NONE", padding = "SAME", stride_h = 1 : i32, stride_w = 1 : i32} : (tensor<1x1x1x100xf32>, tensor<16x1x1x100xf32>, tensor<16xf32>) -> tensor<1x1x1x16xf32>
    %144 = "tfl.pseudo_const"() {value = dense<[… > : tensor<16xf16>} : () -> tensor<16xf16>
    %145 = "tfl.dequantize"(%144) : (tensor<16xf16>) -> tensor<16xf32>
    %146 = "tfl.pseudo_const"() {value = dense<"hex_value_removed_for_legibility_this_model_will_not_run_correctly_without_it"> : tensor<16x1x1x100xf16>} : () -> tensor<16x1x1x100xf16>
    %147 = "tfl.dequantize"(%146) : (tensor<16x1x1x100xf16>) -> tensor<16x1x1x100xf32>
    %148 = "tfl.conv_2d"(%1, %147, %145) {dilation_h_factor = 1 : i32, dilation_w_factor = 1 : i32, fused_activation_function = "NONE", padding = "SAME", stride_h = 1 : i32, stride_w = 1 : i32} : (tensor<1x1x1x100xf32>, tensor<16x1x1x100xf32>, tensor<16xf32>) -> tensor<1x1x1x16xf32>
    %149 = "tfl.pseudo_const"() {value = dense<[7.641600e-02, 1.222530e-01, 5.130000e-02, 1.187900e-02, 9.338370e-03, -4.531860e-03, 6.445310e-02, 8.416750e-02]> : tensor<8xf16>} : () -> tensor<8xf16>
    %150 = "tfl.dequantize"(%149) : (tensor<8xf16>) -> tensor<8xf32>
    %151 = "tfl.pseudo_const"() {value = dense<"hex_value_removed_for_legibility_this_model_will_not_run_correctly_without_it"> : tensor<8x1x1x100xf16>} : () -> tensor<8x1x1x100xf16>
    %152 = "tfl.dequantize"(%151) : (tensor<8x1x1x100xf16>) -> tensor<8x1x1x100xf32>
    %153 = "tfl.conv_2d"(%1, %152, %150) {dilation_h_factor = 1 : i32, dilation_w_factor = 1 : i32, fused_activation_function = "NONE", padding = "SAME", stride_h = 1 : i32, stride_w = 1 : i32} : (tensor<1x1x1x100xf32>, tensor<8x1x1x100xf32>, tensor<8xf32>) -> tensor<1x1x1x8xf32>
    %154 = "tfl.pseudo_const"() {value = dense<[-2.320860e-02, 1.251220e-02, -3.070070e-02, 7.759090e-03, 2.677920e-02, -1.490780e-02, -2.499390e-02, 1.471710e-02]> : tensor<8xf16>} : () -> tensor<8xf16>
    %155 = "tfl.dequantize"(%154) : (tensor<8xf16>) -> tensor<8xf32>
    %156 = "tfl.pseudo_const"() {value = dense<"hex_value_removed_for_legibility_this_model_will_not_run_correctly_without_it"> : tensor<8x1x1x100xf16>} : () -> tensor<8x1x1x100xf16>
    %157 = "tfl.dequantize"(%156) : (tensor<8x1x1x100xf16>) -> tensor<8x1x1x100xf32>
    %158 = "tfl.conv_2d"(%1, %157, %155) {dilation_h_factor = 1 : i32, dilation_w_factor = 1 : i32, fused_activation_function = "NONE", padding = "SAME", stride_h = 1 : i32, stride_w = 1 : i32} : (tensor<1x1x1x100xf32>, tensor<8x1x1x100xf32>, tensor<8xf32>) -> tensor<1x1x1x8xf32>
    %159 = "tfl.pseudo_const"() {value = dense<"hex_value_removed_for_legibility_this_model_will_not_run_correctly_without_it"> : tensor<3x1x1x100xf16>} : () -> tensor<3x1x1x100xf16>
    %160 = "tfl.dequantize"(%159) : (tensor<3x1x1x100xf16>) -> tensor<3x1x1x100xf32>
    %161 = "tfl.pseudo_const"() {value = dense<[5.012510e-03, -1.899720e-02, 2.319340e-02]> : tensor<3xf16>} : () -> tensor<3xf16>
    %162 = "tfl.dequantize"(%161) : (tensor<3xf16>) -> tensor<3xf32>
    %163 = "tfl.conv_2d"(%1, %160, %162) {dilation_h_factor = 1 : i32, dilation_w_factor = 1 : i32, fused_activation_function = "NONE", padding = "SAME", stride_h = 1 : i32, stride_w = 1 : i32} : (tensor<1x1x1x100xf32>, tensor<3x1x1x100xf32>, tensor<3xf32>) -> tensor<1x1x1x3xf32>
    %164 = "tfl.pseudo_const"() {value = dense<"hex_value_removed_for_legibility_this_model_will_not_run_correctly_without_it"> : tensor<3x1x1x100xf16>} : () -> tensor<3x1x1x100xf16>
    %165 = "tfl.dequantize"(%164) : (tensor<3x1x1x100xf16>) -> tensor<3x1x1x100xf32>
    %166 = "tfl.pseudo_const"() {value = dense<[1.883510e-05, 5.729670e-03, 3.753660e-03]> : tensor<3xf16>} : () -> tensor<3xf16>
    %167 = "tfl.dequantize"(%166) : (tensor<3xf16>) -> tensor<3xf32>
    %168 = "tfl.conv_2d"(%1, %165, %167) {dilation_h_factor = 1 : i32, dilation_w_factor = 1 : i32, fused_activation_function = "NONE", padding = "SAME", stride_h = 1 : i32, stride_w = 1 : i32} : (tensor<1x1x1x100xf32>, tensor<3x1x1x100xf32>, tensor<3xf32>) -> tensor<1x1x1x3xf32>
    %169 = tfl.mul %38, %48 {fused_activation_function = "NONE"} : tensor<1x1x1x32xf32>
    %170 = "tfl.mul"(%29, %169) {fused_activation_function = "NONE"} : (tensor<1x96x96x32xf32>, tensor<1x1x1x32xf32>) -> tensor<1x96x96x32xf32>
    %171 = tfl.mul %31, %169 {fused_activation_function = "NONE"} : tensor<1x1x1x32xf32>
    %172 = tfl.sub %43, %171 {fused_activation_function = "NONE"} : tensor<1x1x1x32xf32>
    %173 = "tfl.add"(%170, %172) {fused_activation_function = "RELU"} : (tensor<1x96x96x32xf32>, tensor<1x1x1x32xf32>) -> tensor<1x96x96x32xf32>
    %174 = "tfl.pseudo_const"() {value = dense<[[0, 0], [1, 1], [1, 1], [0, 0]]> : tensor<4x2xi32>} : () -> tensor<4x2xi32>
    %175 = "tfl.mirror_pad"(%173, %174) {mode = "REFLECT"} : (tensor<1x96x96x32xf32>, tensor<4x2xi32>) -> tensor<1x98x98x32xf32>
    %176 = "tfl.pseudo_const"() {value = dense<"hex_value_removed_for_legibility_this_model_will_not_run_correctly_without_it"> : tensor<32x3x3x32xf16>} : () -> tensor<32x3x3x32xf16>
    %177 = "tfl.dequantize"(%176) : (tensor<32x3x3x32xf16>) -> tensor<32x3x3x32xf32>
    %178 = "tfl.conv_2d"(%175, %177, %28) {dilation_h_factor = 1 : i32, dilation_w_factor = 1 : i32, fused_activation_function = "NONE", padding = "VALID", stride_h = 1 : i32, stride_w = 1 : i32} : (tensor<1x98x98x32xf32>, tensor<32x3x3x32xf32>, tensor<32xf32>) -> tensor<1x96x96x32xf32>
    %179 = "tfl.pseudo_const"() {value = dense<[1, 2]> : tensor<2xi32>} : () -> tensor<2xi32>
    %180 = "tfl.mean"(%178, %179) {keep_dims = true} : (tensor<1x96x96x32xf32>, tensor<2xi32>) -> tensor<1x1x1x32xf32>
    %181 = "tfl.squared_difference"(%178, %180) : (tensor<1x96x96x32xf32>, tensor<1x1x1x32xf32>) -> tensor<1x96x96x32xf32>
    %182 = "tfl.pseudo_const"() {value = dense<[1, 2]> : tensor<2xi32>} : () -> tensor<2xi32>
    %183 = "tfl.mean"(%181, %182) {keep_dims = true} : (tensor<1x96x96x32xf32>, tensor<2xi32>) -> tensor<1x1x1x32xf32>
    %184 = "tfl.pseudo_const"() {value = dense<1.001360e-05> : tensor<f16>} : () -> tensor<f16>
    %185 = "tfl.dequantize"(%184) : (tensor<f16>) -> tensor<*xf32>
    %186 = "tfl.add"(%183, %185) {fused_activation_function = "NONE"} : (tensor<1x1x1x32xf32>, tensor<*xf32>) -> tensor<1x1x1x32xf32>
    %187 = "tfl.rsqrt"(%186) : (tensor<1x1x1x32xf32>) -> tensor<1x1x1x32xf32>
    %188 = tfl.mul %187, %58 {fused_activation_function = "NONE"} : tensor<1x1x1x32xf32>
    %189 = "tfl.mul"(%178, %188) {fused_activation_function = "NONE"} : (tensor<1x96x96x32xf32>, tensor<1x1x1x32xf32>) -> tensor<1x96x96x32xf32>
    %190 = tfl.mul %180, %188 {fused_activation_function = "NONE"} : tensor<1x1x1x32xf32>
    %191 = tfl.sub %53, %190 {fused_activation_function = "NONE"} : tensor<1x1x1x32xf32>
    %192 = "tfl.add"(%189, %191) {fused_activation_function = "NONE"} : (tensor<1x96x96x32xf32>, tensor<1x1x1x32xf32>) -> tensor<1x96x96x32xf32>
    %193 = tfl.add %22, %192 {fused_activation_function = "NONE"} : tensor<1x96x96x32xf32>
    %194 = "tfl.pseudo_const"() {value = dense<[[0, 0], [1, 1], [1, 1], [0, 0]]> : tensor<4x2xi32>} : () -> tensor<4x2xi32>
    %195 = "tfl.mirror_pad"(%193, %194) {mode = "REFLECT"} : (tensor<1x96x96x32xf32>, tensor<4x2xi32>) -> tensor<1x98x98x32xf32>
    %196 = "tfl.pseudo_const"() {value = dense<"hex_value_removed_for_legibility_this_model_will_not_run_correctly_without_it"> : tensor<32x3x3x32xf16>} : () -> tensor<32x3x3x32xf16>
    %197 = "tfl.dequantize"(%196) : (tensor<32x3x3x32xf16>) -> tensor<32x3x3x32xf32>
    %198 = "tfl.conv_2d"(%195, %197, %28) {dilation_h_factor = 1 : i32, dilation_w_factor = 1 : i32, fused_activation_function = "NONE", padding = "VALID", stride_h = 1 : i32, stride_w = 1 : i32} : (tensor<1x98x98x32xf32>, tensor<32x3x3x32xf32>, tensor<32xf32>) -> tensor<1x96x96x32xf32>
    %199 = "tfl.pseudo_const"() {value = dense<[1, 2]> : tensor<2xi32>} : () -> tensor<2xi32>
    %200 = "tfl.mean"(%198, %199) {keep_dims = true} : (tensor<1x96x96x32xf32>, tensor<2xi32>) -> tensor<1x1x1x32xf32>
    %201 = "tfl.squared_difference"(%198, %200) : (tensor<1x96x96x32xf32>, tensor<1x1x1x32xf32>) -> tensor<1x96x96x32xf32>
    %202 = "tfl.pseudo_const"() {value = dense<[1, 2]> : tensor<2xi32>} : () -> tensor<2xi32>
    %203 = "tfl.mean"(%201, %202) {keep_dims = true} : (tensor<1x96x96x32xf32>, tensor<2xi32>) -> tensor<1x1x1x32xf32>
    %204 = "tfl.pseudo_const"() {value = dense<1.001360e-05> : tensor<f16>} : () -> tensor<f16>
    %205 = "tfl.dequantize"(%204) : (tensor<f16>) -> tensor<*xf32>
    %206 = "tfl.add"(%203, %205) {fused_activation_function = "NONE"} : (tensor<1x1x1x32xf32>, tensor<*xf32>) -> tensor<1x1x1x32xf32>
    %207 = "tfl.rsqrt"(%206) : (tensor<1x1x1x32xf32>) -> tensor<1x1x1x32xf32>
    %208 = tfl.mul %207, %68 {fused_activation_function = "NONE"} : tensor<1x1x1x32xf32>
    %209 = "tfl.mul"(%198, %208) {fused_activation_function = "NONE"} : (tensor<1x96x96x32xf32>, tensor<1x1x1x32xf32>) -> tensor<1x96x96x32xf32>
    %210 = tfl.mul %200, %208 {fused_activation_function = "NONE"} : tensor<1x1x1x32xf32>
    %211 = tfl.sub %63, %210 {fused_activation_function = "NONE"} : tensor<1x1x1x32xf32>
    %212 = "tfl.add"(%209, %211) {fused_activation_function = "RELU"} : (tensor<1x96x96x32xf32>, tensor<1x1x1x32xf32>) -> tensor<1x96x96x32xf32>
    %213 = "tfl.pseudo_const"() {value = dense<[[0, 0], [1, 1], [1, 1], [0, 0]]> : tensor<4x2xi32>} : () -> tensor<4x2xi32>
    %214 = "tfl.mirror_pad"(%212, %213) {mode = "REFLECT"} : (tensor<1x96x96x32xf32>, tensor<4x2xi32>) -> tensor<1x98x98x32xf32>
    %215 = "tfl.pseudo_const"() {value = dense<"hex_value_removed_for_legibility_this_model_will_not_run_correctly_without_it"> : tensor<32x3x3x32xf16>} : () -> tensor<32x3x3x32xf16>
    %216 = "tfl.dequantize"(%215) : (tensor<32x3x3x32xf16>) -> tensor<32x3x3x32xf32>
    %217 = "tfl.conv_2d"(%214, %216, %28) {dilation_h_factor = 1 : i32, dilation_w_factor = 1 : i32, fused_activation_function = "NONE", padding = "VALID", stride_h = 1 : i32, stride_w = 1 : i32} : (tensor<1x98x98x32xf32>, tensor<32x3x3x32xf32>, tensor<32xf32>) -> tensor<1x96x96x32xf32>
    %218 = "tfl.pseudo_const"() {value = dense<[1, 2]> : tensor<2xi32>} : () -> tensor<2xi32>
    %219 = "tfl.mean"(%217, %218) {keep_dims = true} : (tensor<1x96x96x32xf32>, tensor<2xi32>) -> tensor<1x1x1x32xf32>
    %220 = "tfl.squared_difference"(%217, %219) : (tensor<1x96x96x32xf32>, tensor<1x1x1x32xf32>) -> tensor<1x96x96x32xf32>
    %221 = "tfl.pseudo_const"() {value = dense<[1, 2]> : tensor<2xi32>} : () -> tensor<2xi32>
    %222 = "tfl.mean"(%220, %221) {keep_dims = true} : (tensor<1x96x96x32xf32>, tensor<2xi32>) -> tensor<1x1x1x32xf32>
    %223 = "tfl.pseudo_const"() {value = dense<1.001360e-05> : tensor<f16>} : () -> tensor<f16>
    %224 = "tfl.dequantize"(%223) : (tensor<f16>) -> tensor<*xf32>
    %225 = "tfl.add"(%222, %224) {fused_activation_function = "NONE"} : (tensor<1x1x1x32xf32>, tensor<*xf32>) -> tensor<1x1x1x32xf32>
    %226 = "tfl.rsqrt"(%225) : (tensor<1x1x1x32xf32>) -> tensor<1x1x1x32xf32>
    %227 = tfl.mul %226, %78 {fused_activation_function = "NONE"} : tensor<1x1x1x32xf32>
    %228 = "tfl.mul"(%217, %227) {fused_activation_function = "NONE"} : (tensor<1x96x96x32xf32>, tensor<1x1x1x32xf32>) -> tensor<1x96x96x32xf32>
    %229 = tfl.mul %219, %227 {fused_activation_function = "NONE"} : tensor<1x1x1x32xf32>
    %230 = tfl.sub %73, %229 {fused_activation_function = "NONE"} : tensor<1x1x1x32xf32>
    %231 = "tfl.add"(%228, %230) {fused_activation_function = "NONE"} : (tensor<1x96x96x32xf32>, tensor<1x1x1x32xf32>) -> tensor<1x96x96x32xf32>
    %232 = tfl.add %193, %231 {fused_activation_function = "NONE"} : tensor<1x96x96x32xf32>
    %233 = "tfl.pseudo_const"() {value = dense<[[0, 0], [1, 1], [1, 1], [0, 0]]> : tensor<4x2xi32>} : () -> tensor<4x2xi32>
    %234 = "tfl.mirror_pad"(%232, %233) {mode = "REFLECT"} : (tensor<1x96x96x32xf32>, tensor<4x2xi32>) -> tensor<1x98x98x32xf32>
    %235 = "tfl.pseudo_const"() {value = dense<"hex_value_removed_for_legibility_this_model_will_not_run_correctly_without_it"> : tensor<32x3x3x32xf16>} : () -> tensor<32x3x3x32xf16>
    %236 = "tfl.dequantize"(%235) : (tensor<32x3x3x32xf16>) -> tensor<32x3x3x32xf32>
    %237 = "tfl.conv_2d"(%234, %236, %28) {dilation_h_factor = 1 : i32, dilation_w_factor = 1 : i32, fused_activation_function = "NONE", padding = "VALID", stride_h = 1 : i32, stride_w = 1 : i32} : (tensor<1x98x98x32xf32>, tensor<32x3x3x32xf32>, tensor<32xf32>) -> tensor<1x96x96x32xf32>
    %238 = "tfl.pseudo_const"() {value = dense<[1, 2]> : tensor<2xi32>} : () -> tensor<2xi32>
    %239 = "tfl.mean"(%237, %238) {keep_dims = true} : (tensor<1x96x96x32xf32>, tensor<2xi32>) -> tensor<1x1x1x32xf32>
    %240 = "tfl.squared_difference"(%237, %239) : (tensor<1x96x96x32xf32>, tensor<1x1x1x32xf32>) -> tensor<1x96x96x32xf32>
    %241 = "tfl.pseudo_const"() {value = dense<[1, 2]> : tensor<2xi32>} : () -> tensor<2xi32>
    %242 = "tfl.mean"(%240, %241) {keep_dims = true} : (tensor<1x96x96x32xf32>, tensor<2xi32>) -> tensor<1x1x1x32xf32>
    %243 = "tfl.pseudo_const"() {value = dense<1.001360e-05> : tensor<f16>} : () -> tensor<f16>
    %244 = "tfl.dequantize"(%243) : (tensor<f16>) -> tensor<*xf32>
    %245 = "tfl.add"(%242, %244) {fused_activation_function = "NONE"} : (tensor<1x1x1x32xf32>, tensor<*xf32>) -> tensor<1x1x1x32xf32>
    %246 = "tfl.rsqrt"(%245) : (tensor<1x1x1x32xf32>) -> tensor<1x1x1x32xf32>
    %247 = tfl.mul %246, %88 {fused_activation_function = "NONE"} : tensor<1x1x1x32xf32>
    %248 = "tfl.mul"(%237, %247) {fused_activation_function = "NONE"} : (tensor<1x96x96x32xf32>, tensor<1x1x1x32xf32>) -> tensor<1x96x96x32xf32>
    %249 = tfl.mul %239, %247 {fused_activation_function = "NONE"} : tensor<1x1x1x32xf32>
    %250 = tfl.sub %83, %249 {fused_activation_function = "NONE"} : tensor<1x1x1x32xf32>
    %251 = "tfl.add"(%248, %250) {fused_activation_function = "RELU"} : (tensor<1x96x96x32xf32>, tensor<1x1x1x32xf32>) -> tensor<1x96x96x32xf32>
    %252 = "tfl.pseudo_const"() {value = dense<[[0, 0], [1, 1], [1, 1], [0, 0]]> : tensor<4x2xi32>} : () -> tensor<4x2xi32>
    %253 = "tfl.mirror_pad"(%251, %252) {mode = "REFLECT"} : (tensor<1x96x96x32xf32>, tensor<4x2xi32>) -> tensor<1x98x98x32xf32>
    %254 = "tfl.pseudo_const"() {value = dense<"hex_value_removed_for_legibility_this_model_will_not_run_correctly_without_it"> : tensor<32x3x3x32xf16>} : () -> tensor<32x3x3x32xf16>
    %255 = "tfl.dequantize"(%254) : (tensor<32x3x3x32xf16>) -> tensor<32x3x3x32xf32>
    %256 = "tfl.conv_2d"(%253, %255, %28) {dilation_h_factor = 1 : i32, dilation_w_factor = 1 : i32, fused_activation_function = "NONE", padding = "VALID", stride_h = 1 : i32, stride_w = 1 : i32} : (tensor<1x98x98x32xf32>, tensor<32x3x3x32xf32>, tensor<32xf32>) -> tensor<1x96x96x32xf32>
    %257 = "tfl.pseudo_const"() {value = dense<[1, 2]> : tensor<2xi32>} : () -> tensor<2xi32>
    %258 = "tfl.mean"(%256, %257) {keep_dims = true} : (tensor<1x96x96x32xf32>, tensor<2xi32>) -> tensor<1x1x1x32xf32>
    %259 = "tfl.squared_difference"(%256, %258) : (tensor<1x96x96x32xf32>, tensor<1x1x1x32xf32>) -> tensor<1x96x96x32xf32>
    %260 = "tfl.pseudo_const"() {value = dense<[1, 2]> : tensor<2xi32>} : () -> tensor<2xi32>
    %261 = "tfl.mean"(%259, %260) {keep_dims = true} : (tensor<1x96x96x32xf32>, tensor<2xi32>) -> tensor<1x1x1x32xf32>
    %262 = "tfl.pseudo_const"() {value = dense<1.001360e-05> : tensor<f16>} : () -> tensor<f16>
    %263 = "tfl.dequantize"(%262) : (tensor<f16>) -> tensor<*xf32>
    %264 = "tfl.add"(%261, %263) {fused_activation_function = "NONE"} : (tensor<1x1x1x32xf32>, tensor<*xf32>) -> tensor<1x1x1x32xf32>
    %265 = "tfl.rsqrt"(%264) : (tensor<1x1x1x32xf32>) -> tensor<1x1x1x32xf32>
    %266 = tfl.mul %265, %98 {fused_activation_function = "NONE"} : tensor<1x1x1x32xf32>
    %267 = "tfl.mul"(%256, %266) {fused_activation_function = "NONE"} : (tensor<1x96x96x32xf32>, tensor<1x1x1x32xf32>) -> tensor<1x96x96x32xf32>
    %268 = tfl.mul %258, %266 {fused_activation_function = "NONE"} : tensor<1x1x1x32xf32>
    %269 = tfl.sub %93, %268 {fused_activation_function = "NONE"} : tensor<1x1x1x32xf32>
    %270 = "tfl.add"(%267, %269) {fused_activation_function = "NONE"} : (tensor<1x96x96x32xf32>, tensor<1x1x1x32xf32>) -> tensor<1x96x96x32xf32>
    %271 = tfl.add %232, %270 {fused_activation_function = "NONE"} : tensor<1x96x96x32xf32>
    %272 = "tfl.pseudo_const"() {value = dense<[[0, 0], [1, 1], [1, 1], [0, 0]]> : tensor<4x2xi32>} : () -> tensor<4x2xi32>
    %273 = "tfl.mirror_pad"(%271, %272) {mode = "REFLECT"} : (tensor<1x96x96x32xf32>, tensor<4x2xi32>) -> tensor<1x98x98x32xf32>
    %274 = "tfl.pseudo_const"() {value = dense<"hex_value_removed_for_legibility_this_model_will_not_run_correctly_without_it"> : tensor<32x3x3x32xf16>} : () -> tensor<32x3x3x32xf16>
    %275 = "tfl.dequantize"(%274) : (tensor<32x3x3x32xf16>) -> tensor<32x3x3x32xf32>
    %276 = "tfl.conv_2d"(%273, %275, %28) {dilation_h_factor = 1 : i32, dilation_w_factor = 1 : i32, fused_activation_function = "NONE", padding = "VALID", stride_h = 1 : i32, stride_w = 1 : i32} : (tensor<1x98x98x32xf32>, tensor<32x3x3x32xf32>, tensor<32xf32>) -> tensor<1x96x96x32xf32>
    %277 = "tfl.pseudo_const"() {value = dense<[1, 2]> : tensor<2xi32>} : () -> tensor<2xi32>
    %278 = "tfl.mean"(%276, %277) {keep_dims = true} : (tensor<1x96x96x32xf32>, tensor<2xi32>) -> tensor<1x1x1x32xf32>
    %279 = "tfl.squared_difference"(%276, %278) : (tensor<1x96x96x32xf32>, tensor<1x1x1x32xf32>) -> tensor<1x96x96x32xf32>
    %280 = "tfl.pseudo_const"() {value = dense<[1, 2]> : tensor<2xi32>} : () -> tensor<2xi32>
    %281 = "tfl.mean"(%279, %280) {keep_dims = true} : (tensor<1x96x96x32xf32>, tensor<2xi32>) -> tensor<1x1x1x32xf32>
    %282 = "tfl.pseudo_const"() {value = dense<1.001360e-05> : tensor<f16>} : () -> tensor<f16>
    %283 = "tfl.dequantize"(%282) : (tensor<f16>) -> tensor<*xf32>
    %284 = "tfl.add"(%281, %283) {fused_activation_function = "NONE"} : (tensor<1x1x1x32xf32>, tensor<*xf32>) -> tensor<1x1x1x32xf32>
    %285 = "tfl.rsqrt"(%284) : (tensor<1x1x1x32xf32>) -> tensor<1x1x1x32xf32>
    %286 = tfl.mul %285, %108 {fused_activation_function = "NONE"} : tensor<1x1x1x32xf32>
    %287 = "tfl.mul"(%276, %286) {fused_activation_function = "NONE"} : (tensor<1x96x96x32xf32>, tensor<1x1x1x32xf32>) -> tensor<1x96x96x32xf32>
    %288 = tfl.mul %278, %286 {fused_activation_function = "NONE"} : tensor<1x1x1x32xf32>
    %289 = tfl.sub %103, %288 {fused_activation_function = "NONE"} : tensor<1x1x1x32xf32>
    %290 = "tfl.add"(%287, %289) {fused_activation_function = "RELU"} : (tensor<1x96x96x32xf32>, tensor<1x1x1x32xf32>) -> tensor<1x96x96x32xf32>
    %291 = "tfl.pseudo_const"() {value = dense<[[0, 0], [1, 1], [1, 1], [0, 0]]> : tensor<4x2xi32>} : () -> tensor<4x2xi32>
    %292 = "tfl.mirror_pad"(%290, %291) {mode = "REFLECT"} : (tensor<1x96x96x32xf32>, tensor<4x2xi32>) -> tensor<1x98x98x32xf32>
    %293 = "tfl.pseudo_const"() {value = dense<"hex_value_removed_for_legibility_this_model_will_not_run_correctly_without_it"> : tensor<32x3x3x32xf16>} : () -> tensor<32x3x3x32xf16>
    %294 = "tfl.dequantize"(%293) : (tensor<32x3x3x32xf16>) -> tensor<32x3x3x32xf32>
    %295 = "tfl.conv_2d"(%292, %294, %28) {dilation_h_factor = 1 : i32, dilation_w_factor = 1 : i32, fused_activation_function = "NONE", padding = "VALID", stride_h = 1 : i32, stride_w = 1 : i32} : (tensor<1x98x98x32xf32>, tensor<32x3x3x32xf32>, tensor<32xf32>) -> tensor<1x96x96x32xf32>
    %296 = "tfl.pseudo_const"() {value = dense<[1, 2]> : tensor<2xi32>} : () -> tensor<2xi32>
    %297 = "tfl.mean"(%295, %296) {keep_dims = true} : (tensor<1x96x96x32xf32>, tensor<2xi32>) -> tensor<1x1x1x32xf32>
    %298 = "tfl.squared_difference"(%295, %297) : (tensor<1x96x96x32xf32>, tensor<1x1x1x32xf32>) -> tensor<1x96x96x32xf32>
    %299 = "tfl.pseudo_const"() {value = dense<[1, 2]> : tensor<2xi32>} : () -> tensor<2xi32>
    %300 = "tfl.mean"(%298, %299) {keep_dims = true} : (tensor<1x96x96x32xf32>, tensor<2xi32>) -> tensor<1x1x1x32xf32>
    %301 = "tfl.pseudo_const"() {value = dense<1.001360e-05> : tensor<f16>} : () -> tensor<f16>
    %302 = "tfl.dequantize"(%301) : (tensor<f16>) -> tensor<*xf32>
    %303 = "tfl.add"(%300, %302) {fused_activation_function = "NONE"} : (tensor<1x1x1x32xf32>, tensor<*xf32>) -> tensor<1x1x1x32xf32>
    %304 = "tfl.rsqrt"(%303) : (tensor<1x1x1x32xf32>) -> tensor<1x1x1x32xf32>
    %305 = tfl.mul %304, %118 {fused_activation_function = "NONE"} : tensor<1x1x1x32xf32>
    %306 = "tfl.mul"(%295, %305) {fused_activation_function = "NONE"} : (tensor<1x96x96x32xf32>, tensor<1x1x1x32xf32>) -> tensor<1x96x96x32xf32>
    %307 = tfl.mul %297, %305 {fused_activation_function = "NONE"} : tensor<1x1x1x32xf32>
    %308 = tfl.sub %113, %307 {fused_activation_function = "NONE"} : tensor<1x1x1x32xf32>
    %309 = "tfl.add"(%306, %308) {fused_activation_function = "NONE"} : (tensor<1x96x96x32xf32>, tensor<1x1x1x32xf32>) -> tensor<1x96x96x32xf32>
    %310 = tfl.add %271, %309 {fused_activation_function = "NONE"} : tensor<1x96x96x32xf32>
    %311 = "tfl.pseudo_const"() {value = dense<[[0, 0], [1, 1], [1, 1], [0, 0]]> : tensor<4x2xi32>} : () -> tensor<4x2xi32>
    %312 = "tfl.mirror_pad"(%310, %311) {mode = "REFLECT"} : (tensor<1x96x96x32xf32>, tensor<4x2xi32>) -> tensor<1x98x98x32xf32>
    %313 = "tfl.pseudo_const"() {value = dense<"hex_value_removed_for_legibility_this_model_will_not_run_correctly_without_it"> : tensor<32x3x3x32xf16>} : () -> tensor<32x3x3x32xf16>
    %314 = "tfl.dequantize"(%313) : (tensor<32x3x3x32xf16>) -> tensor<32x3x3x32xf32>
    %315 = "tfl.conv_2d"(%312, %314, %28) {dilation_h_factor = 1 : i32, dilation_w_factor = 1 : i32, fused_activation_function = "NONE", padding = "VALID", stride_h = 1 : i32, stride_w = 1 : i32} : (tensor<1x98x98x32xf32>, tensor<32x3x3x32xf32>, tensor<32xf32>) -> tensor<1x96x96x32xf32>
    %316 = "tfl.pseudo_const"() {value = dense<[1, 2]> : tensor<2xi32>} : () -> tensor<2xi32>
    %317 = "tfl.mean"(%315, %316) {keep_dims = true} : (tensor<1x96x96x32xf32>, tensor<2xi32>) -> tensor<1x1x1x32xf32>
    %318 = "tfl.squared_difference"(%315, %317) : (tensor<1x96x96x32xf32>, tensor<1x1x1x32xf32>) -> tensor<1x96x96x32xf32>
    %319 = "tfl.pseudo_const"() {value = dense<[1, 2]> : tensor<2xi32>} : () -> tensor<2xi32>
    %320 = "tfl.mean"(%318, %319) {keep_dims = true} : (tensor<1x96x96x32xf32>, tensor<2xi32>) -> tensor<1x1x1x32xf32>
    %321 = "tfl.pseudo_const"() {value = dense<1.001360e-05> : tensor<f16>} : () -> tensor<f16>
    %322 = "tfl.dequantize"(%321) : (tensor<f16>) -> tensor<*xf32>
    %323 = "tfl.add"(%320, %322) {fused_activation_function = "NONE"} : (tensor<1x1x1x32xf32>, tensor<*xf32>) -> tensor<1x1x1x32xf32>
    %324 = "tfl.rsqrt"(%323) : (tensor<1x1x1x32xf32>) -> tensor<1x1x1x32xf32>
    %325 = tfl.mul %324, %128 {fused_activation_function = "NONE"} : tensor<1x1x1x32xf32>
    %326 = "tfl.mul"(%315, %325) {fused_activation_function = "NONE"} : (tensor<1x96x96x32xf32>, tensor<1x1x1x32xf32>) -> tensor<1x96x96x32xf32>
    %327 = tfl.mul %317, %325 {fused_activation_function = "NONE"} : tensor<1x1x1x32xf32>
    %328 = tfl.sub %123, %327 {fused_activation_function = "NONE"} : tensor<1x1x1x32xf32>
    %329 = "tfl.add"(%326, %328) {fused_activation_function = "RELU"} : (tensor<1x96x96x32xf32>, tensor<1x1x1x32xf32>) -> tensor<1x96x96x32xf32>
    %330 = "tfl.pseudo_const"() {value = dense<[[0, 0], [1, 1], [1, 1], [0, 0]]> : tensor<4x2xi32>} : () -> tensor<4x2xi32>
    %331 = "tfl.mirror_pad"(%329, %330) {mode = "REFLECT"} : (tensor<1x96x96x32xf32>, tensor<4x2xi32>) -> tensor<1x98x98x32xf32>
    %332 = "tfl.pseudo_const"() {value = dense<"hex_value_removed_for_legibility_this_model_will_not_run_correctly_without_it"> : tensor<32x3x3x32xf16>} : () -> tensor<32x3x3x32xf16>
    %333 = "tfl.dequantize"(%332) : (tensor<32x3x3x32xf16>) -> tensor<32x3x3x32xf32>
    %334 = "tfl.conv_2d"(%331, %333, %28) {dilation_h_factor = 1 : i32, dilation_w_factor = 1 : i32, fused_activation_function = "NONE", padding = "VALID", stride_h = 1 : i32, stride_w = 1 : i32} : (tensor<1x98x98x32xf32>, tensor<32x3x3x32xf32>, tensor<32xf32>) -> tensor<1x96x96x32xf32>
    %335 = "tfl.pseudo_const"() {value = dense<[1, 2]> : tensor<2xi32>} : () -> tensor<2xi32>
    %336 = "tfl.mean"(%334, %335) {keep_dims = true} : (tensor<1x96x96x32xf32>, tensor<2xi32>) -> tensor<1x1x1x32xf32>
    %337 = "tfl.squared_difference"(%334, %336) : (tensor<1x96x96x32xf32>, tensor<1x1x1x32xf32>) -> tensor<1x96x96x32xf32>
    %338 = "tfl.pseudo_const"() {value = dense<[1, 2]> : tensor<2xi32>} : () -> tensor<2xi32>
    %339 = "tfl.mean"(%337, %338) {keep_dims = true} : (tensor<1x96x96x32xf32>, tensor<2xi32>) -> tensor<1x1x1x32xf32>
    %340 = "tfl.pseudo_const"() {value = dense<1.001360e-05> : tensor<f16>} : () -> tensor<f16>
    %341 = "tfl.dequantize"(%340) : (tensor<f16>) -> tensor<*xf32>
    %342 = "tfl.add"(%339, %341) {fused_activation_function = "NONE"} : (tensor<1x1x1x32xf32>, tensor<*xf32>) -> tensor<1x1x1x32xf32>
    %343 = "tfl.rsqrt"(%342) : (tensor<1x1x1x32xf32>) -> tensor<1x1x1x32xf32>
    %344 = tfl.mul %343, %138 {fused_activation_function = "NONE"} : tensor<1x1x1x32xf32>
    %345 = "tfl.mul"(%334, %344) {fused_activation_function = "NONE"} : (tensor<1x96x96x32xf32>, tensor<1x1x1x32xf32>) -> tensor<1x96x96x32xf32>
    %346 = tfl.mul %336, %344 {fused_activation_function = "NONE"} : tensor<1x1x1x32xf32>
    %347 = tfl.sub %133, %346 {fused_activation_function = "NONE"} : tensor<1x1x1x32xf32>
    %348 = "tfl.add"(%345, %347) {fused_activation_function = "NONE"} : (tensor<1x96x96x32xf32>, tensor<1x1x1x32xf32>) -> tensor<1x96x96x32xf32>
    %349 = tfl.add %310, %348 {fused_activation_function = "NONE"} : tensor<1x96x96x32xf32>
    %350 = "tfl.pseudo_const"() {value = dense<192> : tensor<2xi32>} : () -> tensor<2xi32>
    %351 = "tfl.resize_nearest_neighbor"(%349, %350) {align_corners = false} : (tensor<1x96x96x32xf32>, tensor<2xi32>) -> tensor<1x192x192x32xf32>
    %352 = "tfl.pseudo_const"() {value = dense<[[0, 0], [1, 1], [1, 1], [0, 0]]> : tensor<4x2xi32>} : () -> tensor<4x2xi32>
    %353 = "tfl.mirror_pad"(%351, %352) {mode = "REFLECT"} : (tensor<1x192x192x32xf32>, tensor<4x2xi32>) -> tensor<1x194x194x32xf32>
    %354 = "tfl.pseudo_const"() {value = dense<"hex_value_removed_for_legibility_this_model_will_not_run_correctly_without_it"> : tensor<16x3x3x32xf16>} : () -> tensor<16x3x3x32xf16>
    %355 = "tfl.dequantize"(%354) : (tensor<16x3x3x32xf16>) -> tensor<16x3x3x32xf32>
    %356 = "tfl.pseudo_const"() {value = dense<0.000000e+00> : tensor<16xf16>} : () -> tensor<16xf16>
    %357 = "tfl.dequantize"(%356) : (tensor<16xf16>) -> tensor<16xf32>
    %358 = "tfl.conv_2d"(%353, %355, %357) {dilation_h_factor = 1 : i32, dilation_w_factor = 1 : i32, fused_activation_function = "NONE", padding = "VALID", stride_h = 1 : i32, stride_w = 1 : i32} : (tensor<1x194x194x32xf32>, tensor<16x3x3x32xf32>, tensor<16xf32>) -> tensor<1x192x192x16xf32>
    %359 = "tfl.pseudo_const"() {value = dense<[1, 2]> : tensor<2xi32>} : () -> tensor<2xi32>
    %360 = "tfl.mean"(%358, %359) {keep_dims = true} : (tensor<1x192x192x16xf32>, tensor<2xi32>) -> tensor<1x1x1x16xf32>
    %361 = "tfl.squared_difference"(%358, %360) : (tensor<1x192x192x16xf32>, tensor<1x1x1x16xf32>) -> tensor<1x192x192x16xf32>
    %362 = "tfl.pseudo_const"() {value = dense<[1, 2]> : tensor<2xi32>} : () -> tensor<2xi32>
    %363 = "tfl.mean"(%361, %362) {keep_dims = true} : (tensor<1x192x192x16xf32>, tensor<2xi32>) -> tensor<1x1x1x16xf32>
    %364 = "tfl.pseudo_const"() {value = dense<1.001360e-05> : tensor<f16>} : () -> tensor<f16>
    %365 = "tfl.dequantize"(%364) : (tensor<f16>) -> tensor<*xf32>
    %366 = "tfl.add"(%363, %365) {fused_activation_function = "NONE"} : (tensor<1x1x1x16xf32>, tensor<*xf32>) -> tensor<1x1x1x16xf32>
    %367 = "tfl.rsqrt"(%366) : (tensor<1x1x1x16xf32>) -> tensor<1x1x1x16xf32>
    %368 = tfl.mul %367, %148 {fused_activation_function = "NONE"} : tensor<1x1x1x16xf32>
    %369 = "tfl.mul"(%358, %368) {fused_activation_function = "NONE"} : (tensor<1x192x192x16xf32>, tensor<1x1x1x16xf32>) -> tensor<1x192x192x16xf32>
    %370 = tfl.mul %360, %368 {fused_activation_function = "NONE"} : tensor<1x1x1x16xf32>
    %371 = tfl.sub %143, %370 {fused_activation_function = "NONE"} : tensor<1x1x1x16xf32>
    %372 = "tfl.add"(%369, %371) {fused_activation_function = "RELU"} : (tensor<1x192x192x16xf32>, tensor<1x1x1x16xf32>) -> tensor<1x192x192x16xf32>
    %373 = "tfl.pseudo_const"() {value = dense<384> : tensor<2xi32>} : () -> tensor<2xi32>
    %374 = "tfl.resize_nearest_neighbor"(%372, %373) {align_corners = false} : (tensor<1x192x192x16xf32>, tensor<2xi32>) -> tensor<1x384x384x16xf32>
    %375 = "tfl.pseudo_const"() {value = dense<[[0, 0], [1, 1], [1, 1], [0, 0]]> : tensor<4x2xi32>} : () -> tensor<4x2xi32>
    %376 = "tfl.mirror_pad"(%374, %375) {mode = "REFLECT"} : (tensor<1x384x384x16xf32>, tensor<4x2xi32>) -> tensor<1x386x386x16xf32>
    %377 = "tfl.pseudo_const"() {value = dense<0.000000e+00> : tensor<8xf16>} : () -> tensor<8xf16>
    %378 = "tfl.dequantize"(%377) : (tensor<8xf16>) -> tensor<8xf32>
    %379 = "tfl.pseudo_const"() {value = dense<"hex_value_removed_for_legibility_this_model_will_not_run_correctly_without_it"> : tensor<8x3x3x16xf16>} : () -> tensor<8x3x3x16xf16>
    %380 = "tfl.dequantize"(%379) : (tensor<8x3x3x16xf16>) -> tensor<8x3x3x16xf32>
    %381 = "tfl.conv_2d"(%376, %380, %378) {dilation_h_factor = 1 : i32, dilation_w_factor = 1 : i32, fused_activation_function = "NONE", padding = "VALID", stride_h = 1 : i32, stride_w = 1 : i32} : (tensor<1x386x386x16xf32>, tensor<8x3x3x16xf32>, tensor<8xf32>) -> tensor<1x384x384x8xf32>
    %382 = "tfl.pseudo_const"() {value = dense<[1, 2]> : tensor<2xi32>} : () -> tensor<2xi32>
    %383 = "tfl.mean"(%381, %382) {keep_dims = true} : (tensor<1x384x384x8xf32>, tensor<2xi32>) -> tensor<1x1x1x8xf32>
    %384 = "tfl.squared_difference"(%381, %383) : (tensor<1x384x384x8xf32>, tensor<1x1x1x8xf32>) -> tensor<1x384x384x8xf32>
    %385 = "tfl.pseudo_const"() {value = dense<[1, 2]> : tensor<2xi32>} : () -> tensor<2xi32>
    %386 = "tfl.mean"(%384, %385) {keep_dims = true} : (tensor<1x384x384x8xf32>, tensor<2xi32>) -> tensor<1x1x1x8xf32>
    %387 = "tfl.pseudo_const"() {value = dense<1.001360e-05> : tensor<f16>} : () -> tensor<f16>
    %388 = "tfl.dequantize"(%387) : (tensor<f16>) -> tensor<*xf32>
    %389 = "tfl.add"(%386, %388) {fused_activation_function = "NONE"} : (tensor<1x1x1x8xf32>, tensor<*xf32>) -> tensor<1x1x1x8xf32>
    %390 = "tfl.rsqrt"(%389) : (tensor<1x1x1x8xf32>) -> tensor<1x1x1x8xf32>
    %391 = tfl.mul %390, %158 {fused_activation_function = "NONE"} : tensor<1x1x1x8xf32>
    %392 = "tfl.mul"(%381, %391) {fused_activation_function = "NONE"} : (tensor<1x384x384x8xf32>, tensor<1x1x1x8xf32>) -> tensor<1x384x384x8xf32>
    %393 = tfl.mul %383, %391 {fused_activation_function = "NONE"} : tensor<1x1x1x8xf32>
    %394 = tfl.sub %153, %393 {fused_activation_function = "NONE"} : tensor<1x1x1x8xf32>
    %395 = "tfl.add"(%392, %394) {fused_activation_function = "RELU"} : (tensor<1x384x384x8xf32>, tensor<1x1x1x8xf32>) -> tensor<1x384x384x8xf32>
    %396 = "tfl.pseudo_const"() {value = dense<384> : tensor<2xi32>} : () -> tensor<2xi32>
    %397 = "tfl.resize_nearest_neighbor"(%395, %396) {align_corners = false} : (tensor<1x384x384x8xf32>, tensor<2xi32>) -> tensor<1x384x384x8xf32>
    %398 = "tfl.pseudo_const"() {value = dense<[[0, 0], [4, 4], [4, 4], [0, 0]]> : tensor<4x2xi32>} : () -> tensor<4x2xi32>
    %399 = "tfl.mirror_pad"(%397, %398) {mode = "REFLECT"} : (tensor<1x384x384x8xf32>, tensor<4x2xi32>) -> tensor<1x392x392x8xf32>
    %400 = "tfl.pseudo_const"() {value = dense<0.000000e+00> : tensor<3xf16>} : () -> tensor<3xf16>
    %401 = "tfl.dequantize"(%400) : (tensor<3xf16>) -> tensor<3xf32>
    %402 = "tfl.pseudo_const"() {value = dense<"hex_value_removed_for_legibility_this_model_will_not_run_correctly_without_it"> : tensor<3x9x9x8xf16>} : () -> tensor<3x9x9x8xf16>
    %403 = "tfl.dequantize"(%402) : (tensor<3x9x9x8xf16>) -> tensor<3x9x9x8xf32>
    %404 = "tfl.conv_2d"(%399, %403, %401) {dilation_h_factor = 1 : i32, dilation_w_factor = 1 : i32, fused_activation_function = "NONE", padding = "VALID", stride_h = 1 : i32, stride_w = 1 : i32} : (tensor<1x392x392x8xf32>, tensor<3x9x9x8xf32>, tensor<3xf32>) -> tensor<1x384x384x3xf32>
    %405 = "tfl.pseudo_const"() {value = dense<[1, 2]> : tensor<2xi32>} : () -> tensor<2xi32>
    %406 = "tfl.mean"(%404, %405) {keep_dims = true} : (tensor<1x384x384x3xf32>, tensor<2xi32>) -> tensor<1x1x1x3xf32>
    %407 = "tfl.squared_difference"(%404, %406) : (tensor<1x384x384x3xf32>, tensor<1x1x1x3xf32>) -> tensor<1x384x384x3xf32>
    %408 = "tfl.pseudo_const"() {value = dense<[1, 2]> : tensor<2xi32>} : () -> tensor<2xi32>
    %409 = "tfl.mean"(%407, %408) {keep_dims = true} : (tensor<1x384x384x3xf32>, tensor<2xi32>) -> tensor<1x1x1x3xf32>
    %410 = "tfl.pseudo_const"() {value = dense<1.001360e-05> : tensor<f16>} : () -> tensor<f16>
    %411 = "tfl.dequantize"(%410) : (tensor<f16>) -> tensor<*xf32>
    %412 = "tfl.add"(%409, %411) {fused_activation_function = "NONE"} : (tensor<1x1x1x3xf32>, tensor<*xf32>) -> tensor<1x1x1x3xf32>
    %413 = "tfl.rsqrt"(%412) : (tensor<1x1x1x3xf32>) -> tensor<1x1x1x3xf32>
    %414 = tfl.mul %413, %168 {fused_activation_function = "NONE"} : tensor<1x1x1x3xf32>
    %415 = "tfl.mul"(%404, %414) {fused_activation_function = "NONE"} : (tensor<1x384x384x3xf32>, tensor<1x1x1x3xf32>) -> tensor<1x384x384x3xf32>
    %416 = tfl.mul %406, %414 {fused_activation_function = "NONE"} : tensor<1x1x1x3xf32>
    %417 = tfl.sub %163, %416 {fused_activation_function = "NONE"} : tensor<1x1x1x3xf32>
    %418 = "tfl.add"(%415, %417) {fused_activation_function = "NONE"} : (tensor<1x384x384x3xf32>, tensor<1x1x1x3xf32>) -> tensor<1x384x384x3xf32>
    %419 = "tfl.logistic"(%418) : (tensor<1x384x384x3xf32>) -> tensor<1x384x384x3xf32>
    return %419 : tensor<1x384x384x3xf32>
  }
}