

module attributes {tfl.description = "TOCO Converted.", tfl.schema_version = 3 : i32} {
  func @main(%arg0: tensor<1x256x256x3xf32>) -> tensor<1x1x1x100xf32> attributes {tf.entry_function = {inputs = "style_image", outputs = "mobilenet_conv/Conv/BiasAdd"}} {
    %0 = "tfl.quantize"(%arg0) {qtype = tensor<1x256x256x3x!quant.uniform<i8:f32, 0.0039215688593685627:-128>>} : (tensor<1x256x256x3xf32>) -> tensor<1x256x256x3x!quant.uniform<i8:f32, 0.0039215688593685627:-128>>
    %1 = "tfl.pseudo_qconst"() {qtype = tensor<32x3x3x3x!quant.uniform<i8<-127:127>:f32:0, {… >>, value = dense<"hex_value_removed_for_legibility_this_model_will_not_run_correctly_without_it"> : tensor<32x3x3x3xi8>} : () -> tensor<32x3x3x3x!quant.uniform<i8<-127:127>:f32:0, {… >>
    %2 = "tfl.pseudo_qconst"() {qtype = tensor<32x!quant.uniform<i32:f32:0, {… >>, value = dense<[63426, 29306, -14157, -2147483647, 274690, 180992, -100759, -2147483647, 32422, 62713, -30993, -2147483647, -2147483647, -2147483647, 145963, 96627, 182831, 92838, -141219, -2147483647, 175990, 319887, 61929, -7366, 271848, 107536, 395284, 22507, 2147483647, 239772, -24490, 509598]> : tensor<32xi32>} : () -> tensor<32x!quant.uniform<i32:f32:0, {… >>
    %3 = "tfl.conv_2d"(%0, %1, %2) {dilation_h_factor = 1 : i32, dilation_w_factor = 1 : i32, fused_activation_function = "RELU6", padding = "SAME", stride_h = 2 : i32, stride_w = 2 : i32} : (tensor<1x256x256x3x!quant.uniform<i8:f32, 0.0039215688593685627:-128>>, tensor<32x3x3x3x!quant.uniform<i8<-127:127>:f32:0, {… >>, tensor<32x!quant.uniform<i32:f32:0, {… >>) -> tensor<1x128x128x32x!quant.uniform<i8:f32, 0.023529412224888802:-128>>
    %4 = "tfl.pseudo_qconst"() {qtype = tensor<1x3x3x32x!quant.uniform<i8<-127:127>:f32:3, {… >>, value = dense<"hex_value_removed_for_legibility_this_model_will_not_run_correctly_without_it"> : tensor<1x3x3x32xi8>} : () -> tensor<1x3x3x32x!quant.uniform<i8<-127:127>:f32:3, {… >>
    %5 = "tfl.pseudo_qconst"() {qtype = tensor<32x!quant.uniform<i32:f32:0, {… >>, value = dense<[5012, 19106, -522, -14, 6175, 7541, 1058, -108, 11554, 2902, 798, -1425, -70, -280, 9673, 8900, -72, 7244, 5442, -238, 46672, 6856, -97, -41962, 8624, 8429, -128, 20689, -2910, 4060, -2595, -20868]> : tensor<32xi32>} : () -> tensor<32x!quant.uniform<i32:f32:0, {… >>
    %6 = "tfl.depthwise_conv_2d"(%3, %4, %5) {depth_multiplier = 1 : i32, dilation_h_factor = 1 : i32, dilation_w_factor = 1 : i32, fused_activation_function = "RELU6", padding = "SAME", stride_h = 1 : i32, stride_w = 1 : i32} : (tensor<1x128x128x32x!quant.uniform<i8:f32, 0.023529412224888802:-128>>, tensor<1x3x3x32x!quant.uniform<i8<-127:127>:f32:3, {… >>, tensor<32x!quant.uniform<i32:f32:0, {… >>) -> tensor<1x128x128x32x!quant.uniform<i8:f32, 0.023529412224888802:-128>>
    %7 = "tfl.pseudo_qconst"() {qtype = tensor<16x1x1x32x!quant.uniform<i8<-127:127>:f32:0, {… >>, value = dense<"hex_value_removed_for_legibility_this_model_will_not_run_correctly_without_it"> : tensor<16x1x1x32xi8>} : () -> tensor<16x1x1x32x!quant.uniform<i8<-127:127>:f32:0, {… >>
    %8 = "tfl.pseudo_qconst"() {qtype = tensor<16x!quant.uniform<i32:f32:0, {… >>, value = dense<[-3302, 5763, 23476, 24412, 15228, 5296, -36, 9263, -17308, 4092, -4920, 32345, -24902, -18628, 14229, -3856]> : tensor<16xi32>} : () -> tensor<16x!quant.uniform<i32:f32:0, {… >>
    %9 = "tfl.conv_2d"(%6, %7, %8) {dilation_h_factor = 1 : i32, dilation_w_factor = 1 : i32, fused_activation_function = "NONE", padding = "SAME", stride_h = 1 : i32, stride_w = 1 : i32} : (tensor<1x128x128x32x!quant.uniform<i8:f32, 0.023529412224888802:-128>>, tensor<16x1x1x32x!quant.uniform<i8<-127:127>:f32:0, {… >>, tensor<16x!quant.uniform<i32:f32:0, {… >>) -> tensor<1x128x128x16x!quant.uniform<i8:f32, 0.27076375484466553:-6>>
    %10 = "tfl.pseudo_qconst"() {qtype = tensor<96x1x1x16x!quant.uniform<i8<-127:127>:f32:0, {… >>, value = dense<"hex_value_removed_for_legibility_this_model_will_not_run_correctly_without_it"> : tensor<96x1x1x16xi8>} : () -> tensor<96x1x1x16x!quant.uniform<i8<-127:127>:f32:0, {… >>
    %11 = "tfl.pseudo_qconst"() {qtype = tensor<96x!quant.uniform<i32:f32:0, {… >>, value = dense<[3142, 51, 39, 5329, -387, 24808, -21, 10242, 17771, 649, 9700, 9664, 245, 13492, 15573, -117, 340, 31401, 1028, -267, -68, -283, 502, 1935, 8034, 18427, -9087, 13939, 18763, 208, 2992, 6488, -340, 23954, 7477, 3331, 2274, 11079, 115, -690, -257, 380, 22845, -384, 34284, -326, 89, 3009, 289, 25, 9263, 24, 774, 21634, 201, 7685, 6026, 157, 2936, 326, 483, -399, 3991, 5080, 3471, 176, 12239, 295, 7492, -211, 110, 5403, 18622, 46298, -201, 12325, -261, 6206, 10937, 58, 7027, 449, 0, 285, 4204, 1446, 102, 165, 14756, 11425, -12968, 93, -205, 15768, 720, 34128]> : tensor<96xi32>} : () -> tensor<96x!quant.uniform<i32:f32:0, {… >>
    %12 = "tfl.conv_2d"(%9, %10, %11) {dilation_h_factor = 1 : i32, dilation_w_factor = 1 : i32, fused_activation_function = "RELU6", padding = "SAME", stride_h = 1 : i32, stride_w = 1 : i32} : (tensor<1x128x128x16x!quant.uniform<i8:f32, 0.27076375484466553:-6>>, tensor<96x1x1x16x!quant.uniform<i8<-127:127>:f32:0, {… >>, tensor<96x!quant.uniform<i32:f32:0, {… >>) -> tensor<1x128x128x96x!quant.uniform<i8:f32, 0.023529412224888802:-128>>
    %13 = "tfl.pseudo_qconst"() {qtype = tensor<1x3x3x96x!quant.uniform<i8<-127:127>:f32:3, {… >>, value = dense<"hex_value_removed_for_legibility_this_model_will_not_run_correctly_without_it"> : tensor<1x3x3x96xi8>} : () -> tensor<1x3x3x96x!quant.uniform<i8<-127:127>:f32:3, {… >>
    %14 = "tfl.pseudo_qconst"() {qtype = tensor<96x!quant.uniform<i32:f32:0, {… >>, value = dense<[867, 688, 203, -11408, 2105, -17, -118, -957, -66224, 514, -48723, 63956, 125, -4124, -18187, 55014, 524, -35, 26854, 16647, 1210, 438, 44743, 27526, -460, 393, -8322, -377, -71818, 110964, -433, 5315, 13304, 9150, -1022, -12541, 5183, -76106, 60725, 19759, 14326, 23987, -71284, 474, -60, 68472, 472, 68753, 70656, -48, -320, 1111, 5070, -136, 1158, 253, -3917, 19912, 61336, 9511, 49695, 13764, 847, 18116, 185, 1705, -51018, 27815, 239, 7142, 4386, 5229, -194, 334, 14673, -2322, 497, -4230, -133, 119902, -872, 3661, 66790, 70979, 74540, 11475, 13815, 14375, 1035, 9, -6863, 15673, 67044, 2090, 50839, -369]> : tensor<96xi32>} : () -> tensor<96x!quant.uniform<i32:f32:0, {… >>
    %15 = "tfl.depthwise_conv_2d"(%12, %13, %14) {depth_multiplier = 1 : i32, dilation_h_factor = 1 : i32, dilation_w_factor = 1 : i32, fused_activation_function = "RELU6", padding = "SAME", stride_h = 2 : i32, stride_w = 2 : i32} : (tensor<1x128x128x96x!quant.uniform<i8:f32, 0.023529412224888802:-128>>, tensor<1x3x3x96x!quant.uniform<i8<-127:127>:f32:3, {… >>, tensor<96x!quant.uniform<i32:f32:0, {… >>) -> tensor<1x64x64x96x!quant.uniform<i8:f32, 0.023529412224888802:-128>>
    %16 = "tfl.pseudo_qconst"() {qtype = tensor<24x1x1x96x!quant.uniform<i8<-127:127>:f32:0, {… >>, value = dense<"hex_value_removed_for_legibility_this_model_will_not_run_correctly_without_it"> : tensor<24x1x1x96xi8>} : () -> tensor<24x1x1x96x!quant.uniform<i8<-127:127>:f32:0, {… >>
    %17 = "tfl.pseudo_qconst"() {qtype = tensor<24x!quant.uniform<i32:f32:0, {… >>, value = dense<[31901, -26091, 40748, -31056, 7639, -9311, -12569, 17072, -13394, 861, 6193, -12452, 22392, -10791, 22370, -20017, 26603, -14689, -1518, 7598, -29375, -14462, -8253, 34339]> : tensor<24xi32>} : () -> tensor<24x!quant.uniform<i32:f32:0, {… >>
    %18 = "tfl.conv_2d"(%15, %16, %17) {dilation_h_factor = 1 : i32, dilation_w_factor = 1 : i32, fused_activation_function = "NONE", padding = "SAME", stride_h = 1 : i32, stride_w = 1 : i32} : (tensor<1x64x64x96x!quant.uniform<i8:f32, 0.023529412224888802:-128>>, tensor<24x1x1x96x!quant.uniform<i8<-127:127>:f32:0, {… >>, tensor<24x!quant.uniform<i32:f32:0, {… >>) -> tensor<1x64x64x24x!quant.uniform<i8:f32, 0.2085687667131424:7>>
    %19 = "tfl.pseudo_qconst"() {qtype = tensor<144x1x1x24x!quant.uniform<i8<-127:127>:f32:0, {… >>, value = dense<"hex_value_removed_for_legibility_this_model_will_not_run_correctly_without_it"> : tensor<144x1x1x24xi8>} : () -> tensor<144x1x1x24x!quant.uniform<i8<-127:127>:f32:0, {… >>
    %20 = "tfl.pseudo_qconst"() {qtype = tensor<144x!quant.uniform<i32:f32:0, {… >>, value = dense<"hex_value_removed_for_legibility_this_model_will_not_run_correctly_without_it"> : tensor<144xi32>} : () -> tensor<144x!quant.uniform<i32:f32:0, {… >>
    %21 = "tfl.conv_2d"(%18, %19, %20) {dilation_h_factor = 1 : i32, dilation_w_factor = 1 : i32, fused_activation_function = "RELU6", padding = "SAME", stride_h = 1 : i32, stride_w = 1 : i32} : (tensor<1x64x64x24x!quant.uniform<i8:f32, 0.2085687667131424:7>>, tensor<144x1x1x24x!quant.uniform<i8<-127:127>:f32:0, {… >>, tensor<144x!quant.uniform<i32:f32:0, {… >>) -> tensor<1x64x64x144x!quant.uniform<i8:f32, 0.023529412224888802:-128>>
    %22 = "tfl.pseudo_qconst"() {qtype = tensor<1x3x3x144x!quant.uniform<i8<-127:127>:f32:3, {… >>, value = dense<"hex_value_removed_for_legibility_this_model_will_not_run_correctly_without_it"> : tensor<1x3x3x144xi8>} : () -> tensor<1x3x3x144x!quant.uniform<i8<-127:127>:f32:3, {… >>
    %23 = "tfl.pseudo_qconst"() {qtype = tensor<144x!quant.uniform<i32:f32:0, {… >>, value = dense<"hex_value_removed_for_legibility_this_model_will_not_run_correctly_without_it"> : tensor<144xi32>} : () -> tensor<144x!quant.uniform<i32:f32:0, {… >>
    %24 = "tfl.depthwise_conv_2d"(%21, %22, %23) {depth_multiplier = 1 : i32, dilation_h_factor = 1 : i32, dilation_w_factor = 1 : i32, fused_activation_function = "RELU6", padding = "SAME", stride_h = 1 : i32, stride_w = 1 : i32} : (tensor<1x64x64x144x!quant.uniform<i8:f32, 0.023529412224888802:-128>>, tensor<1x3x3x144x!quant.uniform<i8<-127:127>:f32:3, {… >>, tensor<144x!quant.uniform<i32:f32:0, {… >>) -> tensor<1x64x64x144x!quant.uniform<i8:f32, 0.023529412224888802:-128>>
    %25 = "tfl.pseudo_qconst"() {qtype = tensor<24x1x1x144x!quant.uniform<i8<-127:127>:f32:0, {… >>, value = dense<"hex_value_removed_for_legibility_this_model_will_not_run_correctly_without_it"> : tensor<24x1x1x144xi8>} : () -> tensor<24x1x1x144x!quant.uniform<i8<-127:127>:f32:0, {… >>
    %26 = "tfl.pseudo_qconst"() {qtype = tensor<24x!quant.uniform<i32:f32:0, {… >>, value = dense<[76926, -41389, 21135, -27035, 2548, 804, 43297, 83087, -34445, -40318, 1306, 24728, -18572, -14139, -68847, 56411, 30027, 29152, 66975, 7155, -18422, -91088, -10535, -34202]> : tensor<24xi32>} : () -> tensor<24x!quant.uniform<i32:f32:0, {… >>
    %27 = "tfl.conv_2d"(%24, %25, %26) {dilation_h_factor = 1 : i32, dilation_w_factor = 1 : i32, fused_activation_function = "NONE", padding = "SAME", stride_h = 1 : i32, stride_w = 1 : i32} : (tensor<1x64x64x144x!quant.uniform<i8:f32, 0.023529412224888802:-128>>, tensor<24x1x1x144x!quant.uniform<i8<-127:127>:f32:0, {… >>, tensor<24x!quant.uniform<i32:f32:0, {… >>) -> tensor<1x64x64x24x!quant.uniform<i8:f32, 0.24448399245738983:-21>>
    %28 = "tfl.add"(%27, %18) {fused_activation_function = "NONE"} : (tensor<1x64x64x24x!quant.uniform<i8:f32, 0.24448399245738983:-21>>, tensor<1x64x64x24x!quant.uniform<i8:f32, 0.2085687667131424:7>>) -> tensor<1x64x64x24x!quant.uniform<i8:f32, 0.2782500684261322:-5>>
    %29 = "tfl.pseudo_qconst"() {qtype = tensor<144x1x1x24x!quant.uniform<i8<-127:127>:f32:0, {… >>, value = dense<"hex_value_removed_for_legibility_this_model_will_not_run_correctly_without_it"> : tensor<144x1x1x24xi8>} : () -> tensor<144x1x1x24x!quant.uniform<i8<-127:127>:f32:0, {… >>
    %30 = "tfl.pseudo_qconst"() {qtype = tensor<144x!quant.uniform<i32:f32:0, {… >>, value = dense<"hex_value_removed_for_legibility_this_model_will_not_run_correctly_without_it"> : tensor<144xi32>} : () -> tensor<144x!quant.uniform<i32:f32:0, {… >>
    %31 = "tfl.conv_2d"(%28, %29, %30) {dilation_h_factor = 1 : i32, dilation_w_factor = 1 : i32, fused_activation_function = "RELU6", padding = "SAME", stride_h = 1 : i32, stride_w = 1 : i32} : (tensor<1x64x64x24x!quant.uniform<i8:f32, 0.2782500684261322:-5>>, tensor<144x1x1x24x!quant.uniform<i8<-127:127>:f32:0, {… >>, tensor<144x!quant.uniform<i32:f32:0, {… >>) -> tensor<1x64x64x144x!quant.uniform<i8:f32, 0.023529412224888802:-128>>
    %32 = "tfl.pseudo_qconst"() {qtype = tensor<1x3x3x144x!quant.uniform<i8<-127:127>:f32:3, {… >>, value = dense<"hex_value_removed_for_legibility_this_model_will_not_run_correctly_without_it"> : tensor<1x3x3x144xi8>} : () -> tensor<1x3x3x144x!quant.uniform<i8<-127:127>:f32:3, {… >>
    %33 = "tfl.pseudo_qconst"() {qtype = tensor<144x!quant.uniform<i32:f32:0, {… >>, value = dense<"hex_value_removed_for_legibility_this_model_will_not_run_correctly_without_it"> : tensor<144xi32>} : () -> tensor<144x!quant.uniform<i32:f32:0, {… >>
    %34 = "tfl.depthwise_conv_2d"(%31, %32, %33) {depth_multiplier = 1 : i32, dilation_h_factor = 1 : i32, dilation_w_factor = 1 : i32, fused_activation_function = "RELU6", padding = "SAME", stride_h = 2 : i32, stride_w = 2 : i32} : (tensor<1x64x64x144x!quant.uniform<i8:f32, 0.023529412224888802:-128>>, tensor<1x3x3x144x!quant.uniform<i8<-127:127>:f32:3, {… >>, tensor<144x!quant.uniform<i32:f32:0, {… >>) -> tensor<1x32x32x144x!quant.uniform<i8:f32, 0.023529412224888802:-128>>
    %35 = "tfl.pseudo_qconst"() {qtype = tensor<32x1x1x144x!quant.uniform<i8<-127:127>:f32:0, {… >>, value = dense<"hex_value_removed_for_legibility_this_model_will_not_run_correctly_without_it"> : tensor<32x1x1x144xi8>} : () -> tensor<32x1x1x144x!quant.uniform<i8<-127:127>:f32:0, {… >>
    %36 = "tfl.pseudo_qconst"() {qtype = tensor<32x!quant.uniform<i32:f32:0, {… >>, value = dense<[-10929, 15240, 20806, -18726, 44908, 384, 12145, -57705, -39915, -38117, 12557, -70986, 19607, -36830, -13046, 8300, 9206, -36095, -31026, -35872, -17872, -36203, -47255, 7368, -3059, -21755, 27426, -25219, -15912, -51479, -16642, -1335]> : tensor<32xi32>} : () -> tensor<32x!quant.uniform<i32:f32:0, {… >>
    %37 = "tfl.conv_2d"(%34, %35, %36) {dilation_h_factor = 1 : i32, dilation_w_factor = 1 : i32, fused_activation_function = "NONE", padding = "SAME", stride_h = 1 : i32, stride_w = 1 : i32} : (tensor<1x32x32x144x!quant.uniform<i8:f32, 0.023529412224888802:-128>>, tensor<32x1x1x144x!quant.uniform<i8<-127:127>:f32:0, {… >>, tensor<32x!quant.uniform<i32:f32:0, {… >>) -> tensor<1x32x32x32x!quant.uniform<i8:f32, 0.17524614930152893:-11>>
    %38 = "tfl.pseudo_qconst"() {qtype = tensor<192x1x1x32x!quant.uniform<i8<-127:127>:f32:0, {… >>, value = dense<"hex_value_removed_for_legibility_this_model_will_not_run_correctly_without_it"> : tensor<192x1x1x32xi8>} : () -> tensor<192x1x1x32x!quant.uniform<i8<-127:127>:f32:0, {… >>
    %39 = "tfl.pseudo_qconst"() {qtype = tensor<192x!quant.uniform<i32:f32:0, {… >>, value = dense<"hex_value_removed_for_legibility_this_model_will_not_run_correctly_without_it"> : tensor<192xi32>} : () -> tensor<192x!quant.uniform<i32:f32:0, {… >>
    %40 = "tfl.conv_2d"(%37, %38, %39) {dilation_h_factor = 1 : i32, dilation_w_factor = 1 : i32, fused_activation_function = "RELU6", padding = "SAME", stride_h = 1 : i32, stride_w = 1 : i32} : (tensor<1x32x32x32x!quant.uniform<i8:f32, 0.17524614930152893:-11>>, tensor<192x1x1x32x!quant.uniform<i8<-127:127>:f32:0, {… >>, tensor<192x!quant.uniform<i32:f32:0, {… >>) -> tensor<1x32x32x192x!quant.uniform<i8:f32, 0.023529412224888802:-128>>
    %41 = "tfl.pseudo_qconst"() {qtype = tensor<1x3x3x192x!quant.uniform<i8<-127:127>:f32:3, {… >>, value = dense<"hex_value_removed_for_legibility_this_model_will_not_run_correctly_without_it"> : tensor<1x3x3x192xi8>} : () -> tensor<1x3x3x192x!quant.uniform<i8<-127:127>:f32:3, {… >>
    %42 = "tfl.pseudo_qconst"() {qtype = tensor<192x!quant.uniform<i32:f32:0, {… >>, value = dense<"hex_value_removed_for_legibility_this_model_will_not_run_correctly_without_it"> : tensor<192xi32>} : () -> tensor<192x!quant.uniform<i32:f32:0, {… >>
    %43 = "tfl.depthwise_conv_2d"(%40, %41, %42) {depth_multiplier = 1 : i32, dilation_h_factor = 1 : i32, dilation_w_factor = 1 : i32, fused_activation_function = "RELU6", padding = "SAME", stride_h = 1 : i32, stride_w = 1 : i32} : (tensor<1x32x32x192x!quant.uniform<i8:f32, 0.023529412224888802:-128>>, tensor<1x3x3x192x!quant.uniform<i8<-127:127>:f32:3, {… >>, tensor<192x!quant.uniform<i32:f32:0, {… >>) -> tensor<1x32x32x192x!quant.uniform<i8:f32, 0.023529412224888802:-128>>
    %44 = "tfl.pseudo_qconst"() {qtype = tensor<32x1x1x192x!quant.uniform<i8<-127:127>:f32:0, {… >>, value = dense<"hex_value_removed_for_legibility_this_model_will_not_run_correctly_without_it"> : tensor<32x1x1x192xi8>} : () -> tensor<32x1x1x192x!quant.uniform<i8<-127:127>:f32:0, {… >>
    %45 = "tfl.pseudo_qconst"() {qtype = tensor<32x!quant.uniform<i32:f32:0, {… >>, value = dense<[31630, -2194, 7505, 47497, 32836, -15591, 5483, 14167, 10731, -20441, 31439, 41598, 13454, 5220, 21923, 27166, -27178, 29760, 12232, 4020, -19315, -15414, 44063, -28993, 17611, -14664, 22026, 19084, -51264, -13325, -5458, 25574]> : tensor<32xi32>} : () -> tensor<32x!quant.uniform<i32:f32:0, {… >>
    %46 = "tfl.conv_2d"(%43, %44, %45) {dilation_h_factor = 1 : i32, dilation_w_factor = 1 : i32, fused_activation_function = "NONE", padding = "SAME", stride_h = 1 : i32, stride_w = 1 : i32} : (tensor<1x32x32x192x!quant.uniform<i8:f32, 0.023529412224888802:-128>>, tensor<32x1x1x192x!quant.uniform<i8<-127:127>:f32:0, {… >>, tensor<32x!quant.uniform<i32:f32:0, {… >>) -> tensor<1x32x32x32x!quant.uniform<i8:f32, 0.16336700320243835:16>>
    %47 = "tfl.add"(%46, %37) {fused_activation_function = "NONE"} : (tensor<1x32x32x32x!quant.uniform<i8:f32, 0.16336700320243835:16>>, tensor<1x32x32x32x!quant.uniform<i8:f32, 0.17524614930152893:-11>>) -> tensor<1x32x32x32x!quant.uniform<i8:f32, 0.20081484317779541:-5>>
    %48 = "tfl.pseudo_qconst"() {qtype = tensor<192x1x1x32x!quant.uniform<i8<-127:127>:f32:0, {… >>, value = dense<"hex_value_removed_for_legibility_this_model_will_not_run_correctly_without_it"> : tensor<192x1x1x32xi8>} : () -> tensor<192x1x1x32x!quant.uniform<i8<-127:127>:f32:0, {… >>
    %49 = "tfl.pseudo_qconst"() {qtype = tensor<192x!quant.uniform<i32:f32:0, {… >>, value = dense<"hex_value_removed_for_legibility_this_model_will_not_run_correctly_without_it"> : tensor<192xi32>} : () -> tensor<192x!quant.uniform<i32:f32:0, {… >>
    %50 = "tfl.conv_2d"(%47, %48, %49) {dilation_h_factor = 1 : i32, dilation_w_factor = 1 : i32, fused_activation_function = "RELU6", padding = "SAME", stride_h = 1 : i32, stride_w = 1 : i32} : (tensor<1x32x32x32x!quant.uniform<i8:f32, 0.20081484317779541:-5>>, tensor<192x1x1x32x!quant.uniform<i8<-127:127>:f32:0, {… >>, tensor<192x!quant.uniform<i32:f32:0, {… >>) -> tensor<1x32x32x192x!quant.uniform<i8:f32, 0.023529412224888802:-128>>
    %51 = "tfl.pseudo_qconst"() {qtype = tensor<1x3x3x192x!quant.uniform<i8<-127:127>:f32:3, {… >>, value = dense<"hex_value_removed_for_legibility_this_model_will_not_run_correctly_without_it"> : tensor<1x3x3x192xi8>} : () -> tensor<1x3x3x192x!quant.uniform<i8<-127:127>:f32:3, {… >>
    %52 = "tfl.pseudo_qconst"() {qtype = tensor<192x!quant.uniform<i32:f32:0, {… >>, value = dense<"hex_value_removed_for_legibility_this_model_will_not_run_correctly_without_it"> : tensor<192xi32>} : () -> tensor<192x!quant.uniform<i32:f32:0, {… >>
    %53 = "tfl.depthwise_conv_2d"(%50, %51, %52) {depth_multiplier = 1 : i32, dilation_h_factor = 1 : i32, dilation_w_factor = 1 : i32, fused_activation_function = "RELU6", padding = "SAME", stride_h = 1 : i32, stride_w = 1 : i32} : (tensor<1x32x32x192x!quant.uniform<i8:f32, 0.023529412224888802:-128>>, tensor<1x3x3x192x!quant.uniform<i8<-127:127>:f32:3, {… >>, tensor<192x!quant.uniform<i32:f32:0, {… >>) -> tensor<1x32x32x192x!quant.uniform<i8:f32, 0.023529412224888802:-128>>
    %54 = "tfl.pseudo_qconst"() {qtype = tensor<32x1x1x192x!quant.uniform<i8<-127:127>:f32:0, {… >>, value = dense<"hex_value_removed_for_legibility_this_model_will_not_run_correctly_without_it"> : tensor<32x1x1x192xi8>} : () -> tensor<32x1x1x192x!quant.uniform<i8<-127:127>:f32:0, {… >>
    %55 = "tfl.pseudo_qconst"() {qtype = tensor<32x!quant.uniform<i32:f32:0, {… >>, value = dense<[14748, 5534, 19886, -5999, 14734, 3009, -12993, -10160, -8319, 8083, -17495, -1731, -8588, -23395, -10694, -5889, 38108, 5484, 19562, -18179, -3561, -26218, -57047, 6158, -20283, -36169, 23330, -29757, -37719, 21164, 1553, 2042]> : tensor<32xi32>} : () -> tensor<32x!quant.uniform<i32:f32:0, {… >>
    %56 = "tfl.conv_2d"(%53, %54, %55) {dilation_h_factor = 1 : i32, dilation_w_factor = 1 : i32, fused_activation_function = "NONE", padding = "SAME", stride_h = 1 : i32, stride_w = 1 : i32} : (tensor<1x32x32x192x!quant.uniform<i8:f32, 0.023529412224888802:-128>>, tensor<32x1x1x192x!quant.uniform<i8<-127:127>:f32:0, {… >>, tensor<32x!quant.uniform<i32:f32:0, {… >>) -> tensor<1x32x32x32x!quant.uniform<i8:f32, 0.14419730007648468:29>>
    %57 = "tfl.add"(%56, %47) {fused_activation_function = "NONE"} : (tensor<1x32x32x32x!quant.uniform<i8:f32, 0.14419730007648468:29>>, tensor<1x32x32x32x!quant.uniform<i8:f32, 0.20081484317779541:-5>>) -> tensor<1x32x32x32x!quant.uniform<i8:f32, 0.25256079435348511:11>>
    %58 = "tfl.pseudo_qconst"() {qtype = tensor<192x1x1x32x!quant.uniform<i8<-127:127>:f32:0, {… >>, value = dense<"hex_value_removed_for_legibility_this_model_will_not_run_correctly_without_it"> : tensor<192x1x1x32xi8>} : () -> tensor<192x1x1x32x!quant.uniform<i8<-127:127>:f32:0, {… >>
    %59 = "tfl.pseudo_qconst"() {qtype = tensor<192x!quant.uniform<i32:f32:0, {… >>, value = dense<"hex_value_removed_for_legibility_this_model_will_not_run_correctly_without_it"> : tensor<192xi32>} : () -> tensor<192x!quant.uniform<i32:f32:0, {… >>
    %60 = "tfl.conv_2d"(%57, %58, %59) {dilation_h_factor = 1 : i32, dilation_w_factor = 1 : i32, fused_activation_function = "RELU6", padding = "SAME", stride_h = 1 : i32, stride_w = 1 : i32} : (tensor<1x32x32x32x!quant.uniform<i8:f32, 0.25256079435348511:11>>, tensor<192x1x1x32x!quant.uniform<i8<-127:127>:f32:0, {… >>, tensor<192x!quant.uniform<i32:f32:0, {… >>) -> tensor<1x32x32x192x!quant.uniform<i8:f32, 0.023529412224888802:-128>>
    %61 = "tfl.pseudo_qconst"() {qtype = tensor<1x3x3x192x!quant.uniform<i8<-127:127>:f32:3, {… >>, value = dense<"hex_value_removed_for_legibility_this_model_will_not_run_correctly_without_it"> : tensor<1x3x3x192xi8>} : () -> tensor<1x3x3x192x!quant.uniform<i8<-127:127>:f32:3, {… >>
    %62 = "tfl.pseudo_qconst"() {qtype = tensor<192x!quant.uniform<i32:f32:0, {… >>, value = dense<"hex_value_removed_for_legibility_this_model_will_not_run_correctly_without_it"> : tensor<192xi32>} : () -> tensor<192x!quant.uniform<i32:f32:0, {… >>
    %63 = "tfl.depthwise_conv_2d"(%60, %61, %62) {depth_multiplier = 1 : i32, dilation_h_factor = 1 : i32, dilation_w_factor = 1 : i32, fused_activation_function = "RELU6", padding = "SAME", stride_h = 2 : i32, stride_w = 2 : i32} : (tensor<1x32x32x192x!quant.uniform<i8:f32, 0.023529412224888802:-128>>, tensor<1x3x3x192x!quant.uniform<i8<-127:127>:f32:3, {… >>, tensor<192x!quant.uniform<i32:f32:0, {… >>) -> tensor<1x16x16x192x!quant.uniform<i8:f32, 0.023529412224888802:-128>>
    %64 = "tfl.pseudo_qconst"() {qtype = tensor<64x1x1x192x!quant.uniform<i8<-127:127>:f32:0, {… >>, value = dense<"hex_value_removed_for_legibility_this_model_will_not_run_correctly_without_it"> : tensor<64x1x1x192xi8>} : () -> tensor<64x1x1x192x!quant.uniform<i8<-127:127>:f32:0, {… >>
    %65 = "tfl.pseudo_qconst"() {qtype = tensor<64x!quant.uniform<i32:f32:0, {… >>, value = dense<[-79709, 3519, -12836, 45321, -109, -33592, 59914, 33299, 18463, 53150, 28076, 28264, -7348, -33440, 5871, -25932, 3287, 23148, -21279, 65848, 79963, 57984, 17446, 52975, 21803, -36387, -35678, -27659, 3296, 53744, -24698, -18822, 62741, 28031, -48902, -3368, 14227, 93705, -30208, 22023, -1755, 9290, 77914, -5428, -73406, -39316, 32567, -37258, 31116, 6215, -20478, -19048, 34205, -13157, 34978, -9335, -22642, 5071, 42604, 59265, 17586, -19020, 45230, 27047]> : tensor<64xi32>} : () -> tensor<64x!quant.uniform<i32:f32:0, {… >>
    %66 = "tfl.conv_2d"(%63, %64, %65) {dilation_h_factor = 1 : i32, dilation_w_factor = 1 : i32, fused_activation_function = "NONE", padding = "SAME", stride_h = 1 : i32, stride_w = 1 : i32} : (tensor<1x16x16x192x!quant.uniform<i8:f32, 0.023529412224888802:-128>>, tensor<64x1x1x192x!quant.uniform<i8<-127:127>:f32:0, {… >>, tensor<64x!quant.uniform<i32:f32:0, {… >>) -> tensor<1x16x16x64x!quant.uniform<i8:f32, 0.18829920887947083:-31>>
    %67 = "tfl.pseudo_qconst"() {qtype = tensor<384x1x1x64x!quant.uniform<i8<-127:127>:f32:0, {… >>, value = dense<"hex_value_removed_for_legibility_this_model_will_not_run_correctly_without_it"> : tensor<384x1x1x64xi8>} : () -> tensor<384x1x1x64x!quant.uniform<i8<-127:127>:f32:0, {… >>
    %68 = "tfl.pseudo_qconst"() {qtype = tensor<384x!quant.uniform<i32:f32:0, {… >>, value = dense<"hex_value_removed_for_legibility_this_model_will_not_run_correctly_without_it"> : tensor<384xi32>} : () -> tensor<384x!quant.uniform<i32:f32:0, {… >>
    %69 = "tfl.conv_2d"(%66, %67, %68) {dilation_h_factor = 1 : i32, dilation_w_factor = 1 : i32, fused_activation_function = "RELU6", padding = "SAME", stride_h = 1 : i32, stride_w = 1 : i32} : (tensor<1x16x16x64x!quant.uniform<i8:f32, 0.18829920887947083:-31>>, tensor<384x1x1x64x!quant.uniform<i8<-127:127>:f32:0, {… >>, tensor<384x!quant.uniform<i32:f32:0, {… >>) -> tensor<1x16x16x384x!quant.uniform<i8:f32, 0.023529412224888802:-128>>
    %70 = "tfl.pseudo_qconst"() {qtype = tensor<1x3x3x384x!quant.uniform<i8<-127:127>:f32:3, {… >>, value = dense<"hex_value_removed_for_legibility_this_model_will_not_run_correctly_without_it"> : tensor<1x3x3x384xi8>} : () -> tensor<1x3x3x384x!quant.uniform<i8<-127:127>:f32:3, {… >>
    %71 = "tfl.pseudo_qconst"() {qtype = tensor<384x!quant.uniform<i32:f32:0, {… >>, value = dense<"hex_value_removed_for_legibility_this_model_will_not_run_correctly_without_it"> : tensor<384xi32>} : () -> tensor<384x!quant.uniform<i32:f32:0, {… >>
    %72 = "tfl.depthwise_conv_2d"(%69, %70, %71) {depth_multiplier = 1 : i32, dilation_h_factor = 1 : i32, dilation_w_factor = 1 : i32, fused_activation_function = "RELU6", padding = "SAME", stride_h = 1 : i32, stride_w = 1 : i32} : (tensor<1x16x16x384x!quant.uniform<i8:f32, 0.023529412224888802:-128>>, tensor<1x3x3x384x!quant.uniform<i8<-127:127>:f32:3, {… >>, tensor<384x!quant.uniform<i32:f32:0, {… >>) -> tensor<1x16x16x384x!quant.uniform<i8:f32, 0.023529412224888802:-128>>
    %73 = "tfl.pseudo_qconst"() {qtype = tensor<64x1x1x384x!quant.uniform<i8<-127:127>:f32:0, {… >>, value = dense<"hex_value_removed_for_legibility_this_model_will_not_run_correctly_without_it"> : tensor<64x1x1x384xi8>} : () -> tensor<64x1x1x384x!quant.uniform<i8<-127:127>:f32:0, {… >>
    %74 = "tfl.pseudo_qconst"() {qtype = tensor<64x!quant.uniform<i32:f32:0, {… >>, value = dense<[11408, -11470, -4729, 9288, -613, 6333, -8540, 8555, 3224, -8718, -16200, 7100, 2969, -9878, -3103, 20594, 4547, -14266, 32214, -2062, 3091, -45319, 15769, -4579, 7908, -3978, 2114, -7746, 27586, 14789, -26573, -24522, 17551, 2087, -20723, 8991, -24634, -237, 25739, -16467, -5865, -15342, 2182, 14534, 10028, 1631, -23882, -1810, -15112, -6704, -1732, -26726, -15131, -4548, 14150, -5559, 12682, 1304, -29206, 28817, 18694, 16399, -2303, 3495]> : tensor<64xi32>} : () -> tensor<64x!quant.uniform<i32:f32:0, {… >>
    %75 = "tfl.conv_2d"(%72, %73, %74) {dilation_h_factor = 1 : i32, dilation_w_factor = 1 : i32, fused_activation_function = "NONE", padding = "SAME", stride_h = 1 : i32, stride_w = 1 : i32} : (tensor<1x16x16x384x!quant.uniform<i8:f32, 0.023529412224888802:-128>>, tensor<64x1x1x384x!quant.uniform<i8<-127:127>:f32:0, {… >>, tensor<64x!quant.uniform<i32:f32:0, {… >>) -> tensor<1x16x16x64x!quant.uniform<i8:f32, 0.13870933651924133:-21>>
    %76 = "tfl.add"(%75, %66) {fused_activation_function = "NONE"} : (tensor<1x16x16x64x!quant.uniform<i8:f32, 0.13870933651924133:-21>>, tensor<1x16x16x64x!quant.uniform<i8:f32, 0.18829920887947083:-31>>) -> tensor<1x16x16x64x!quant.uniform<i8:f32, 0.1982869952917099:-26>>
    %77 = "tfl.pseudo_qconst"() {qtype = tensor<384x1x1x64x!quant.uniform<i8<-127:127>:f32:0, {… >>, value = dense<"hex_value_removed_for_legibility_this_model_will_not_run_correctly_without_it"> : tensor<384x1x1x64xi8>} : () -> tensor<384x1x1x64x!quant.uniform<i8<-127:127>:f32:0, {… >>
    %78 = "tfl.pseudo_qconst"() {qtype = tensor<384x!quant.uniform<i32:f32:0, {… >>, value = dense<"hex_value_removed_for_legibility_this_model_will_not_run_correctly_without_it"> : tensor<384xi32>} : () -> tensor<384x!quant.uniform<i32:f32:0, {… >>
    %79 = "tfl.conv_2d"(%76, %77, %78) {dilation_h_factor = 1 : i32, dilation_w_factor = 1 : i32, fused_activation_function = "RELU6", padding = "SAME", stride_h = 1 : i32, stride_w = 1 : i32} : (tensor<1x16x16x64x!quant.uniform<i8:f32, 0.1982869952917099:-26>>, tensor<384x1x1x64x!quant.uniform<i8<-127:127>:f32:0, {… >>, tensor<384x!quant.uniform<i32:f32:0, {… >>) -> tensor<1x16x16x384x!quant.uniform<i8:f32, 0.023529412224888802:-128>>
    %80 = "tfl.pseudo_qconst"() {qtype = tensor<1x3x3x384x!quant.uniform<i8<-127:127>:f32:3, {… >>, value = dense<"hex_value_removed_for_legibility_this_model_will_not_run_correctly_without_it"> : tensor<1x3x3x384xi8>} : () -> tensor<1x3x3x384x!quant.uniform<i8<-127:127>:f32:3, {… >>
    %81 = "tfl.pseudo_qconst"() {qtype = tensor<384x!quant.uniform<i32:f32:0, {… >>, value = dense<"hex_value_removed_for_legibility_this_model_will_not_run_correctly_without_it"> : tensor<384xi32>} : () -> tensor<384x!quant.uniform<i32:f32:0, {… >>
    %82 = "tfl.depthwise_conv_2d"(%79, %80, %81) {depth_multiplier = 1 : i32, dilation_h_factor = 1 : i32, dilation_w_factor = 1 : i32, fused_activation_function = "RELU6", padding = "SAME", stride_h = 1 : i32, stride_w = 1 : i32} : (tensor<1x16x16x384x!quant.uniform<i8:f32, 0.023529412224888802:-128>>, tensor<1x3x3x384x!quant.uniform<i8<-127:127>:f32:3, {… >>, tensor<384x!quant.uniform<i32:f32:0, {… >>) -> tensor<1x16x16x384x!quant.uniform<i8:f32, 0.023529412224888802:-128>>
    %83 = "tfl.pseudo_qconst"() {qtype = tensor<64x1x1x384x!quant.uniform<i8<-127:127>:f32:0, {… >>, value = dense<"hex_value_removed_for_legibility_this_model_will_not_run_correctly_without_it"> : tensor<64x1x1x384xi8>} : () -> tensor<64x1x1x384x!quant.uniform<i8<-127:127>:f32:0, {… >>
    %84 = "tfl.pseudo_qconst"() {qtype = tensor<64x!quant.uniform<i32:f32:0, {… >>, value = dense<[19501, 26069, 16323, -1873, -9440, 3171, -3954, 11866, 11138, -492, 21893, -11030, -28326, 10125, -10392, -26883, -2512, 2782, 13059, 918, -22057, 23302, -5996, -858, 24584, -7642, 26786, 17669, -10072, 18230, -22474, -16756, -5441, -4016, -12178, 11783, -18816, -12418, -7244, -15729, 29387, 10923, -26316, 6793, -511, 13840, 4672, -3044, -23342, 5446, 3339, 3165, -4727, -5803, 5794, -7014, -11352, 16626, 12928, 14007, -17531, 7850, -6525, -10600]> : tensor<64xi32>} : () -> tensor<64x!quant.uniform<i32:f32:0, {… >>
    %85 = "tfl.conv_2d"(%82, %83, %84) {dilation_h_factor = 1 : i32, dilation_w_factor = 1 : i32, fused_activation_function = "NONE", padding = "SAME", stride_h = 1 : i32, stride_w = 1 : i32} : (tensor<1x16x16x384x!quant.uniform<i8:f32, 0.023529412224888802:-128>>, tensor<64x1x1x384x!quant.uniform<i8<-127:127>:f32:0, {… >>, tensor<64x!quant.uniform<i32:f32:0, {… >>) -> tensor<1x16x16x64x!quant.uniform<i8:f32, 0.13740123808383942:10>>
    %86 = "tfl.add"(%85, %76) {fused_activation_function = "NONE"} : (tensor<1x16x16x64x!quant.uniform<i8:f32, 0.13740123808383942:10>>, tensor<1x16x16x64x!quant.uniform<i8:f32, 0.1982869952917099:-26>>) -> tensor<1x16x16x64x!quant.uniform<i8:f32, 0.20304270088672638:-20>>
    %87 = "tfl.pseudo_qconst"() {qtype = tensor<384x1x1x64x!quant.uniform<i8<-127:127>:f32:0, {… >>, value = dense<"hex_value_removed_for_legibility_this_model_will_not_run_correctly_without_it"> : tensor<384x1x1x64xi8>} : () -> tensor<384x1x1x64x!quant.uniform<i8<-127:127>:f32:0, {… >>
    %88 = "tfl.pseudo_qconst"() {qtype = tensor<384x!quant.uniform<i32:f32:0, {… >>, value = dense<"hex_value_removed_for_legibility_this_model_will_not_run_correctly_without_it"> : tensor<384xi32>} : () -> tensor<384x!quant.uniform<i32:f32:0, {… >>
    %89 = "tfl.conv_2d"(%86, %87, %88) {dilation_h_factor = 1 : i32, dilation_w_factor = 1 : i32, fused_activation_function = "RELU6", padding = "SAME", stride_h = 1 : i32, stride_w = 1 : i32} : (tensor<1x16x16x64x!quant.uniform<i8:f32, 0.20304270088672638:-20>>, tensor<384x1x1x64x!quant.uniform<i8<-127:127>:f32:0, {… >>, tensor<384x!quant.uniform<i32:f32:0, {… >>) -> tensor<1x16x16x384x!quant.uniform<i8:f32, 0.023529412224888802:-128>>
    %90 = "tfl.pseudo_qconst"() {qtype = tensor<1x3x3x384x!quant.uniform<i8<-127:127>:f32:3, {… >>, value = dense<"hex_value_removed_for_legibility_this_model_will_not_run_correctly_without_it"> : tensor<1x3x3x384xi8>} : () -> tensor<1x3x3x384x!quant.uniform<i8<-127:127>:f32:3, {… >>
    %91 = "tfl.pseudo_qconst"() {qtype = tensor<384x!quant.uniform<i32:f32:0, {… >>, value = dense<"hex_value_removed_for_legibility_this_model_will_not_run_correctly_without_it"> : tensor<384xi32>} : () -> tensor<384x!quant.uniform<i32:f32:0, {… >>
    %92 = "tfl.depthwise_conv_2d"(%89, %90, %91) {depth_multiplier = 1 : i32, dilation_h_factor = 1 : i32, dilation_w_factor = 1 : i32, fused_activation_function = "RELU6", padding = "SAME", stride_h = 1 : i32, stride_w = 1 : i32} : (tensor<1x16x16x384x!quant.uniform<i8:f32, 0.023529412224888802:-128>>, tensor<1x3x3x384x!quant.uniform<i8<-127:127>:f32:3, {… >>, tensor<384x!quant.uniform<i32:f32:0, {… >>) -> tensor<1x16x16x384x!quant.uniform<i8:f32, 0.023529412224888802:-128>>
    %93 = "tfl.pseudo_qconst"() {qtype = tensor<64x1x1x384x!quant.uniform<i8<-127:127>:f32:0, {… >>, value = dense<"hex_value_removed_for_legibility_this_model_will_not_run_correctly_without_it"> : tensor<64x1x1x384xi8>} : () -> tensor<64x1x1x384x!quant.uniform<i8<-127:127>:f32:0, {… >>
    %94 = "tfl.pseudo_qconst"() {qtype = tensor<64x!quant.uniform<i32:f32:0, {… >>, value = dense<[-3639, -4911, -14173, 12265, 3095, 253, -15259, -3943, -23085, -13501, -22533, 39585, 33402, -17238, -8405, -30515, -16793, -24837, 5211, 14060, -11208, -20423, -6983, 5247, -9546, 10616, -15129, 13430, -4600, -9849, 21132, -34831, 3705, 212, 9858, -13011, 2163, -30543, 16404, -22720, -2423, -2172, 18295, 10164, -5260, 1716, -2988, 37233, -1669, -13478, -8952, 9593, 15796, 14603, -1722, 8296, -14030, -25407, -1367, 13743, 14143, -7067, 1177, 38566]> : tensor<64xi32>} : () -> tensor<64x!quant.uniform<i32:f32:0, {… >>
    %95 = "tfl.conv_2d"(%92, %93, %94) {dilation_h_factor = 1 : i32, dilation_w_factor = 1 : i32, fused_activation_function = "NONE", padding = "SAME", stride_h = 1 : i32, stride_w = 1 : i32} : (tensor<1x16x16x384x!quant.uniform<i8:f32, 0.023529412224888802:-128>>, tensor<64x1x1x384x!quant.uniform<i8<-127:127>:f32:0, {… >>, tensor<64x!quant.uniform<i32:f32:0, {… >>) -> tensor<1x16x16x64x!quant.uniform<i8:f32, 0.12095392495393753:-8>>
    %96 = "tfl.add"(%95, %86) {fused_activation_function = "NONE"} : (tensor<1x16x16x64x!quant.uniform<i8:f32, 0.12095392495393753:-8>>, tensor<1x16x16x64x!quant.uniform<i8:f32, 0.20304270088672638:-20>>) -> tensor<1x16x16x64x!quant.uniform<i8:f32, 0.20998424291610718:-15>>
    %97 = "tfl.pseudo_qconst"() {qtype = tensor<384x1x1x64x!quant.uniform<i8<-127:127>:f32:0, {… >>, value = dense<"hex_value_removed_for_legibility_this_model_will_not_run_correctly_without_it"> : tensor<384x1x1x64xi8>} : () -> tensor<384x1x1x64x!quant.uniform<i8<-127:127>:f32:0, {… >>
    %98 = "tfl.pseudo_qconst"() {qtype = tensor<384x!quant.uniform<i32:f32:0, {… >>, value = dense<"hex_value_removed_for_legibility_this_model_will_not_run_correctly_without_it"> : tensor<384xi32>} : () -> tensor<384x!quant.uniform<i32:f32:0, {… >>
    %99 = "tfl.conv_2d"(%96, %97, %98) {dilation_h_factor = 1 : i32, dilation_w_factor = 1 : i32, fused_activation_function = "RELU6", padding = "SAME", stride_h = 1 : i32, stride_w = 1 : i32} : (tensor<1x16x16x64x!quant.uniform<i8:f32, 0.20998424291610718:-15>>, tensor<384x1x1x64x!quant.uniform<i8<-127:127>:f32:0, {… >>, tensor<384x!quant.uniform<i32:f32:0, {… >>) -> tensor<1x16x16x384x!quant.uniform<i8:f32, 0.023529412224888802:-128>>
    %100 = "tfl.pseudo_qconst"() {qtype = tensor<1x3x3x384x!quant.uniform<i8<-127:127>:f32:3, {… >>, value = dense<"hex_value_removed_for_legibility_this_model_will_not_run_correctly_without_it"> : tensor<1x3x3x384xi8>} : () -> tensor<1x3x3x384x!quant.uniform<i8<-127:127>:f32:3, {… >>
    %101 = "tfl.pseudo_qconst"() {qtype = tensor<384x!quant.uniform<i32:f32:0, {… >>, value = dense<"hex_value_removed_for_legibility_this_model_will_not_run_correctly_without_it"> : tensor<384xi32>} : () -> tensor<384x!quant.uniform<i32:f32:0, {… >>
    %102 = "tfl.depthwise_conv_2d"(%99, %100, %101) {depth_multiplier = 1 : i32, dilation_h_factor = 1 : i32, dilation_w_factor = 1 : i32, fused_activation_function = "RELU6", padding = "SAME", stride_h = 1 : i32, stride_w = 1 : i32} : (tensor<1x16x16x384x!quant.uniform<i8:f32, 0.023529412224888802:-128>>, tensor<1x3x3x384x!quant.uniform<i8<-127:127>:f32:3, {… >>, tensor<384x!quant.uniform<i32:f32:0, {… >>) -> tensor<1x16x16x384x!quant.uniform<i8:f32, 0.023529412224888802:-128>>
    %103 = "tfl.pseudo_qconst"() {qtype = tensor<96x1x1x384x!quant.uniform<i8<-127:127>:f32:0, {… >>, value = dense<"hex_value_removed_for_legibility_this_model_will_not_run_correctly_without_it"> : tensor<96x1x1x384xi8>} : () -> tensor<96x1x1x384x!quant.uniform<i8<-127:127>:f32:0, {… >>
    %104 = "tfl.pseudo_qconst"() {qtype = tensor<96x!quant.uniform<i32:f32:0, {… >>, value = dense<[21056, -2515, 10698, 50048, 8820, -5619, 40483, -80305, 7395, -9800, -64722, -18332, 51211, 31589, 50901, 17822, 35326, 29790, -9207, 6604, -12495, -17804, 7997, -35680, 7824, -18897, -29053, -11463, 20716, 32434, 18440, -3527, -46589, 33259, 86010, 13763, -28275, 31019, -12559, 2613, -18315, 12850, -6016, 19983, -15014, -45297, 26338, -36241, -29225, -8683, -25074, 19370, 60228, 17614, -44343, -6617, -44569, -29106, -18460, 5739, 26702, 20230, -31480, 53671, -22084, -60366, -44388, -29570, -9704, -31668, 61044, -54838, -42678, 38791, 87224, 62937, 6321, -13821, -4526, 26464, 8386, -72719, 11343, 14389, 32327, -9372, 5353, -86598, 34440, -17164, -10196, -40119, 93, 2298, -26829, -37764]> : tensor<96xi32>} : () -> tensor<96x!quant.uniform<i32:f32:0, {… >>
    %105 = "tfl.conv_2d"(%102, %103, %104) {dilation_h_factor = 1 : i32, dilation_w_factor = 1 : i32, fused_activation_function = "NONE", padding = "SAME", stride_h = 1 : i32, stride_w = 1 : i32} : (tensor<1x16x16x384x!quant.uniform<i8:f32, 0.023529412224888802:-128>>, tensor<96x1x1x384x!quant.uniform<i8<-127:127>:f32:0, {… >>, tensor<96x!quant.uniform<i32:f32:0, {… >>) -> tensor<1x16x16x96x!quant.uniform<i8:f32, 0.17461921274662018:-1>>
    %106 = "tfl.pseudo_qconst"() {qtype = tensor<576x1x1x96x!quant.uniform<i8<-127:127>:f32:0, {… >>, value = dense<"hex_value_removed_for_legibility_this_model_will_not_run_correctly_without_it"> : tensor<576x1x1x96xi8>} : () -> tensor<576x1x1x96x!quant.uniform<i8<-127:127>:f32:0, {… >>
    %107 = "tfl.pseudo_qconst"() {qtype = tensor<576x!quant.uniform<i32:f32:0, {… >>, value = dense<"hex_value_removed_for_legibility_this_model_will_not_run_correctly_without_it"> : tensor<576xi32>} : () -> tensor<576x!quant.uniform<i32:f32:0, {… >>
    %108 = "tfl.conv_2d"(%105, %106, %107) {dilation_h_factor = 1 : i32, dilation_w_factor = 1 : i32, fused_activation_function = "RELU6", padding = "SAME", stride_h = 1 : i32, stride_w = 1 : i32} : (tensor<1x16x16x96x!quant.uniform<i8:f32, 0.17461921274662018:-1>>, tensor<576x1x1x96x!quant.uniform<i8<-127:127>:f32:0, {… >>, tensor<576x!quant.uniform<i32:f32:0, {… >>) -> tensor<1x16x16x576x!quant.uniform<i8:f32, 0.023529412224888802:-128>>
    %109 = "tfl.pseudo_qconst"() {qtype = tensor<1x3x3x576x!quant.uniform<i8<-127:127>:f32:3, {… >>, value = dense<"hex_value_removed_for_legibility_this_model_will_not_run_correctly_without_it"> : tensor<1x3x3x576xi8>} : () -> tensor<1x3x3x576x!quant.uniform<i8<-127:127>:f32:3, {… >>
    %110 = "tfl.pseudo_qconst"() {qtype = tensor<576x!quant.uniform<i32:f32:0, {… >>, value = dense<"hex_value_removed_for_legibility_this_model_will_not_run_correctly_without_it"> : tensor<576xi32>} : () -> tensor<576x!quant.uniform<i32:f32:0, {… >>
    %111 = "tfl.depthwise_conv_2d"(%108, %109, %110) {depth_multiplier = 1 : i32, dilation_h_factor = 1 : i32, dilation_w_factor = 1 : i32, fused_activation_function = "RELU6", padding = "SAME", stride_h = 1 : i32, stride_w = 1 : i32} : (tensor<1x16x16x576x!quant.uniform<i8:f32, 0.023529412224888802:-128>>, tensor<1x3x3x576x!quant.uniform<i8<-127:127>:f32:3, {… >>, tensor<576x!quant.uniform<i32:f32:0, {… >>) -> tensor<1x16x16x576x!quant.uniform<i8:f32, 0.023529412224888802:-128>>
    %112 = "tfl.pseudo_qconst"() {qtype = tensor<96x1x1x576x!quant.uniform<i8<-127:127>:f32:0, {… >>, value = dense<"hex_value_removed_for_legibility_this_model_will_not_run_correctly_without_it"> : tensor<96x1x1x576xi8>} : () -> tensor<96x1x1x576x!quant.uniform<i8<-127:127>:f32:0, {… >>
    %113 = "tfl.pseudo_qconst"() {qtype = tensor<96x!quant.uniform<i32:f32:0, {… >>, value = dense<[5128, 7161, 4578, 19702, -26222, -15004, -36646, 31619, -7919, -3818, 27451, -34310, -11303, -8063, 20497, -20240, 50410, 4497, -33204, 42813, -24815, 27926, -74055, 39019, -1279, 67233, -6080, 15173, 12394, 18192, 6344, -25867, -76614, 30372, 10044, 14630, -26071, 52158, -9251, 9932, -332, -17011, 6810, -31058, -33044, -261, -1528, 33277, 1092, 3152, 5768, 50378, 5829, 21407, 20587, -18646, 16721, -5606, 31400, 23660, 18268, 6086, -36719, 4172, -7490, 329, 8943, 417, -3169, -5331, 40780, 6208, 42942, -9259, 39847, -18826, 23773, 24464, -7119, -5776, -30754, -13206, -17245, 15183, 16875, -40758, 38028, 2361, -5256, 12617, -7477, 13647, 17832, 17579, 17512, -7920]> : tensor<96xi32>} : () -> tensor<96x!quant.uniform<i32:f32:0, {… >>
    %114 = "tfl.conv_2d"(%111, %112, %113) {dilation_h_factor = 1 : i32, dilation_w_factor = 1 : i32, fused_activation_function = "NONE", padding = "SAME", stride_h = 1 : i32, stride_w = 1 : i32} : (tensor<1x16x16x576x!quant.uniform<i8:f32, 0.023529412224888802:-128>>, tensor<96x1x1x576x!quant.uniform<i8<-127:127>:f32:0, {… >>, tensor<96x!quant.uniform<i32:f32:0, {… >>) -> tensor<1x16x16x96x!quant.uniform<i8:f32, 0.1371367871761322:-12>>
    %115 = "tfl.add"(%114, %105) {fused_activation_function = "NONE"} : (tensor<1x16x16x96x!quant.uniform<i8:f32, 0.1371367871761322:-12>>, tensor<1x16x16x96x!quant.uniform<i8:f32, 0.17461921274662018:-1>>) -> tensor<1x16x16x96x!quant.uniform<i8:f32, 0.18201994895935059:-11>>
    %116 = "tfl.pseudo_qconst"() {qtype = tensor<576x1x1x96x!quant.uniform<i8<-127:127>:f32:0, {… >>, value = dense<"hex_value_removed_for_legibility_this_model_will_not_run_correctly_without_it"> : tensor<576x1x1x96xi8>} : () -> tensor<576x1x1x96x!quant.uniform<i8<-127:127>:f32:0, {… >>
    %117 = "tfl.pseudo_qconst"() {qtype = tensor<576x!quant.uniform<i32:f32:0, {… >>, value = dense<"hex_value_removed_for_legibility_this_model_will_not_run_correctly_without_it"> : tensor<576xi32>} : () -> tensor<576x!quant.uniform<i32:f32:0, {… >>
    %118 = "tfl.conv_2d"(%115, %116, %117) {dilation_h_factor = 1 : i32, dilation_w_factor = 1 : i32, fused_activation_function = "RELU6", padding = "SAME", stride_h = 1 : i32, stride_w = 1 : i32} : (tensor<1x16x16x96x!quant.uniform<i8:f32, 0.18201994895935059:-11>>, tensor<576x1x1x96x!quant.uniform<i8<-127:127>:f32:0, {… >>, tensor<576x!quant.uniform<i32:f32:0, {… >>) -> tensor<1x16x16x576x!quant.uniform<i8:f32, 0.023529412224888802:-128>>
    %119 = "tfl.pseudo_qconst"() {qtype = tensor<1x3x3x576x!quant.uniform<i8<-127:127>:f32:3, {… >>, value = dense<"hex_value_removed_for_legibility_this_model_will_not_run_correctly_without_it"> : tensor<1x3x3x576xi8>} : () -> tensor<1x3x3x576x!quant.uniform<i8<-127:127>:f32:3, {… >>
    %120 = "tfl.pseudo_qconst"() {qtype = tensor<576x!quant.uniform<i32:f32:0, {… >>, value = dense<"hex_value_removed_for_legibility_this_model_will_not_run_correctly_without_it"> : tensor<576xi32>} : () -> tensor<576x!quant.uniform<i32:f32:0, {… >>
    %121 = "tfl.depthwise_conv_2d"(%118, %119, %120) {depth_multiplier = 1 : i32, dilation_h_factor = 1 : i32, dilation_w_factor = 1 : i32, fused_activation_function = "RELU6", padding = "SAME", stride_h = 1 : i32, stride_w = 1 : i32} : (tensor<1x16x16x576x!quant.uniform<i8:f32, 0.023529412224888802:-128>>, tensor<1x3x3x576x!quant.uniform<i8<-127:127>:f32:3, {… >>, tensor<576x!quant.uniform<i32:f32:0, {… >>) -> tensor<1x16x16x576x!quant.uniform<i8:f32, 0.023529412224888802:-128>>
    %122 = "tfl.pseudo_qconst"() {qtype = tensor<96x1x1x576x!quant.uniform<i8<-127:127>:f32:0, {… >>, value = dense<"hex_value_removed_for_legibility_this_model_will_not_run_correctly_without_it"> : tensor<96x1x1x576xi8>} : () -> tensor<96x1x1x576x!quant.uniform<i8<-127:127>:f32:0, {… >>
    %123 = "tfl.pseudo_qconst"() {qtype = tensor<96x!quant.uniform<i32:f32:0, {… >>, value = dense<[-26985, -28218, 13885, 6795, -9486, 13313, 36712, 4726, -12462, 17630, -30795, 17399, -14670, 16674, -31214, 42928, -35125, -14473, -7865, 7709, -15833, -142, 3936, 6610, -5383, 52297, 38356, 4983, -14736, -36607, 15730, 26312, 6744, 25754, 39265, -26244, 628, 5679, -18096, 31024, -10963, 19852, 15225, -15925, -37912, -2911, 368, -14535, 10368, -60354, 37268, 75103, 31133, -21532, 10257, -9756, -28715, -3365, -11852, 9664, -14182, -8455, 33238, -33225, 5458, 20686, 17905, -2566, -8352, -8507, 42985, -17281, -49229, 37793, -9582, -13684, 27573, -43449, 4592, -10530, -21209, -7720, 61798, 21915, -47948, -10427, 16523, -6279, -38217, 10643, 40515, 308, -15524, 31644, -23854, 4499]> : tensor<96xi32>} : () -> tensor<96x!quant.uniform<i32:f32:0, {… >>
    %124 = "tfl.conv_2d"(%121, %122, %123) {dilation_h_factor = 1 : i32, dilation_w_factor = 1 : i32, fused_activation_function = "NONE", padding = "SAME", stride_h = 1 : i32, stride_w = 1 : i32} : (tensor<1x16x16x576x!quant.uniform<i8:f32, 0.023529412224888802:-128>>, tensor<96x1x1x576x!quant.uniform<i8<-127:127>:f32:0, {… >>, tensor<96x!quant.uniform<i32:f32:0, {… >>) -> tensor<1x16x16x96x!quant.uniform<i8:f32, 0.16823868453502655:-8>>
    %125 = "tfl.add"(%124, %115) {fused_activation_function = "NONE"} : (tensor<1x16x16x96x!quant.uniform<i8:f32, 0.16823868453502655:-8>>, tensor<1x16x16x96x!quant.uniform<i8:f32, 0.18201994895935059:-11>>) -> tensor<1x16x16x96x!quant.uniform<i8:f32, 0.22217200696468353:2>>
    %126 = "tfl.pseudo_qconst"() {qtype = tensor<576x1x1x96x!quant.uniform<i8<-127:127>:f32:0, {… >>, value = dense<"hex_value_removed_for_legibility_this_model_will_not_run_correctly_without_it"> : tensor<576x1x1x96xi8>} : () -> tensor<576x1x1x96x!quant.uniform<i8<-127:127>:f32:0, {… >>
    %127 = "tfl.pseudo_qconst"() {qtype = tensor<576x!quant.uniform<i32:f32:0, {… >>, value = dense<"hex_value_removed_for_legibility_this_model_will_not_run_correctly_without_it"> : tensor<576xi32>} : () -> tensor<576x!quant.uniform<i32:f32:0, {… >>
    %128 = "tfl.conv_2d"(%125, %126, %127) {dilation_h_factor = 1 : i32, dilation_w_factor = 1 : i32, fused_activation_function = "RELU6", padding = "SAME", stride_h = 1 : i32, stride_w = 1 : i32} : (tensor<1x16x16x96x!quant.uniform<i8:f32, 0.22217200696468353:2>>, tensor<576x1x1x96x!quant.uniform<i8<-127:127>:f32:0, {… >>, tensor<576x!quant.uniform<i32:f32:0, {… >>) -> tensor<1x16x16x576x!quant.uniform<i8:f32, 0.023529412224888802:-128>>
    %129 = "tfl.pseudo_qconst"() {qtype = tensor<1x3x3x576x!quant.uniform<i8<-127:127>:f32:3, {… >>, value = dense<"hex_value_removed_for_legibility_this_model_will_not_run_correctly_without_it"> : tensor<1x3x3x576xi8>} : () -> tensor<1x3x3x576x!quant.uniform<i8<-127:127>:f32:3, {… >>
    %130 = "tfl.pseudo_qconst"() {qtype = tensor<576x!quant.uniform<i32:f32:0, {… >>, value = dense<"hex_value_removed_for_legibility_this_model_will_not_run_correctly_without_it"> : tensor<576xi32>} : () -> tensor<576x!quant.uniform<i32:f32:0, {… >>
    %131 = "tfl.depthwise_conv_2d"(%128, %129, %130) {depth_multiplier = 1 : i32, dilation_h_factor = 1 : i32, dilation_w_factor = 1 : i32, fused_activation_function = "RELU6", padding = "SAME", stride_h = 2 : i32, stride_w = 2 : i32} : (tensor<1x16x16x576x!quant.uniform<i8:f32, 0.023529412224888802:-128>>, tensor<1x3x3x576x!quant.uniform<i8<-127:127>:f32:3, {… >>, tensor<576x!quant.uniform<i32:f32:0, {… >>) -> tensor<1x8x8x576x!quant.uniform<i8:f32, 0.023529412224888802:-128>>
    %132 = "tfl.pseudo_qconst"() {qtype = tensor<160x1x1x576x!quant.uniform<i8<-127:127>:f32:0, {… >>, value = dense<"hex_value_removed_for_legibility_this_model_will_not_run_correctly_without_it"> : tensor<160x1x1x576xi8>} : () -> tensor<160x1x1x576x!quant.uniform<i8<-127:127>:f32:0, {… >>
    %133 = "tfl.pseudo_qconst"() {qtype = tensor<160x!quant.uniform<i32:f32:0, {… >>, value = dense<"hex_value_removed_for_legibility_this_model_will_not_run_correctly_without_it"> : tensor<160xi32>} : () -> tensor<160x!quant.uniform<i32:f32:0, {… >>
    %134 = "tfl.conv_2d"(%131, %132, %133) {dilation_h_factor = 1 : i32, dilation_w_factor = 1 : i32, fused_activation_function = "NONE", padding = "SAME", stride_h = 1 : i32, stride_w = 1 : i32} : (tensor<1x8x8x576x!quant.uniform<i8:f32, 0.023529412224888802:-128>>, tensor<160x1x1x576x!quant.uniform<i8<-127:127>:f32:0, {… >>, tensor<160x!quant.uniform<i32:f32:0, {… >>) -> tensor<1x8x8x160x!quant.uniform<i8:f32, 0.2420690506696701:-1>>
    %135 = "tfl.pseudo_qconst"() {qtype = tensor<960x1x1x160x!quant.uniform<i8<-127:127>:f32:0, {… >>, value = dense<"hex_value_removed_for_legibility_this_model_will_not_run_correctly_without_it"> : tensor<960x1x1x160xi8>} : () -> tensor<960x1x1x160x!quant.uniform<i8<-127:127>:f32:0, {… >>
    %136 = "tfl.pseudo_qconst"() {qtype = tensor<960x!quant.uniform<i32:f32:0, {… >>, value = dense<"hex_value_removed_for_legibility_this_model_will_not_run_correctly_without_it"> : tensor<960xi32>} : () -> tensor<960x!quant.uniform<i32:f32:0, {… >>
    %137 = "tfl.conv_2d"(%134, %135, %136) {dilation_h_factor = 1 : i32, dilation_w_factor = 1 : i32, fused_activation_function = "RELU6", padding = "SAME", stride_h = 1 : i32, stride_w = 1 : i32} : (tensor<1x8x8x160x!quant.uniform<i8:f32, 0.2420690506696701:-1>>, tensor<960x1x1x160x!quant.uniform<i8<-127:127>:f32:0, {… >>, tensor<960x!quant.uniform<i32:f32:0, {… >>) -> tensor<1x8x8x960x!quant.uniform<i8:f32, 0.023529412224888802:-128>>
    %138 = "tfl.pseudo_qconst"() {qtype = tensor<1x3x3x960x!quant.uniform<i8<-127:127>:f32:3, {… >>, value = dense<"hex_value_removed_for_legibility_this_model_will_not_run_correctly_without_it"> : tensor<1x3x3x960xi8>} : () -> tensor<1x3x3x960x!quant.uniform<i8<-127:127>:f32:3, {… >>
    %139 = "tfl.pseudo_qconst"() {qtype = tensor<960x!quant.uniform<i32:f32:0, {… >>, value = dense<"hex_value_removed_for_legibility_this_model_will_not_run_correctly_without_it"> : tensor<960xi32>} : () -> tensor<960x!quant.uniform<i32:f32:0, {… >>
    %140 = "tfl.depthwise_conv_2d"(%137, %138, %139) {depth_multiplier = 1 : i32, dilation_h_factor = 1 : i32, dilation_w_factor = 1 : i32, fused_activation_function = "RELU6", padding = "SAME", stride_h = 1 : i32, stride_w = 1 : i32} : (tensor<1x8x8x960x!quant.uniform<i8:f32, 0.023529412224888802:-128>>, tensor<1x3x3x960x!quant.uniform<i8<-127:127>:f32:3, {… >>, tensor<960x!quant.uniform<i32:f32:0, {… >>) -> tensor<1x8x8x960x!quant.uniform<i8:f32, 0.023529412224888802:-128>>
    %141 = "tfl.pseudo_qconst"() {qtype = tensor<160x1x1x960x!quant.uniform<i8<-127:127>:f32:0, {… >>, value = dense<"hex_value_removed_for_legibility_this_model_will_not_run_correctly_without_it"> : tensor<160x1x1x960xi8>} : () -> tensor<160x1x1x960x!quant.uniform<i8<-127:127>:f32:0, {… >>
    %142 = "tfl.pseudo_qconst"() {qtype = tensor<160x!quant.uniform<i32:f32:0, {… >>, value = dense<"hex_value_removed_for_legibility_this_model_will_not_run_correctly_without_it"> : tensor<160xi32>} : () -> tensor<160x!quant.uniform<i32:f32:0, {… >>
    %143 = "tfl.conv_2d"(%140, %141, %142) {dilation_h_factor = 1 : i32, dilation_w_factor = 1 : i32, fused_activation_function = "NONE", padding = "SAME", stride_h = 1 : i32, stride_w = 1 : i32} : (tensor<1x8x8x960x!quant.uniform<i8:f32, 0.023529412224888802:-128>>, tensor<160x1x1x960x!quant.uniform<i8<-127:127>:f32:0, {… >>, tensor<160x!quant.uniform<i32:f32:0, {… >>) -> tensor<1x8x8x160x!quant.uniform<i8:f32, 0.26718568801879883:-29>>
    %144 = "tfl.add"(%143, %134) {fused_activation_function = "NONE"} : (tensor<1x8x8x160x!quant.uniform<i8:f32, 0.26718568801879883:-29>>, tensor<1x8x8x160x!quant.uniform<i8:f32, 0.2420690506696701:-1>>) -> tensor<1x8x8x160x!quant.uniform<i8:f32, 0.35942411422729492:-17>>
    %145 = "tfl.pseudo_qconst"() {qtype = tensor<960x1x1x160x!quant.uniform<i8<-127:127>:f32:0, {… >>, value = dense<"hex_value_removed_for_legibility_this_model_will_not_run_correctly_without_it"> : tensor<960x1x1x160xi8>} : () -> tensor<960x1x1x160x!quant.uniform<i8<-127:127>:f32:0, {… >>
    %146 = "tfl.pseudo_qconst"() {qtype = tensor<960x!quant.uniform<i32:f32:0, {… >>, value = dense<"hex_value_removed_for_legibility_this_model_will_not_run_correctly_without_it"> : tensor<960xi32>} : () -> tensor<960x!quant.uniform<i32:f32:0, {… >>
    %147 = "tfl.conv_2d"(%144, %145, %146) {dilation_h_factor = 1 : i32, dilation_w_factor = 1 : i32, fused_activation_function = "RELU6", padding = "SAME", stride_h = 1 : i32, stride_w = 1 : i32} : (tensor<1x8x8x160x!quant.uniform<i8:f32, 0.35942411422729492:-17>>, tensor<960x1x1x160x!quant.uniform<i8<-127:127>:f32:0, {… >>, tensor<960x!quant.uniform<i32:f32:0, {… >>) -> tensor<1x8x8x960x!quant.uniform<i8:f32, 0.023529412224888802:-128>>
    %148 = "tfl.pseudo_qconst"() {qtype = tensor<1x3x3x960x!quant.uniform<i8<-127:127>:f32:3, {… >>, value = dense<"hex_value_removed_for_legibility_this_model_will_not_run_correctly_without_it"> : tensor<1x3x3x960xi8>} : () -> tensor<1x3x3x960x!quant.uniform<i8<-127:127>:f32:3, {… >>
    %149 = "tfl.pseudo_qconst"() {qtype = tensor<960x!quant.uniform<i32:f32:0, {… >>, value = dense<"hex_value_removed_for_legibility_this_model_will_not_run_correctly_without_it"> : tensor<960xi32>} : () -> tensor<960x!quant.uniform<i32:f32:0, {… >>
    %150 = "tfl.depthwise_conv_2d"(%147, %148, %149) {depth_multiplier = 1 : i32, dilation_h_factor = 1 : i32, dilation_w_factor = 1 : i32, fused_activation_function = "RELU6", padding = "SAME", stride_h = 1 : i32, stride_w = 1 : i32} : (tensor<1x8x8x960x!quant.uniform<i8:f32, 0.023529412224888802:-128>>, tensor<1x3x3x960x!quant.uniform<i8<-127:127>:f32:3, {… >>, tensor<960x!quant.uniform<i32:f32:0, {… >>) -> tensor<1x8x8x960x!quant.uniform<i8:f32, 0.023529412224888802:-128>>
    %151 = "tfl.pseudo_qconst"() {qtype = tensor<160x1x1x960x!quant.uniform<i8<-127:127>:f32:0, {… >>, value = dense<"hex_value_removed_for_legibility_this_model_will_not_run_correctly_without_it"> : tensor<160x1x1x960xi8>} : () -> tensor<160x1x1x960x!quant.uniform<i8<-127:127>:f32:0, {… >>
    %152 = "tfl.pseudo_qconst"() {qtype = tensor<160x!quant.uniform<i32:f32:0, {… >>, value = dense<"hex_value_removed_for_legibility_this_model_will_not_run_correctly_without_it"> : tensor<160xi32>} : () -> tensor<160x!quant.uniform<i32:f32:0, {… >>
    %153 = "tfl.conv_2d"(%150, %151, %152) {dilation_h_factor = 1 : i32, dilation_w_factor = 1 : i32, fused_activation_function = "NONE", padding = "SAME", stride_h = 1 : i32, stride_w = 1 : i32} : (tensor<1x8x8x960x!quant.uniform<i8:f32, 0.023529412224888802:-128>>, tensor<160x1x1x960x!quant.uniform<i8<-127:127>:f32:0, {… >>, tensor<160x!quant.uniform<i32:f32:0, {… >>) -> tensor<1x8x8x160x!quant.uniform<i8:f32, 0.30845576524734497:10>>
    %154 = "tfl.add"(%153, %144) {fused_activation_function = "NONE"} : (tensor<1x8x8x160x!quant.uniform<i8:f32, 0.30845576524734497:10>>, tensor<1x8x8x160x!quant.uniform<i8:f32, 0.35942411422729492:-17>>) -> tensor<1x8x8x160x!quant.uniform<i8:f32, 0.56445145606994629:-12>>
    %155 = "tfl.pseudo_qconst"() {qtype = tensor<960x1x1x160x!quant.uniform<i8<-127:127>:f32:0, {… >>, value = dense<"hex_value_removed_for_legibility_this_model_will_not_run_correctly_without_it"> : tensor<960x1x1x160xi8>} : () -> tensor<960x1x1x160x!quant.uniform<i8<-127:127>:f32:0, {… >>
    %156 = "tfl.pseudo_qconst"() {qtype = tensor<960x!quant.uniform<i32:f32:0, {… >>, value = dense<"hex_value_removed_for_legibility_this_model_will_not_run_correctly_without_it"> : tensor<960xi32>} : () -> tensor<960x!quant.uniform<i32:f32:0, {… >>
    %157 = "tfl.conv_2d"(%154, %155, %156) {dilation_h_factor = 1 : i32, dilation_w_factor = 1 : i32, fused_activation_function = "RELU6", padding = "SAME", stride_h = 1 : i32, stride_w = 1 : i32} : (tensor<1x8x8x160x!quant.uniform<i8:f32, 0.56445145606994629:-12>>, tensor<960x1x1x160x!quant.uniform<i8<-127:127>:f32:0, {… >>, tensor<960x!quant.uniform<i32:f32:0, {… >>) -> tensor<1x8x8x960x!quant.uniform<i8:f32, 0.023529412224888802:-128>>
    %158 = "tfl.pseudo_qconst"() {qtype = tensor<1x3x3x960x!quant.uniform<i8<-127:127>:f32:3, {… >>, value = dense<"hex_value_removed_for_legibility_this_model_will_not_run_correctly_without_it"> : tensor<1x3x3x960xi8>} : () -> tensor<1x3x3x960x!quant.uniform<i8<-127:127>:f32:3, {… >>
    %159 = "tfl.pseudo_qconst"() {qtype = tensor<960x!quant.uniform<i32:f32:0, {… >>, value = dense<"hex_value_removed_for_legibility_this_model_will_not_run_correctly_without_it"> : tensor<960xi32>} : () -> tensor<960x!quant.uniform<i32:f32:0, {… >>
    %160 = "tfl.depthwise_conv_2d"(%157, %158, %159) {depth_multiplier = 1 : i32, dilation_h_factor = 1 : i32, dilation_w_factor = 1 : i32, fused_activation_function = "RELU6", padding = "SAME", stride_h = 1 : i32, stride_w = 1 : i32} : (tensor<1x8x8x960x!quant.uniform<i8:f32, 0.023529412224888802:-128>>, tensor<1x3x3x960x!quant.uniform<i8<-127:127>:f32:3, {… >>, tensor<960x!quant.uniform<i32:f32:0, {… >>) -> tensor<1x8x8x960x!quant.uniform<i8:f32, 0.023529412224888802:-128>>
    %161 = "tfl.pseudo_qconst"() {qtype = tensor<320x1x1x960x!quant.uniform<i8<-127:127>:f32:0, {… >>, value = dense<"hex_value_removed_for_legibility_this_model_will_not_run_correctly_without_it"> : tensor<320x1x1x960xi8>} : () -> tensor<320x1x1x960x!quant.uniform<i8<-127:127>:f32:0, {… >>
    %162 = "tfl.pseudo_qconst"() {qtype = tensor<320x!quant.uniform<i32:f32:0, {… >>, value = dense<"hex_value_removed_for_legibility_this_model_will_not_run_correctly_without_it"> : tensor<320xi32>} : () -> tensor<320x!quant.uniform<i32:f32:0, {… >>
    %163 = "tfl.conv_2d"(%160, %161, %162) {dilation_h_factor = 1 : i32, dilation_w_factor = 1 : i32, fused_activation_function = "NONE", padding = "SAME", stride_h = 1 : i32, stride_w = 1 : i32} : (tensor<1x8x8x960x!quant.uniform<i8:f32, 0.023529412224888802:-128>>, tensor<320x1x1x960x!quant.uniform<i8<-127:127>:f32:0, {… >>, tensor<320x!quant.uniform<i32:f32:0, {… >>) -> tensor<1x8x8x320x!quant.uniform<i8:f32, 0.6035570502281189:59>>
    %164 = "tfl.pseudo_qconst"() {qtype = tensor<1280x1x1x320x!quant.uniform<i8<-127:127>:f32:0, {… >>, value = dense<"hex_value_removed_for_legibility_this_model_will_not_run_correctly_without_it"> : tensor<1280x1x1x320xi8>} : () -> tensor<1280x1x1x320x!quant.uniform<i8<-127:127>:f32:0, {… >>
    %165 = "tfl.pseudo_qconst"() {qtype = tensor<1280x!quant.uniform<i32:f32:0, {… >>, value = dense<"hex_value_removed_for_legibility_this_model_will_not_run_correctly_without_it"> : tensor<1280xi32>} : () -> tensor<1280x!quant.uniform<i32:f32:0, {… >>
    %166 = "tfl.conv_2d"(%163, %164, %165) {dilation_h_factor = 1 : i32, dilation_w_factor = 1 : i32, fused_activation_function = "RELU6", padding = "SAME", stride_h = 1 : i32, stride_w = 1 : i32} : (tensor<1x8x8x320x!quant.uniform<i8:f32, 0.6035570502281189:59>>, tensor<1280x1x1x320x!quant.uniform<i8<-127:127>:f32:0, {… >>, tensor<1280x!quant.uniform<i32:f32:0, {… >>) -> tensor<1x8x8x1280x!quant.uniform<i8:f32, 0.023529412224888802:-128>>
    %167 = "tfl.pseudo_const"() {value = dense<[1, 2]> : tensor<2xi32>} : () -> tensor<2xi32>
    %168 = "tfl.mean"(%166, %167) {keep_dims = true} : (tensor<1x8x8x1280x!quant.uniform<i8:f32, 0.023529412224888802:-128>>, tensor<2xi32>) -> tensor<1x1x1x1280x!quant.uniform<i8:f32, 0.023529412224888802:-128>>
    %169 = "tfl.pseudo_qconst"() {qtype = tensor<100x1x1x1280x!quant.uniform<i8<-127:127>:f32:0, {… >>, value = dense<"hex_value_removed_for_legibility_this_model_will_not_run_correctly_without_it"> : tensor<100x1x1x1280xi8>} : () -> tensor<100x1x1x1280x!quant.uniform<i8<-127:127>:f32:0, {… >>
    %170 = "tfl.pseudo_qconst"() {qtype = tensor<100x!quant.uniform<i32:f32:0, {… >>, value = dense<0> : tensor<100xi32>} : () -> tensor<100x!quant.uniform<i32:f32:0, {… >>
    %171 = "tfl.conv_2d"(%168, %169, %170) {dilation_h_factor = 1 : i32, dilation_w_factor = 1 : i32, fused_activation_function = "NONE", padding = "SAME", stride_h = 1 : i32, stride_w = 1 : i32} : (tensor<1x1x1x1280x!quant.uniform<i8:f32, 0.023529412224888802:-128>>, tensor<100x1x1x1280x!quant.uniform<i8<-127:127>:f32:0, {… >>, tensor<100x!quant.uniform<i32:f32:0, {… >>) -> tensor<1x1x1x100x!quant.uniform<i8:f32, 0.019878942519426346:-25>>
    %172 = "tfl.dequantize"(%171) : (tensor<1x1x1x100x!quant.uniform<i8:f32, 0.019878942519426346:-25>>) -> tensor<1x1x1x100xf32>
    return %172 : tensor<1x1x1x100xf32>
  }
}