

module attributes {tfl.description = "TOCO Converted.", tfl.schema_version = 3 : i32} {
  func @main(%arg0: tensor<1x384x384x3xf32>, %arg1: tensor<1x1x1x100xf32>) -> tensor<1x384x384x3xf32> attributes {tf.entry_function = {inputs = "content_image,mobilenet_conv/Conv/BiasAdd", outputs = "transformer/expand/conv3/conv/Sigmoid"}} {
    %0 = "quant.stats"(%arg0) {layerStats = dense<[0.000000e+00, 1.000000e+00]> : tensor<2xf32>} : (tensor<1x384x384x3xf32>) -> tensor<1x384x384x3xf32>
    %1 = "tfl.quantize"(%arg1) {qtype = tensor<1x1x1x100x!quant.uniform<i8:f32, 0.022740744054317474:-3>>} : (tensor<1x1x1x100xf32>) -> tensor<1x1x1x100x!quant.uniform<i8:f32, 0.022740744054317474:-3>>
    %2 = "tfl.pseudo_const"() {value = dense<[[0, 0], [4, 4], [4, 4], [0, 0]]> : tensor<4x2xi32>} : () -> tensor<4x2xi32>
    %3 = "tfl.mirror_pad"(%0, %2) {mode = "REFLECT"} : (tensor<1x384x384x3xf32>, tensor<4x2xi32>) -> tensor<1x392x392x3xf32>
    %4 = "quant.stats"(%3) {layerStats = dense<[0.000000e+00, 1.000000e+00]> : tensor<2xf32>} : (tensor<1x392x392x3xf32>) -> tensor<1x392x392x3xf32>
    %5 = "tfl.quantize"(%4) {qtype = tensor<1x392x392x3x!quant.uniform<i8:f32, 0.0039215688593685627:-128>>} : (tensor<1x392x392x3xf32>) -> tensor<1x392x392x3x!quant.uniform<i8:f32, 0.0039215688593685627:-128>>
    %6 = "tfl.pseudo_qconst"() {qtype = tensor<8x9x9x3x!quant.uniform<i8<-127:127>:f32:0, {0.0056067747063934803,0.0068249148316681385,0.006138823926448822,0.0041217743419110775,0.0027559853624552488,0.0040551670826971531,0.0076916073448956013,0.0092597948387265205}>>, value = dense<"hex_value_removed_for_legibility_this_model_will_not_run_correctly_without_it"> : tensor<8x9x9x3xi8>} : () -> tensor<8x9x9x3x!quant.uniform<i8<-127:127>:f32:0, {0.0056067747063934803,0.0068249148316681385,0.006138823926448822,0.0041217743419110775,0.0027559853624552488,0.0040551670826971531,0.0076916073448956013,0.0092597948387265205}>>
    %7 = "tfl.pseudo_qconst"() {qtype = tensor<8x!quant.uniform<i32:f32:0, {2.1987352738506161E-5,2.6764373615151271E-5,2.4073820895864628E-5,1.616382178326603E-5,1.0807786566147115E-5,1.5902616723906249E-5,3.0163168048602529E-5,3.6312922020442784E-5}>>, value = dense<[51839, 44830, -39977, 9413, 28338, -68276, 12406, 28507]> : tensor<8xi32>} : () -> tensor<8x!quant.uniform<i32:f32:0, {2.1987352738506161E-5,2.6764373615151271E-5,2.4073820895864628E-5,1.616382178326603E-5,1.0807786566147115E-5,1.5902616723906249E-5,3.0163168048602529E-5,3.6312922020442784E-5}>>
    %8 = "tfl.conv_2d"(%5, %6, %7) {dilation_h_factor = 1 : i32, dilation_w_factor = 1 : i32, fused_activation_function = "RELU", padding = "VALID", stride_h = 1 : i32, stride_w = 1 : i32} : (tensor<1x392x392x3x!quant.uniform<i8:f32, 0.0039215688593685627:-128>>, tensor<8x9x9x3x!quant.uniform<i8<-127:127>:f32:0, {0.0056067747063934803,0.0068249148316681385,0.006138823926448822,0.0041217743419110775,0.0027559853624552488,0.0040551670826971531,0.0076916073448956013,0.0092597948387265205}>>, tensor<8x!quant.uniform<i32:f32:0, {2.1987352738506161E-5,2.6764373615151271E-5,2.4073820895864628E-5,1.616382178326603E-5,1.0807786566147115E-5,1.5902616723906249E-5,3.0163168048602529E-5,3.6312922020442784E-5}>>) -> tensor<1x384x384x8x!quant.uniform<i8:f32, 0.043777991086244583:-128>>
    %9 = "tfl.dequantize"(%8) : (tensor<1x384x384x8x!quant.uniform<i8:f32, 0.043777991086244583:-128>>) -> tensor<1x384x384x8xf32>
    %10 = "tfl.pseudo_const"() {value = dense<[[0, 0], [1, 1], [1, 1], [0, 0]]> : tensor<4x2xi32>} : () -> tensor<4x2xi32>
    %11 = "tfl.mirror_pad"(%9, %10) {mode = "REFLECT"} : (tensor<1x384x384x8xf32>, tensor<4x2xi32>) -> tensor<1x386x386x8xf32>
    %12 = "quant.stats"(%11) {layerStats = dense<[0.000000e+00, 11.1633873]> : tensor<2xf32>} : (tensor<1x386x386x8xf32>) -> tensor<1x386x386x8xf32>
    %13 = "tfl.quantize"(%12) {qtype = tensor<1x386x386x8x!quant.uniform<i8:f32, 0.043777991086244583:-128>>} : (tensor<1x386x386x8xf32>) -> tensor<1x386x386x8x!quant.uniform<i8:f32, 0.043777991086244583:-128>>
    %14 = "tfl.pseudo_qconst"() {qtype = tensor<16x3x3x8x!quant.uniform<i8<-127:127>:f32:0, {… >>, value = dense<"hex_value_removed_for_legibility_this_model_will_not_run_correctly_without_it"> : tensor<16x3x3x8xi8>} : () -> tensor<16x3x3x8x!quant.uniform<i8<-127:127>:f32:0, {… >>
    %15 = "tfl.pseudo_qconst"() {qtype = tensor<16x!quant.uniform<i32:f32:0, {… >>, value = dense<[857, -1500, 4967, -4924, 9212, -4732, -917, 2982, 17739, -1208, 1537, 2195, 5583, 1005, 7597, -13099]> : tensor<16xi32>} : () -> tensor<16x!quant.uniform<i32:f32:0, {… >>
    %16 = "tfl.conv_2d"(%13, %14, %15) {dilation_h_factor = 1 : i32, dilation_w_factor = 1 : i32, fused_activation_function = "RELU", padding = "VALID", stride_h = 2 : i32, stride_w = 2 : i32} : (tensor<1x386x386x8x!quant.uniform<i8:f32, 0.043777991086244583:-128>>, tensor<16x3x3x8x!quant.uniform<i8<-127:127>:f32:0, {… >>, tensor<16x!quant.uniform<i32:f32:0, {… >>) -> tensor<1x192x192x16x!quant.uniform<i8:f32, 0.070448920130729675:-128>>
    %17 = "tfl.dequantize"(%16) : (tensor<1x192x192x16x!quant.uniform<i8:f32, 0.070448920130729675:-128>>) -> tensor<1x192x192x16xf32>
    %18 = "tfl.pseudo_const"() {value = dense<[[0, 0], [1, 1], [1, 1], [0, 0]]> : tensor<4x2xi32>} : () -> tensor<4x2xi32>
    %19 = "tfl.mirror_pad"(%17, %18) {mode = "REFLECT"} : (tensor<1x192x192x16xf32>, tensor<4x2xi32>) -> tensor<1x194x194x16xf32>
    %20 = "quant.stats"(%19) {layerStats = dense<[0.000000e+00, 17.9644737]> : tensor<2xf32>} : (tensor<1x194x194x16xf32>) -> tensor<1x194x194x16xf32>
    %21 = "tfl.quantize"(%20) {qtype = tensor<1x194x194x16x!quant.uniform<i8:f32, 0.070448920130729675:-128>>} : (tensor<1x194x194x16xf32>) -> tensor<1x194x194x16x!quant.uniform<i8:f32, 0.070448920130729675:-128>>
    %22 = "tfl.pseudo_qconst"() {qtype = tensor<32x3x3x16x!quant.uniform<i8<-127:127>:f32:0, {… >>, value = dense<"hex_value_removed_for_legibility_this_model_will_not_run_correctly_without_it"> : tensor<32x3x3x16xi8>} : () -> tensor<32x3x3x16x!quant.uniform<i8<-127:127>:f32:0, {… >>
    %23 = "tfl.pseudo_qconst"() {qtype = tensor<32x!quant.uniform<i32:f32:0, {… >>, value = dense<[886, 1416, 3254, 1373, 1942, 3713, 1700, -927, 4257, 2119, 267, 4859, 5815, -974, -3164, 3686, -52, 1434, 5731, 1194, 1730, 3012, 3607, 1400, 2184, 1740, 2521, -1582, 885, -3184, 3160, 2939]> : tensor<32xi32>} : () -> tensor<32x!quant.uniform<i32:f32:0, {… >>
    %24 = "tfl.conv_2d"(%21, %22, %23) {dilation_h_factor = 1 : i32, dilation_w_factor = 1 : i32, fused_activation_function = "RELU", padding = "VALID", stride_h = 2 : i32, stride_w = 2 : i32} : (tensor<1x194x194x16x!quant.uniform<i8:f32, 0.070448920130729675:-128>>, tensor<32x3x3x16x!quant.uniform<i8<-127:127>:f32:0, {… >>, tensor<32x!quant.uniform<i32:f32:0, {… >>) -> tensor<1x96x96x32x!quant.uniform<i8:f32, 0.041506674140691757:-128>>
    %25 = "tfl.dequantize"(%24) : (tensor<1x96x96x32x!quant.uniform<i8:f32, 0.041506674140691757:-128>>) -> tensor<1x96x96x32xf32>
    %26 = "tfl.pseudo_const"() {value = dense<[[0, 0], [1, 1], [1, 1], [0, 0]]> : tensor<4x2xi32>} : () -> tensor<4x2xi32>
    %27 = "tfl.mirror_pad"(%25, %26) {mode = "REFLECT"} : (tensor<1x96x96x32xf32>, tensor<4x2xi32>) -> tensor<1x98x98x32xf32>
    %28 = "quant.stats"(%27) {layerStats = dense<[0.000000e+00, 10.5842018]> : tensor<2xf32>} : (tensor<1x98x98x32xf32>) -> tensor<1x98x98x32xf32>
    %29 = "tfl.quantize"(%28) {qtype = tensor<1x98x98x32x!quant.uniform<i8:f32, 0.041506674140691757:-128>>} : (tensor<1x98x98x32xf32>) -> tensor<1x98x98x32x!quant.uniform<i8:f32, 0.041506674140691757:-128>>
    %30 = "tfl.pseudo_qconst"() {qtype = tensor<32x3x3x32x!quant.uniform<i8<-127:127>:f32:0, {… >>, value = dense<"hex_value_removed_for_legibility_this_model_will_not_run_correctly_without_it"> : tensor<32x3x3x32xi8>} : () -> tensor<32x3x3x32x!quant.uniform<i8<-127:127>:f32:0, {… >>
    %31 = "tfl.pseudo_qconst"() {qtype = tensor<32x!quant.uniform<i32:f32:0, {… >>, value = dense<0> : tensor<32xi32>} : () -> tensor<32x!quant.uniform<i32:f32:0, {… >>
    %32 = "tfl.conv_2d"(%29, %30, %31) {dilation_h_factor = 1 : i32, dilation_w_factor = 1 : i32, fused_activation_function = "NONE", padding = "VALID", stride_h = 1 : i32, stride_w = 1 : i32} : (tensor<1x98x98x32x!quant.uniform<i8:f32, 0.041506674140691757:-128>>, tensor<32x3x3x32x!quant.uniform<i8<-127:127>:f32:0, {… >>, tensor<32x!quant.uniform<i32:f32:0, {… >>) -> tensor<1x96x96x32x!quant.uniform<i8:f32, 0.019597379490733147:9>>
    %33 = "tfl.pseudo_const"() {value = dense<[1, 2]> : tensor<2xi32>} : () -> tensor<2xi32>
    %34 = "tfl.mean"(%32, %33) {keep_dims = true} : (tensor<1x96x96x32x!quant.uniform<i8:f32, 0.019597379490733147:9>>, tensor<2xi32>) -> tensor<1x1x1x32x!quant.uniform<i8:f32, 0.0080322157591581345:1>>
    %35 = "tfl.dequantize"(%32) : (tensor<1x96x96x32x!quant.uniform<i8:f32, 0.019597379490733147:9>>) -> tensor<1x96x96x32xf32>
    %36 = "tfl.dequantize"(%34) : (tensor<1x1x1x32x!quant.uniform<i8:f32, 0.0080322157591581345:1>>) -> tensor<1x1x1x32xf32>
    %37 = "tfl.squared_difference"(%35, %36) : (tensor<1x96x96x32xf32>, tensor<1x1x1x32xf32>) -> tensor<1x96x96x32xf32>
    %38 = "quant.stats"(%37) {layerStats = dense<[1.2490009E-16, 5.18146896]> : tensor<2xf32>} : (tensor<1x96x96x32xf32>) -> tensor<1x96x96x32xf32>
    %39 = "tfl.quantize"(%38) {qtype = tensor<1x96x96x32x!quant.uniform<i8:f32, 0.020319486036896706:-128>>} : (tensor<1x96x96x32xf32>) -> tensor<1x96x96x32x!quant.uniform<i8:f32, 0.020319486036896706:-128>>
    %40 = "tfl.pseudo_const"() {value = dense<[1, 2]> : tensor<2xi32>} : () -> tensor<2xi32>
    %41 = "tfl.mean"(%39, %40) {keep_dims = true} : (tensor<1x96x96x32x!quant.uniform<i8:f32, 0.020319486036896706:-128>>, tensor<2xi32>) -> tensor<1x1x1x32x!quant.uniform<i8:f32, 0.0025313836522400379:-128>>
    %42 = "tfl.pseudo_qconst"() {qtype = tensor<!quant.uniform<i8<-127:127>:f32, 7.8740157505308161E-8>>, value = dense<127> : tensor<i8>} : () -> tensor<!quant.uniform<i8<-127:127>:f32, 7.8740157505308161E-8>>
    %43 = "tfl.add"(%41, %42) {fused_activation_function = "NONE"} : (tensor<1x1x1x32x!quant.uniform<i8:f32, 0.0025313836522400379:-128>>, tensor<!quant.uniform<i8<-127:127>:f32, 7.8740157505308161E-8>>) -> tensor<1x1x1x32x!quant.uniform<i8:f32, 0.0025314227677881718:-128>>
    %44 = "tfl.dequantize"(%43) : (tensor<1x1x1x32x!quant.uniform<i8:f32, 0.0025314227677881718:-128>>) -> tensor<1x1x1x32xf32>
    %45 = "tfl.rsqrt"(%44) : (tensor<1x1x1x32xf32>) -> tensor<1x1x1x32xf32>
    %46 = "quant.stats"(%45) {layerStats = dense<[1.24465096, 26.9179115]> : tensor<2xf32>} : (tensor<1x1x1x32xf32>) -> tensor<1x1x1x32xf32>
    %47 = "tfl.pseudo_qconst"() {qtype = tensor<32x1x1x100x!quant.uniform<i8<-127:127>:f32:0, {… >>, value = dense<"hex_value_removed_for_legibility_this_model_will_not_run_correctly_without_it"> : tensor<32x1x1x100xi8>} : () -> tensor<32x1x1x100x!quant.uniform<i8<-127:127>:f32:0, {… >>
    %48 = "tfl.pseudo_qconst"() {qtype = tensor<32x!quant.uniform<i32:f32:0, {… >>, value = dense<[209, 503, 622, 651, 984, 540, -258, -256, 957, 505, 261, 455, 1494, 2302, 985, 1378, 1011, -83, 354, 920, 44, 3288, 1054, 312, 379, 665, 805, 421, 179, 610, 906, 430]> : tensor<32xi32>} : () -> tensor<32x!quant.uniform<i32:f32:0, {… >>
    %49 = "tfl.conv_2d"(%1, %47, %48) {dilation_h_factor = 1 : i32, dilation_w_factor = 1 : i32, fused_activation_function = "NONE", padding = "SAME", stride_h = 1 : i32, stride_w = 1 : i32} : (tensor<1x1x1x100x!quant.uniform<i8:f32, 0.022740744054317474:-3>>, tensor<32x1x1x100x!quant.uniform<i8<-127:127>:f32:0, {… >>, tensor<32x!quant.uniform<i32:f32:0, {… >>) -> tensor<1x1x1x32x!quant.uniform<i8:f32, 0.081415466964244842:-92>>
    %50 = "tfl.pseudo_qconst"() {qtype = tensor<32x1x1x100x!quant.uniform<i8<-127:127>:f32:0, {… >>, value = dense<"hex_value_removed_for_legibility_this_model_will_not_run_correctly_without_it"> : tensor<32x1x1x100xi8>} : () -> tensor<32x1x1x100x!quant.uniform<i8<-127:127>:f32:0, {… >>
    %51 = "tfl.pseudo_qconst"() {qtype = tensor<32x!quant.uniform<i32:f32:0, {… >>, value = dense<[-1106, 143, 344, -198, -437, 536, -62, -869, -627, 210, 41, 364, 779, -965, 566, 772, -342, 609, -27, -263, 140, 455, 282, -326, 489, 380, 392, 323, -841, 256, -578, 630]> : tensor<32xi32>} : () -> tensor<32x!quant.uniform<i32:f32:0, {… >>
    %52 = "tfl.conv_2d"(%1, %50, %51) {dilation_h_factor = 1 : i32, dilation_w_factor = 1 : i32, fused_activation_function = "NONE", padding = "SAME", stride_h = 1 : i32, stride_w = 1 : i32} : (tensor<1x1x1x100x!quant.uniform<i8:f32, 0.022740744054317474:-3>>, tensor<32x1x1x100x!quant.uniform<i8<-127:127>:f32:0, {… >>, tensor<32x!quant.uniform<i32:f32:0, {… >>) -> tensor<1x1x1x32x!quant.uniform<i8:f32, 0.034883759915828705:6>>
    %53 = "tfl.pseudo_qconst"() {qtype = tensor<32x1x1x100x!quant.uniform<i8<-127:127>:f32:0, {… >>, value = dense<"hex_value_removed_for_legibility_this_model_will_not_run_correctly_without_it"> : tensor<32x1x1x100xi8>} : () -> tensor<32x1x1x100x!quant.uniform<i8<-127:127>:f32:0, {… >>
    %54 = "tfl.pseudo_qconst"() {qtype = tensor<32x!quant.uniform<i32:f32:0, {… >>, value = dense<[-244, -743, -360, 20, 833, 392, -235, -472, -272, 501, -128, -480, -234, 291, 80, 532, -378, -452, -527, 101, 515, 18, -13, 92, 32, -169, -506, 658, -149, -518, -705, 275]> : tensor<32xi32>} : () -> tensor<32x!quant.uniform<i32:f32:0, {… >>
    %55 = "tfl.conv_2d"(%1, %53, %54) {dilation_h_factor = 1 : i32, dilation_w_factor = 1 : i32, fused_activation_function = "NONE", padding = "SAME", stride_h = 1 : i32, stride_w = 1 : i32} : (tensor<1x1x1x100x!quant.uniform<i8:f32, 0.022740744054317474:-3>>, tensor<32x1x1x100x!quant.uniform<i8<-127:127>:f32:0, {… >>, tensor<32x!quant.uniform<i32:f32:0, {… >>) -> tensor<1x1x1x32x!quant.uniform<i8:f32, 0.034540269523859024:30>>
    %56 = "tfl.pseudo_qconst"() {qtype = tensor<32x1x1x100x!quant.uniform<i8<-127:127>:f32:0, {… >>, value = dense<"hex_value_removed_for_legibility_this_model_will_not_run_correctly_without_it"> : tensor<32x1x1x100xi8>} : () -> tensor<32x1x1x100x!quant.uniform<i8<-127:127>:f32:0, {… >>
    %57 = "tfl.pseudo_qconst"() {qtype = tensor<32x!quant.uniform<i32:f32:0, {… >>, value = dense<[918, -24, -765, -1200, 353, 607, 204, -328, -584, 206, -326, -535, -187, -531, 325, -368, -469, -53, 393, 168, -503, -142, 102, 120, 16, 45, -655, 295, -106, -735, 139, -476]> : tensor<32xi32>} : () -> tensor<32x!quant.uniform<i32:f32:0, {… >>
    %58 = "tfl.conv_2d"(%1, %56, %57) {dilation_h_factor = 1 : i32, dilation_w_factor = 1 : i32, fused_activation_function = "NONE", padding = "SAME", stride_h = 1 : i32, stride_w = 1 : i32} : (tensor<1x1x1x100x!quant.uniform<i8:f32, 0.022740744054317474:-3>>, tensor<32x1x1x100x!quant.uniform<i8<-127:127>:f32:0, {… >>, tensor<32x!quant.uniform<i32:f32:0, {… >>) -> tensor<1x1x1x32x!quant.uniform<i8:f32, 0.028651582077145576:13>>
    %59 = "tfl.pseudo_qconst"() {qtype = tensor<32x1x1x100x!quant.uniform<i8<-127:127>:f32:0, {… >>, value = dense<"hex_value_removed_for_legibility_this_model_will_not_run_correctly_without_it"> : tensor<32x1x1x100xi8>} : () -> tensor<32x1x1x100x!quant.uniform<i8<-127:127>:f32:0, {… >>
    %60 = "tfl.pseudo_qconst"() {qtype = tensor<32x!quant.uniform<i32:f32:0, {… >>, value = dense<[1523, 590, -30, 543, 728, 1878, 526, 345, -389, 844, 2275, 480, 245, 1665, 223, 587, 760, 332, 475, 697, 848, 338, 144, 360, 770, 512, 952, 1661, 722, 357, 499, 229]> : tensor<32xi32>} : () -> tensor<32x!quant.uniform<i32:f32:0, {… >>
    %61 = "tfl.conv_2d"(%1, %59, %60) {dilation_h_factor = 1 : i32, dilation_w_factor = 1 : i32, fused_activation_function = "NONE", padding = "SAME", stride_h = 1 : i32, stride_w = 1 : i32} : (tensor<1x1x1x100x!quant.uniform<i8:f32, 0.022740744054317474:-3>>, tensor<32x1x1x100x!quant.uniform<i8<-127:127>:f32:0, {… >>, tensor<32x!quant.uniform<i32:f32:0, {… >>) -> tensor<1x1x1x32x!quant.uniform<i8:f32, 0.056521434336900711:-77>>
    %62 = "tfl.pseudo_qconst"() {qtype = tensor<32x1x1x100x!quant.uniform<i8<-127:127>:f32:0, {… >>, value = dense<"hex_value_removed_for_legibility_this_model_will_not_run_correctly_without_it"> : tensor<32x1x1x100xi8>} : () -> tensor<32x1x1x100x!quant.uniform<i8<-127:127>:f32:0, {… >>
    %63 = "tfl.pseudo_qconst"() {qtype = tensor<32x!quant.uniform<i32:f32:0, {… >>, value = dense<[551, 499, -659, 80, 73, 680, -432, -329, -123, 397, 264, 788, -929, -539, 785, 28, -505, 809, 62, -209, -874, 266, 379, 422, 160, -284, -396, 470, 343, 600, -257, 1107]> : tensor<32xi32>} : () -> tensor<32x!quant.uniform<i32:f32:0, {… >>
    %64 = "tfl.conv_2d"(%1, %62, %63) {dilation_h_factor = 1 : i32, dilation_w_factor = 1 : i32, fused_activation_function = "NONE", padding = "SAME", stride_h = 1 : i32, stride_w = 1 : i32} : (tensor<1x1x1x100x!quant.uniform<i8:f32, 0.022740744054317474:-3>>, tensor<32x1x1x100x!quant.uniform<i8<-127:127>:f32:0, {… >>, tensor<32x!quant.uniform<i32:f32:0, {… >>) -> tensor<1x1x1x32x!quant.uniform<i8:f32, 0.035058002918958664:-6>>
    %65 = "tfl.pseudo_qconst"() {qtype = tensor<32x1x1x100x!quant.uniform<i8<-127:127>:f32:0, {… >>, value = dense<"hex_value_removed_for_legibility_this_model_will_not_run_correctly_without_it"> : tensor<32x1x1x100xi8>} : () -> tensor<32x1x1x100x!quant.uniform<i8<-127:127>:f32:0, {… >>
    %66 = "tfl.pseudo_qconst"() {qtype = tensor<32x!quant.uniform<i32:f32:0, {… >>, value = dense<[-426, 384, 193, -581, -478, 323, 0, -332, 57, -464, -316, 56, -240, 961, -416, -566, -354, -38, 278, 605, 606, 222, -32, 74, -391, 0, 89, -167, 548, 390, -393, -188]> : tensor<32xi32>} : () -> tensor<32x!quant.uniform<i32:f32:0, {… >>
    %67 = "tfl.conv_2d"(%1, %65, %66) {dilation_h_factor = 1 : i32, dilation_w_factor = 1 : i32, fused_activation_function = "NONE", padding = "SAME", stride_h = 1 : i32, stride_w = 1 : i32} : (tensor<1x1x1x100x!quant.uniform<i8:f32, 0.022740744054317474:-3>>, tensor<32x1x1x100x!quant.uniform<i8<-127:127>:f32:0, {… >>, tensor<32x!quant.uniform<i32:f32:0, {… >>) -> tensor<1x1x1x32x!quant.uniform<i8:f32, 0.039845693856477737:27>>
    %68 = "tfl.pseudo_qconst"() {qtype = tensor<32x1x1x100x!quant.uniform<i8<-127:127>:f32:0, {… >>, value = dense<"hex_value_removed_for_legibility_this_model_will_not_run_correctly_without_it"> : tensor<32x1x1x100xi8>} : () -> tensor<32x1x1x100x!quant.uniform<i8<-127:127>:f32:0, {… >>
    %69 = "tfl.pseudo_qconst"() {qtype = tensor<32x!quant.uniform<i32:f32:0, {… >>, value = dense<[478, 409, -105, -251, -164, 95, -838, -611, 825, -458, 270, 798, -1122, -679, 614, 376, -610, -189, 211, 207, 104, -288, -802, 610, 618, 711, -531, -175, -47, -319, -450, 707]> : tensor<32xi32>} : () -> tensor<32x!quant.uniform<i32:f32:0, {… >>
    %70 = "tfl.conv_2d"(%1, %68, %69) {dilation_h_factor = 1 : i32, dilation_w_factor = 1 : i32, fused_activation_function = "NONE", padding = "SAME", stride_h = 1 : i32, stride_w = 1 : i32} : (tensor<1x1x1x100x!quant.uniform<i8:f32, 0.022740744054317474:-3>>, tensor<32x1x1x100x!quant.uniform<i8<-127:127>:f32:0, {… >>, tensor<32x!quant.uniform<i32:f32:0, {… >>) -> tensor<1x1x1x32x!quant.uniform<i8:f32, 0.028219219297170639:17>>
    %71 = "tfl.pseudo_qconst"() {qtype = tensor<32x1x1x100x!quant.uniform<i8<-127:127>:f32:0, {… >>, value = dense<"hex_value_removed_for_legibility_this_model_will_not_run_correctly_without_it"> : tensor<32x1x1x100xi8>} : () -> tensor<32x1x1x100x!quant.uniform<i8<-127:127>:f32:0, {… >>
    %72 = "tfl.pseudo_qconst"() {qtype = tensor<32x!quant.uniform<i32:f32:0, {… >>, value = dense<[-394, 521, 1174, 299, 556, 100, 276, 187, 283, 389, 433, 666, 791, -169, 748, 1059, 559, 232, -92, 1649, 1864, 1216, 593, 646, 1310, 843, 750, -319, 3356, -227, -122, 1762]> : tensor<32xi32>} : () -> tensor<32x!quant.uniform<i32:f32:0, {… >>
    %73 = "tfl.conv_2d"(%1, %71, %72) {dilation_h_factor = 1 : i32, dilation_w_factor = 1 : i32, fused_activation_function = "NONE", padding = "SAME", stride_h = 1 : i32, stride_w = 1 : i32} : (tensor<1x1x1x100x!quant.uniform<i8:f32, 0.022740744054317474:-3>>, tensor<32x1x1x100x!quant.uniform<i8<-127:127>:f32:0, {… >>, tensor<32x!quant.uniform<i32:f32:0, {… >>) -> tensor<1x1x1x32x!quant.uniform<i8:f32, 0.059133868664503098:-81>>
    %74 = "tfl.pseudo_qconst"() {qtype = tensor<32x1x1x100x!quant.uniform<i8<-127:127>:f32:0, {… >>, value = dense<"hex_value_removed_for_legibility_this_model_will_not_run_correctly_without_it"> : tensor<32x1x1x100xi8>} : () -> tensor<32x1x1x100x!quant.uniform<i8<-127:127>:f32:0, {… >>
    %75 = "tfl.pseudo_qconst"() {qtype = tensor<32x!quant.uniform<i32:f32:0, {… >>, value = dense<[114, -155, -290, 190, 471, 459, -616, -337, -893, 263, -336, -289, -355, -4, 642, -591, -263, 450, -291, -336, 177, -809, -527, 561, 34, 422, -257, 250, 897, 119, 424, 177]> : tensor<32xi32>} : () -> tensor<32x!quant.uniform<i32:f32:0, {… >>
    %76 = "tfl.conv_2d"(%1, %74, %75) {dilation_h_factor = 1 : i32, dilation_w_factor = 1 : i32, fused_activation_function = "NONE", padding = "SAME", stride_h = 1 : i32, stride_w = 1 : i32} : (tensor<1x1x1x100x!quant.uniform<i8:f32, 0.022740744054317474:-3>>, tensor<32x1x1x100x!quant.uniform<i8<-127:127>:f32:0, {… >>, tensor<32x!quant.uniform<i32:f32:0, {… >>) -> tensor<1x1x1x32x!quant.uniform<i8:f32, 0.036093778908252716:-7>>
    %77 = "tfl.pseudo_qconst"() {qtype = tensor<32x1x1x100x!quant.uniform<i8<-127:127>:f32:0, {… >>, value = dense<"hex_value_removed_for_legibility_this_model_will_not_run_correctly_without_it"> : tensor<32x1x1x100xi8>} : () -> tensor<32x1x1x100x!quant.uniform<i8<-127:127>:f32:0, {… >>
    %78 = "tfl.pseudo_qconst"() {qtype = tensor<32x!quant.uniform<i32:f32:0, {… >>, value = dense<[239, 113, -520, 105, 258, -107, 255, 578, 309, 541, 89, 750, -508, -154, -81, -225, -419, 645, 109, -201, -755, 393, -245, 22, -360, -386, -635, 244, 170, 493, -551, 10]> : tensor<32xi32>} : () -> tensor<32x!quant.uniform<i32:f32:0, {… >>
    %79 = "tfl.conv_2d"(%1, %77, %78) {dilation_h_factor = 1 : i32, dilation_w_factor = 1 : i32, fused_activation_function = "NONE", padding = "SAME", stride_h = 1 : i32, stride_w = 1 : i32} : (tensor<1x1x1x100x!quant.uniform<i8:f32, 0.022740744054317474:-3>>, tensor<32x1x1x100x!quant.uniform<i8<-127:127>:f32:0, {… >>, tensor<32x!quant.uniform<i32:f32:0, {… >>) -> tensor<1x1x1x32x!quant.uniform<i8:f32, 0.032314032316207886:12>>
    %80 = "tfl.pseudo_qconst"() {qtype = tensor<32x1x1x100x!quant.uniform<i8<-127:127>:f32:0, {… >>, value = dense<"hex_value_removed_for_legibility_this_model_will_not_run_correctly_without_it"> : tensor<32x1x1x100xi8>} : () -> tensor<32x1x1x100x!quant.uniform<i8<-127:127>:f32:0, {… >>
    %81 = "tfl.pseudo_qconst"() {qtype = tensor<32x!quant.uniform<i32:f32:0, {… >>, value = dense<[-66, 201, -373, -269, 507, -419, 884, -292, -969, -340, 680, 312, -568, 154, -24, 757, 642, 402, -9, -547, 534, -525, 441, -805, -372, -278, -565, -861, -471, 282, -79, -332]> : tensor<32xi32>} : () -> tensor<32x!quant.uniform<i32:f32:0, {… >>
    %82 = "tfl.conv_2d"(%1, %80, %81) {dilation_h_factor = 1 : i32, dilation_w_factor = 1 : i32, fused_activation_function = "NONE", padding = "SAME", stride_h = 1 : i32, stride_w = 1 : i32} : (tensor<1x1x1x100x!quant.uniform<i8:f32, 0.022740744054317474:-3>>, tensor<32x1x1x100x!quant.uniform<i8<-127:127>:f32:0, {… >>, tensor<32x!quant.uniform<i32:f32:0, {… >>) -> tensor<1x1x1x32x!quant.uniform<i8:f32, 0.036237820982933044:20>>
    %83 = "tfl.pseudo_qconst"() {qtype = tensor<32x1x1x100x!quant.uniform<i8<-127:127>:f32:0, {… >>, value = dense<"hex_value_removed_for_legibility_this_model_will_not_run_correctly_without_it"> : tensor<32x1x1x100xi8>} : () -> tensor<32x1x1x100x!quant.uniform<i8<-127:127>:f32:0, {… >>
    %84 = "tfl.pseudo_qconst"() {qtype = tensor<32x!quant.uniform<i32:f32:0, {… >>, value = dense<[814, 139, -85, -263, 1049, -284, 718, 556, 384, 218, 1003, 336, 209, 184, 563, 479, 898, 505, 775, -203, -39, 890, 141, 284, 858, 1301, 327, 319, 1739, 412, 729, -87]> : tensor<32xi32>} : () -> tensor<32x!quant.uniform<i32:f32:0, {… >>
    %85 = "tfl.conv_2d"(%1, %83, %84) {dilation_h_factor = 1 : i32, dilation_w_factor = 1 : i32, fused_activation_function = "NONE", padding = "SAME", stride_h = 1 : i32, stride_w = 1 : i32} : (tensor<1x1x1x100x!quant.uniform<i8:f32, 0.022740744054317474:-3>>, tensor<32x1x1x100x!quant.uniform<i8<-127:127>:f32:0, {… >>, tensor<32x!quant.uniform<i32:f32:0, {… >>) -> tensor<1x1x1x32x!quant.uniform<i8:f32, 0.048760674893856049:-52>>
    %86 = "tfl.pseudo_qconst"() {qtype = tensor<32x1x1x100x!quant.uniform<i8<-127:127>:f32:0, {… >>, value = dense<"hex_value_removed_for_legibility_this_model_will_not_run_correctly_without_it"> : tensor<32x1x1x100xi8>} : () -> tensor<32x1x1x100x!quant.uniform<i8<-127:127>:f32:0, {… >>
    %87 = "tfl.pseudo_qconst"() {qtype = tensor<32x!quant.uniform<i32:f32:0, {… >>, value = dense<[274, -294, -333, -297, 236, 641, -791, 696, -279, -386, -91, -226, -396, -77, -551, -370, -478, 162, -558, -84, -508, -178, 6, 18, -467, -548, 528, -552, -285, 92, 160, -424]> : tensor<32xi32>} : () -> tensor<32x!quant.uniform<i32:f32:0, {… >>
    %88 = "tfl.conv_2d"(%1, %86, %87) {dilation_h_factor = 1 : i32, dilation_w_factor = 1 : i32, fused_activation_function = "NONE", padding = "SAME", stride_h = 1 : i32, stride_w = 1 : i32} : (tensor<1x1x1x100x!quant.uniform<i8:f32, 0.022740744054317474:-3>>, tensor<32x1x1x100x!quant.uniform<i8<-127:127>:f32:0, {… >>, tensor<32x!quant.uniform<i32:f32:0, {… >>) -> tensor<1x1x1x32x!quant.uniform<i8:f32, 0.033981539309024811:7>>
    %89 = "tfl.pseudo_qconst"() {qtype = tensor<32x1x1x100x!quant.uniform<i8<-127:127>:f32:0, {… >>, value = dense<"hex_value_removed_for_legibility_this_model_will_not_run_correctly_without_it"> : tensor<32x1x1x100xi8>} : () -> tensor<32x1x1x100x!quant.uniform<i8<-127:127>:f32:0, {… >>
    %90 = "tfl.pseudo_qconst"() {qtype = tensor<32x!quant.uniform<i32:f32:0, {… >>, value = dense<[545, -218, -304, -233, 774, 108, -731, -35, 438, 648, -551, -351, -352, -334, 29, 348, -248, -471, 105, -252, 310, -152, 275, -141, -149, -797, 39, -432, -363, 265, -229, 313]> : tensor<32xi32>} : () -> tensor<32x!quant.uniform<i32:f32:0, {… >>
    %91 = "tfl.conv_2d"(%1, %89, %90) {dilation_h_factor = 1 : i32, dilation_w_factor = 1 : i32, fused_activation_function = "NONE", padding = "SAME", stride_h = 1 : i32, stride_w = 1 : i32} : (tensor<1x1x1x100x!quant.uniform<i8:f32, 0.022740744054317474:-3>>, tensor<32x1x1x100x!quant.uniform<i8<-127:127>:f32:0, {… >>, tensor<32x!quant.uniform<i32:f32:0, {… >>) -> tensor<1x1x1x32x!quant.uniform<i8:f32, 0.032102540135383606:19>>
    %92 = "tfl.pseudo_qconst"() {qtype = tensor<32x1x1x100x!quant.uniform<i8<-127:127>:f32:0, {… >>, value = dense<"hex_value_removed_for_legibility_this_model_will_not_run_correctly_without_it"> : tensor<32x1x1x100xi8>} : () -> tensor<32x1x1x100x!quant.uniform<i8<-127:127>:f32:0, {… >>
    %93 = "tfl.pseudo_qconst"() {qtype = tensor<32x!quant.uniform<i32:f32:0, {… >>, value = dense<[636, -648, 1232, 815, 697, -390, -620, -92, -815, 617, 432, -521, 494, 981, -614, -355, 23, -1007, -633, -187, 671, 1522, 495, -513, 212, 994, -928, 26, -775, -38, -920, 798]> : tensor<32xi32>} : () -> tensor<32x!quant.uniform<i32:f32:0, {… >>
    %94 = "tfl.conv_2d"(%1, %92, %93) {dilation_h_factor = 1 : i32, dilation_w_factor = 1 : i32, fused_activation_function = "NONE", padding = "SAME", stride_h = 1 : i32, stride_w = 1 : i32} : (tensor<1x1x1x100x!quant.uniform<i8:f32, 0.022740744054317474:-3>>, tensor<32x1x1x100x!quant.uniform<i8<-127:127>:f32:0, {… >>, tensor<32x!quant.uniform<i32:f32:0, {… >>) -> tensor<1x1x1x32x!quant.uniform<i8:f32, 0.046703558415174484:13>>
    %95 = "tfl.pseudo_qconst"() {qtype = tensor<32x1x1x100x!quant.uniform<i8<-127:127>:f32:0, {… >>, value = dense<"hex_value_removed_for_legibility_this_model_will_not_run_correctly_without_it"> : tensor<32x1x1x100xi8>} : () -> tensor<32x1x1x100x!quant.uniform<i8<-127:127>:f32:0, {… >>
    %96 = "tfl.pseudo_qconst"() {qtype = tensor<32x!quant.uniform<i32:f32:0, {… >>, value = dense<[717, 115, 242, 131, 696, 1894, 67, 656, 296, 962, -84, 1209, 445, 410, 242, 420, 1054, 722, 251, 291, -116, 1311, -480, 255, 628, 269, 653, -330, 87, 669, 98, 63]> : tensor<32xi32>} : () -> tensor<32x!quant.uniform<i32:f32:0, {… >>
    %97 = "tfl.conv_2d"(%1, %95, %96) {dilation_h_factor = 1 : i32, dilation_w_factor = 1 : i32, fused_activation_function = "NONE", padding = "SAME", stride_h = 1 : i32, stride_w = 1 : i32} : (tensor<1x1x1x100x!quant.uniform<i8:f32, 0.022740744054317474:-3>>, tensor<32x1x1x100x!quant.uniform<i8<-127:127>:f32:0, {… >>, tensor<32x!quant.uniform<i32:f32:0, {… >>) -> tensor<1x1x1x32x!quant.uniform<i8:f32, 0.048569228500127792:-27>>
    %98 = "tfl.pseudo_qconst"() {qtype = tensor<32x1x1x100x!quant.uniform<i8<-127:127>:f32:0, {… >>, value = dense<"hex_value_removed_for_legibility_this_model_will_not_run_correctly_without_it"> : tensor<32x1x1x100xi8>} : () -> tensor<32x1x1x100x!quant.uniform<i8<-127:127>:f32:0, {… >>
    %99 = "tfl.pseudo_qconst"() {qtype = tensor<32x!quant.uniform<i32:f32:0, {… >>, value = dense<[225, -316, -500, 461, 195, -390, 272, -536, 405, -339, 246, -405, -318, -885, -262, 721, -626, -251, 497, 725, 42, 379, -347, 34, 242, 497, -40, 750, 612, 95, 810, 222]> : tensor<32xi32>} : () -> tensor<32x!quant.uniform<i32:f32:0, {… >>
    %100 = "tfl.conv_2d"(%1, %98, %99) {dilation_h_factor = 1 : i32, dilation_w_factor = 1 : i32, fused_activation_function = "NONE", padding = "SAME", stride_h = 1 : i32, stride_w = 1 : i32} : (tensor<1x1x1x100x!quant.uniform<i8:f32, 0.022740744054317474:-3>>, tensor<32x1x1x100x!quant.uniform<i8<-127:127>:f32:0, {… >>, tensor<32x!quant.uniform<i32:f32:0, {… >>) -> tensor<1x1x1x32x!quant.uniform<i8:f32, 0.03778902068734169:-8>>
    %101 = "tfl.pseudo_qconst"() {qtype = tensor<32x1x1x100x!quant.uniform<i8<-127:127>:f32:0, {… >>, value = dense<"hex_value_removed_for_legibility_this_model_will_not_run_correctly_without_it"> : tensor<32x1x1x100xi8>} : () -> tensor<32x1x1x100x!quant.uniform<i8<-127:127>:f32:0, {… >>
    %102 = "tfl.pseudo_qconst"() {qtype = tensor<32x!quant.uniform<i32:f32:0, {… >>, value = dense<[-481, 66, -438, 235, 33, 499, 286, 103, -99, -52, 40, -407, -329, -75, -192, -582, -230, 246, -526, -143, -382, 92, -154, 41, -185, -128, -436, -449, 192, -217, 161, -208]> : tensor<32xi32>} : () -> tensor<32x!quant.uniform<i32:f32:0, {… >>
    %103 = "tfl.conv_2d"(%1, %101, %102) {dilation_h_factor = 1 : i32, dilation_w_factor = 1 : i32, fused_activation_function = "NONE", padding = "SAME", stride_h = 1 : i32, stride_w = 1 : i32} : (tensor<1x1x1x100x!quant.uniform<i8:f32, 0.022740744054317474:-3>>, tensor<32x1x1x100x!quant.uniform<i8<-127:127>:f32:0, {… >>, tensor<32x!quant.uniform<i32:f32:0, {… >>) -> tensor<1x1x1x32x!quant.uniform<i8:f32, 0.032035455107688904:-7>>
    %104 = "tfl.pseudo_qconst"() {qtype = tensor<32x1x1x100x!quant.uniform<i8<-127:127>:f32:0, {… >>, value = dense<"hex_value_removed_for_legibility_this_model_will_not_run_correctly_without_it"> : tensor<32x1x1x100xi8>} : () -> tensor<32x1x1x100x!quant.uniform<i8<-127:127>:f32:0, {… >>
    %105 = "tfl.pseudo_qconst"() {qtype = tensor<32x!quant.uniform<i32:f32:0, {… >>, value = dense<[659, 470, -910, -1201, -642, -1165, 598, 248, 875, -958, 947, -891, 273, -778, -715, -783, 904, -687, -1465, -683, 1310, -612, 675, -644, 861, 499, -468, -743, -1020, -727, 930, -1432]> : tensor<32xi32>} : () -> tensor<32x!quant.uniform<i32:f32:0, {… >>
    %106 = "tfl.conv_2d"(%1, %104, %105) {dilation_h_factor = 1 : i32, dilation_w_factor = 1 : i32, fused_activation_function = "NONE", padding = "SAME", stride_h = 1 : i32, stride_w = 1 : i32} : (tensor<1x1x1x100x!quant.uniform<i8:f32, 0.022740744054317474:-3>>, tensor<32x1x1x100x!quant.uniform<i8<-127:127>:f32:0, {… >>, tensor<32x!quant.uniform<i32:f32:0, {… >>) -> tensor<1x1x1x32x!quant.uniform<i8:f32, 0.051889717578887939:7>>
    %107 = "tfl.pseudo_qconst"() {qtype = tensor<16x1x1x100x!quant.uniform<i8<-127:127>:f32:0, {… >>, value = dense<"hex_value_removed_for_legibility_this_model_will_not_run_correctly_without_it"> : tensor<16x1x1x100xi8>} : () -> tensor<16x1x1x100x!quant.uniform<i8<-127:127>:f32:0, {… >>
    %108 = "tfl.pseudo_qconst"() {qtype = tensor<16x!quant.uniform<i32:f32:0, {… >>, value = dense<[-115, 533, 325, -7, -94, 568, -131, -207, -376, -482, 235, 716, -137, 471, -169, 559]> : tensor<16xi32>} : () -> tensor<16x!quant.uniform<i32:f32:0, {… >>
    %109 = "tfl.conv_2d"(%1, %107, %108) {dilation_h_factor = 1 : i32, dilation_w_factor = 1 : i32, fused_activation_function = "NONE", padding = "SAME", stride_h = 1 : i32, stride_w = 1 : i32} : (tensor<1x1x1x100x!quant.uniform<i8:f32, 0.022740744054317474:-3>>, tensor<16x1x1x100x!quant.uniform<i8<-127:127>:f32:0, {… >>, tensor<16x!quant.uniform<i32:f32:0, {… >>) -> tensor<1x1x1x16x!quant.uniform<i8:f32, 0.036568928509950638:-26>>
    %110 = "tfl.pseudo_qconst"() {qtype = tensor<16x1x1x100x!quant.uniform<i8<-127:127>:f32:0, {… >>, value = dense<"hex_value_removed_for_legibility_this_model_will_not_run_correctly_without_it"> : tensor<16x1x1x100xi8>} : () -> tensor<16x1x1x100x!quant.uniform<i8<-127:127>:f32:0, {… >>
    %111 = "tfl.pseudo_qconst"() {qtype = tensor<16x!quant.uniform<i32:f32:0, {… >>, value = dense<[-11, -121, -516, -685, -557, 228, -598, 543, 352, 58, 328, -935, 380, -642, 164, 89]> : tensor<16xi32>} : () -> tensor<16x!quant.uniform<i32:f32:0, {… >>
    %112 = "tfl.conv_2d"(%1, %110, %111) {dilation_h_factor = 1 : i32, dilation_w_factor = 1 : i32, fused_activation_function = "NONE", padding = "SAME", stride_h = 1 : i32, stride_w = 1 : i32} : (tensor<1x1x1x100x!quant.uniform<i8:f32, 0.022740744054317474:-3>>, tensor<16x1x1x100x!quant.uniform<i8<-127:127>:f32:0, {… >>, tensor<16x!quant.uniform<i32:f32:0, {… >>) -> tensor<1x1x1x16x!quant.uniform<i8:f32, 0.028536655008792877:4>>
    %113 = "tfl.pseudo_qconst"() {qtype = tensor<8x1x1x100x!quant.uniform<i8<-127:127>:f32:0, {0.0027907467447221279,0.0029531968757510185,0.0036585484631359577,0.0032991715706884861,0.0025425951462239027,0.0021885298192501068,0.0029067366849631071,0.0029679147992283106}>>, value = dense<"hex_value_removed_for_legibility_this_model_will_not_run_correctly_without_it"> : tensor<8x1x1x100xi8>} : () -> tensor<8x1x1x100x!quant.uniform<i8<-127:127>:f32:0, {0.0027907467447221279,0.0029531968757510185,0.0036585484631359577,0.0032991715706884861,0.0025425951462239027,0.0021885298192501068,0.0029067366849631071,0.0029679147992283106}>>
    %114 = "tfl.pseudo_qconst"() {qtype = tensor<8x!quant.uniform<i32:f32:0, {6.3463659898843616E-5,6.7157896410208195E-5,8.3198116044513881E-5,7.5025614933110774E-5,5.7820507208816707E-5,4.9768797907745466E-5,6.610135460505262E-5,6.7492590460460633E-5}>>, value = dense<[1204, 1820, 616, 158, 162, -91, 975, 1247]> : tensor<8xi32>} : () -> tensor<8x!quant.uniform<i32:f32:0, {6.3463659898843616E-5,6.7157896410208195E-5,8.3198116044513881E-5,7.5025614933110774E-5,5.7820507208816707E-5,4.9768797907745466E-5,6.610135460505262E-5,6.7492590460460633E-5}>>
    %115 = "tfl.conv_2d"(%1, %113, %114) {dilation_h_factor = 1 : i32, dilation_w_factor = 1 : i32, fused_activation_function = "NONE", padding = "SAME", stride_h = 1 : i32, stride_w = 1 : i32} : (tensor<1x1x1x100x!quant.uniform<i8:f32, 0.022740744054317474:-3>>, tensor<8x1x1x100x!quant.uniform<i8<-127:127>:f32:0, {0.0027907467447221279,0.0029531968757510185,0.0036585484631359577,0.0032991715706884861,0.0025425951462239027,0.0021885298192501068,0.0029067366849631071,0.0029679147992283106}>>, tensor<8x!quant.uniform<i32:f32:0, {6.3463659898843616E-5,6.7157896410208195E-5,8.3198116044513881E-5,7.5025614933110774E-5,5.7820507208816707E-5,4.9768797907745466E-5,6.610135460505262E-5,6.7492590460460633E-5}>>) -> tensor<1x1x1x8x!quant.uniform<i8:f32, 0.044889830052852631:-92>>
    %116 = "tfl.pseudo_qconst"() {qtype = tensor<8x1x1x100x!quant.uniform<i8<-127:127>:f32:0, {0.0018990846583619714,0.0020455967169255018,0.0019407607614994049,0.0026615431997925043,0.0027217916212975979,0.002241870854049921,0.0020900596864521503,0.0022853261325508356}>>, value = dense<"hex_value_removed_for_legibility_this_model_will_not_run_correctly_without_it"> : tensor<8x1x1x100xi8>} : () -> tensor<8x1x1x100x!quant.uniform<i8<-127:127>:f32:0, {0.0018990846583619714,0.0020455967169255018,0.0019407607614994049,0.0026615431997925043,0.0027217916212975979,0.002241870854049921,0.0020900596864521503,0.0022853261325508356}>>
    %117 = "tfl.pseudo_qconst"() {qtype = tensor<8x!quant.uniform<i32:f32:0, {4.3186599214095622E-5,4.6518391172867268E-5,4.4134343625046313E-5,6.0525471781147644E-5,6.1895567341707647E-5,5.0981812819372863E-5,4.7529512812616304E-5,5.197001519263722E-5}>>, value = dense<[-537, 269, -696, 128, 433, -292, -526, 283]> : tensor<8xi32>} : () -> tensor<8x!quant.uniform<i32:f32:0, {4.3186599214095622E-5,4.6518391172867268E-5,4.4134343625046313E-5,6.0525471781147644E-5,6.1895567341707647E-5,5.0981812819372863E-5,4.7529512812616304E-5,5.197001519263722E-5}>>
    %118 = "tfl.conv_2d"(%1, %116, %117) {dilation_h_factor = 1 : i32, dilation_w_factor = 1 : i32, fused_activation_function = "NONE", padding = "SAME", stride_h = 1 : i32, stride_w = 1 : i32} : (tensor<1x1x1x100x!quant.uniform<i8:f32, 0.022740744054317474:-3>>, tensor<8x1x1x100x!quant.uniform<i8<-127:127>:f32:0, {0.0018990846583619714,0.0020455967169255018,0.0019407607614994049,0.0026615431997925043,0.0027217916212975979,0.002241870854049921,0.0020900596864521503,0.0022853261325508356}>>, tensor<8x!quant.uniform<i32:f32:0, {4.3186599214095622E-5,4.6518391172867268E-5,4.4134343625046313E-5,6.0525471781147644E-5,6.1895567341707647E-5,5.0981812819372863E-5,4.7529512812616304E-5,5.197001519263722E-5}>>) -> tensor<1x1x1x8x!quant.uniform<i8:f32, 0.042688768357038498:-62>>
    %119 = "tfl.pseudo_qconst"() {qtype = tensor<3x1x1x100x!quant.uniform<i8<-127:127>:f32:0, {0.0016933977603912354,0.0019817042630165815,0.0020478647202253342}>>, value = dense<"hex_value_removed_for_legibility_this_model_will_not_run_correctly_without_it"> : tensor<3x1x1x100xi8>} : () -> tensor<3x1x1x100x!quant.uniform<i8<-127:127>:f32:0, {0.0016933977603912354,0.0019817042630165815,0.0020478647202253342}>>
    %120 = "tfl.pseudo_qconst"() {qtype = tensor<3x!quant.uniform<i32:f32:0, {3.8509126170538366E-5,4.506542973103933E-5,4.6569966798415408E-5}>>, value = dense<[130, -422, 498]> : tensor<3xi32>} : () -> tensor<3x!quant.uniform<i32:f32:0, {3.8509126170538366E-5,4.506542973103933E-5,4.6569966798415408E-5}>>
    %121 = "tfl.conv_2d"(%1, %119, %120) {dilation_h_factor = 1 : i32, dilation_w_factor = 1 : i32, fused_activation_function = "NONE", padding = "SAME", stride_h = 1 : i32, stride_w = 1 : i32} : (tensor<1x1x1x100x!quant.uniform<i8:f32, 0.022740744054317474:-3>>, tensor<3x1x1x100x!quant.uniform<i8<-127:127>:f32:0, {0.0016933977603912354,0.0019817042630165815,0.0020478647202253342}>>, tensor<3x!quant.uniform<i32:f32:0, {3.8509126170538366E-5,4.506542973103933E-5,4.6569966798415408E-5}>>) -> tensor<1x1x1x3x!quant.uniform<i8:f32, 0.026263704523444176:3>>
    %122 = "tfl.pseudo_qconst"() {qtype = tensor<3x1x1x100x!quant.uniform<i8<-127:127>:f32:0, {0.0017623581225052476,0.0018431205535307527,0.0021017061080783606}>>, value = dense<"hex_value_removed_for_legibility_this_model_will_not_run_correctly_without_it"> : tensor<3x1x1x100xi8>} : () -> tensor<3x1x1x100x!quant.uniform<i8<-127:127>:f32:0, {0.0017623581225052476,0.0018431205535307527,0.0021017061080783606}>>
    %123 = "tfl.pseudo_qconst"() {qtype = tensor<3x!quant.uniform<i32:f32:0, {4.0077335142996162E-5,4.1913932363968343E-5,4.7794361307751387E-5}>>, value = dense<[0, 137, 79]> : tensor<3xi32>} : () -> tensor<3x!quant.uniform<i32:f32:0, {4.0077335142996162E-5,4.1913932363968343E-5,4.7794361307751387E-5}>>
    %124 = "tfl.conv_2d"(%1, %122, %123) {dilation_h_factor = 1 : i32, dilation_w_factor = 1 : i32, fused_activation_function = "NONE", padding = "SAME", stride_h = 1 : i32, stride_w = 1 : i32} : (tensor<1x1x1x100x!quant.uniform<i8:f32, 0.022740744054317474:-3>>, tensor<3x1x1x100x!quant.uniform<i8<-127:127>:f32:0, {0.0017623581225052476,0.0018431205535307527,0.0021017061080783606}>>, tensor<3x!quant.uniform<i32:f32:0, {4.0077335142996162E-5,4.1913932363968343E-5,4.7794361307751387E-5}>>) -> tensor<1x1x1x3x!quant.uniform<i8:f32, 0.020021665841341019:3>>
    %125 = "tfl.quantize"(%46) {qtype = tensor<1x1x1x32x!quant.uniform<i8:f32, 0.10556043684482574:-128>>} : (tensor<1x1x1x32xf32>) -> tensor<1x1x1x32x!quant.uniform<i8:f32, 0.10556043684482574:-128>>
    %126 = "tfl.mul"(%125, %52) {fused_activation_function = "NONE"} : (tensor<1x1x1x32x!quant.uniform<i8:f32, 0.10556043684482574:-128>>, tensor<1x1x1x32x!quant.uniform<i8:f32, 0.034883759915828705:6>>) -> tensor<1x1x1x32x!quant.uniform<i8:f32, 0.3565361499786377:3>>
    %127 = "tfl.mul"(%32, %126) {fused_activation_function = "NONE"} : (tensor<1x96x96x32x!quant.uniform<i8:f32, 0.019597379490733147:9>>, tensor<1x1x1x32x!quant.uniform<i8:f32, 0.3565361499786377:3>>) -> tensor<1x96x96x32x!quant.uniform<i8:f32, 0.28778138756752014:-9>>
    %128 = "tfl.mul"(%34, %126) {fused_activation_function = "NONE"} : (tensor<1x1x1x32x!quant.uniform<i8:f32, 0.0080322157591581345:1>>, tensor<1x1x1x32x!quant.uniform<i8:f32, 0.3565361499786377:3>>) -> tensor<1x1x1x32x!quant.uniform<i8:f32, 0.076617039740085602:38>>
    %129 = "tfl.sub"(%49, %128) {fused_activation_function = "NONE"} : (tensor<1x1x1x32x!quant.uniform<i8:f32, 0.081415466964244842:-92>>, tensor<1x1x1x32x!quant.uniform<i8:f32, 0.076617039740085602:38>>) -> tensor<1x1x1x32x!quant.uniform<i8:f32, 0.10557028651237488:-60>>
    %130 = "tfl.add"(%127, %129) {fused_activation_function = "RELU"} : (tensor<1x96x96x32x!quant.uniform<i8:f32, 0.28778138756752014:-9>>, tensor<1x1x1x32x!quant.uniform<i8:f32, 0.10557028651237488:-60>>) -> tensor<1x96x96x32x!quant.uniform<i8:f32, 0.2140883207321167:-128>>
    %131 = "tfl.dequantize"(%130) : (tensor<1x96x96x32x!quant.uniform<i8:f32, 0.2140883207321167:-128>>) -> tensor<1x96x96x32xf32>
    %132 = "tfl.pseudo_const"() {value = dense<[[0, 0], [1, 1], [1, 1], [0, 0]]> : tensor<4x2xi32>} : () -> tensor<4x2xi32>
    %133 = "tfl.mirror_pad"(%131, %132) {mode = "REFLECT"} : (tensor<1x96x96x32xf32>, tensor<4x2xi32>) -> tensor<1x98x98x32xf32>
    %134 = "quant.stats"(%133) {layerStats = dense<[0.000000e+00, 54.5925217]> : tensor<2xf32>} : (tensor<1x98x98x32xf32>) -> tensor<1x98x98x32xf32>
    %135 = "tfl.quantize"(%134) {qtype = tensor<1x98x98x32x!quant.uniform<i8:f32, 0.2140883207321167:-128>>} : (tensor<1x98x98x32xf32>) -> tensor<1x98x98x32x!quant.uniform<i8:f32, 0.2140883207321167:-128>>
    %136 = "tfl.pseudo_qconst"() {qtype = tensor<32x3x3x32x!quant.uniform<i8<-127:127>:f32:0, {… >>, value = dense<"hex_value_removed_for_legibility_this_model_will_not_run_correctly_without_it"> : tensor<32x3x3x32xi8>} : () -> tensor<32x3x3x32x!quant.uniform<i8<-127:127>:f32:0, {… >>
    %137 = "tfl.conv_2d"(%135, %136, %31) {dilation_h_factor = 1 : i32, dilation_w_factor = 1 : i32, fused_activation_function = "NONE", padding = "VALID", stride_h = 1 : i32, stride_w = 1 : i32} : (tensor<1x98x98x32x!quant.uniform<i8:f32, 0.2140883207321167:-128>>, tensor<32x3x3x32x!quant.uniform<i8<-127:127>:f32:0, {… >>, tensor<32x!quant.uniform<i32:f32:0, {… >>) -> tensor<1x96x96x32x!quant.uniform<i8:f32, 0.072319284081459045:-2>>
    %138 = "tfl.pseudo_const"() {value = dense<[1, 2]> : tensor<2xi32>} : () -> tensor<2xi32>
    %139 = "tfl.mean"(%137, %138) {keep_dims = true} : (tensor<1x96x96x32x!quant.uniform<i8:f32, 0.072319284081459045:-2>>, tensor<2xi32>) -> tensor<1x1x1x32x!quant.uniform<i8:f32, 0.027937503531575203:24>>
    %140 = "tfl.dequantize"(%137) : (tensor<1x96x96x32x!quant.uniform<i8:f32, 0.072319284081459045:-2>>) -> tensor<1x96x96x32xf32>
    %141 = "tfl.dequantize"(%139) : (tensor<1x1x1x32x!quant.uniform<i8:f32, 0.027937503531575203:24>>) -> tensor<1x1x1x32xf32>
    %142 = "tfl.squared_difference"(%140, %141) : (tensor<1x96x96x32xf32>, tensor<1x1x1x32xf32>) -> tensor<1x96x96x32xf32>
    %143 = "quant.stats"(%142) {layerStats = dense<[0.000000e+00, 75.626419]> : tensor<2xf32>} : (tensor<1x96x96x32xf32>) -> tensor<1x96x96x32xf32>
    %144 = "tfl.quantize"(%143) {qtype = tensor<1x96x96x32x!quant.uniform<i8:f32, 0.29657420516014099:-128>>} : (tensor<1x96x96x32xf32>) -> tensor<1x96x96x32x!quant.uniform<i8:f32, 0.29657420516014099:-128>>
    %145 = "tfl.pseudo_const"() {value = dense<[1, 2]> : tensor<2xi32>} : () -> tensor<2xi32>
    %146 = "tfl.mean"(%144, %145) {keep_dims = true} : (tensor<1x96x96x32x!quant.uniform<i8:f32, 0.29657420516014099:-128>>, tensor<2xi32>) -> tensor<1x1x1x32x!quant.uniform<i8:f32, 0.0048103388398885727:-128>>
    %147 = "tfl.pseudo_qconst"() {qtype = tensor<!quant.uniform<i8<-127:127>:f32, 7.8740157505308161E-8>>, value = dense<127> : tensor<i8>} : () -> tensor<!quant.uniform<i8<-127:127>:f32, 7.8740157505308161E-8>>
    %148 = "tfl.add"(%146, %147) {fused_activation_function = "NONE"} : (tensor<1x1x1x32x!quant.uniform<i8:f32, 0.0048103388398885727:-128>>, tensor<!quant.uniform<i8<-127:127>:f32, 7.8740157505308161E-8>>) -> tensor<1x1x1x32x!quant.uniform<i8:f32, 0.0048103779554367065:-128>>
    %149 = "tfl.dequantize"(%148) : (tensor<1x1x1x32x!quant.uniform<i8:f32, 0.0048103779554367065:-128>>) -> tensor<1x1x1x32xf32>
    %150 = "tfl.rsqrt"(%149) : (tensor<1x1x1x32xf32>) -> tensor<1x1x1x32xf32>
    %151 = "quant.stats"(%150) {layerStats = dense<[0.902901351, 5.54847145]> : tensor<2xf32>} : (tensor<1x1x1x32xf32>) -> tensor<1x1x1x32xf32>
    %152 = "tfl.quantize"(%151) {qtype = tensor<1x1x1x32x!quant.uniform<i8:f32, 0.021758710965514183:-128>>} : (tensor<1x1x1x32xf32>) -> tensor<1x1x1x32x!quant.uniform<i8:f32, 0.021758710965514183:-128>>
    %153 = "tfl.mul"(%152, %58) {fused_activation_function = "NONE"} : (tensor<1x1x1x32x!quant.uniform<i8:f32, 0.021758710965514183:-128>>, tensor<1x1x1x32x!quant.uniform<i8:f32, 0.028651582077145576:13>>) -> tensor<1x1x1x32x!quant.uniform<i8:f32, 0.062183678150177002:8>>
    %154 = "tfl.mul"(%137, %153) {fused_activation_function = "NONE"} : (tensor<1x96x96x32x!quant.uniform<i8:f32, 0.072319284081459045:-2>>, tensor<1x1x1x32x!quant.uniform<i8:f32, 0.062183678150177002:8>>) -> tensor<1x96x96x32x!quant.uniform<i8:f32, 0.25931081175804138:5>>
    %155 = "tfl.mul"(%139, %153) {fused_activation_function = "NONE"} : (tensor<1x1x1x32x!quant.uniform<i8:f32, 0.027937503531575203:24>>, tensor<1x1x1x32x!quant.uniform<i8:f32, 0.062183678150177002:8>>) -> tensor<1x1x1x32x!quant.uniform<i8:f32, 0.11216065287590027:-24>>
    %156 = "tfl.sub"(%55, %155) {fused_activation_function = "NONE"} : (tensor<1x1x1x32x!quant.uniform<i8:f32, 0.034540269523859024:30>>, tensor<1x1x1x32x!quant.uniform<i8:f32, 0.11216065287590027:-24>>) -> tensor<1x1x1x32x!quant.uniform<i8:f32, 0.10656425356864929:32>>
    %157 = "tfl.add"(%154, %156) {fused_activation_function = "NONE"} : (tensor<1x96x96x32x!quant.uniform<i8:f32, 0.25931081175804138:5>>, tensor<1x1x1x32x!quant.uniform<i8:f32, 0.10656425356864929:32>>) -> tensor<1x96x96x32x!quant.uniform<i8:f32, 0.24499788880348206:5>>
    %158 = "tfl.add"(%24, %157) {fused_activation_function = "NONE"} : (tensor<1x96x96x32x!quant.uniform<i8:f32, 0.041506674140691757:-128>>, tensor<1x96x96x32x!quant.uniform<i8:f32, 0.24499788880348206:5>>) -> tensor<1x96x96x32x!quant.uniform<i8:f32, 0.24499788880348206:5>>
    %159 = "tfl.dequantize"(%158) : (tensor<1x96x96x32x!quant.uniform<i8:f32, 0.24499788880348206:5>>) -> tensor<1x96x96x32xf32>
    %160 = "tfl.pseudo_const"() {value = dense<[[0, 0], [1, 1], [1, 1], [0, 0]]> : tensor<4x2xi32>} : () -> tensor<4x2xi32>
    %161 = "tfl.mirror_pad"(%159, %160) {mode = "REFLECT"} : (tensor<1x96x96x32xf32>, tensor<4x2xi32>) -> tensor<1x98x98x32xf32>
    %162 = "quant.stats"(%161) {layerStats = dense<[-32.5148659, 29.9595947]> : tensor<2xf32>} : (tensor<1x98x98x32xf32>) -> tensor<1x98x98x32xf32>
    %163 = "tfl.quantize"(%162) {qtype = tensor<1x98x98x32x!quant.uniform<i8:f32, 0.24499788880348206:5>>} : (tensor<1x98x98x32xf32>) -> tensor<1x98x98x32x!quant.uniform<i8:f32, 0.24499788880348206:5>>
    %164 = "tfl.pseudo_qconst"() {qtype = tensor<32x3x3x32x!quant.uniform<i8<-127:127>:f32:0, {… >>, value = dense<"hex_value_removed_for_legibility_this_model_will_not_run_correctly_without_it"> : tensor<32x3x3x32xi8>} : () -> tensor<32x3x3x32x!quant.uniform<i8<-127:127>:f32:0, {… >>
    %165 = "tfl.conv_2d"(%163, %164, %31) {dilation_h_factor = 1 : i32, dilation_w_factor = 1 : i32, fused_activation_function = "NONE", padding = "VALID", stride_h = 1 : i32, stride_w = 1 : i32} : (tensor<1x98x98x32x!quant.uniform<i8:f32, 0.24499788880348206:5>>, tensor<32x3x3x32x!quant.uniform<i8<-127:127>:f32:0, {… >>, tensor<32x!quant.uniform<i32:f32:0, {… >>) -> tensor<1x96x96x32x!quant.uniform<i8:f32, 0.058954913169145584:1>>
    %166 = "tfl.pseudo_const"() {value = dense<[1, 2]> : tensor<2xi32>} : () -> tensor<2xi32>
    %167 = "tfl.mean"(%165, %166) {keep_dims = true} : (tensor<1x96x96x32x!quant.uniform<i8:f32, 0.058954913169145584:1>>, tensor<2xi32>) -> tensor<1x1x1x32x!quant.uniform<i8:f32, 0.016584247350692749:25>>
    %168 = "tfl.dequantize"(%165) : (tensor<1x96x96x32x!quant.uniform<i8:f32, 0.058954913169145584:1>>) -> tensor<1x96x96x32xf32>
    %169 = "tfl.dequantize"(%167) : (tensor<1x1x1x32x!quant.uniform<i8:f32, 0.016584247350692749:25>>) -> tensor<1x1x1x32xf32>
    %170 = "tfl.squared_difference"(%168, %169) : (tensor<1x96x96x32xf32>, tensor<1x1x1x32xf32>) -> tensor<1x96x96x32xf32>
    %171 = "quant.stats"(%170) {layerStats = dense<[0.000000e+00, 59.9614258]> : tensor<2xf32>} : (tensor<1x96x96x32xf32>) -> tensor<1x96x96x32xf32>
    %172 = "tfl.quantize"(%171) {qtype = tensor<1x96x96x32x!quant.uniform<i8:f32, 0.23514284193515778:-128>>} : (tensor<1x96x96x32xf32>) -> tensor<1x96x96x32x!quant.uniform<i8:f32, 0.23514284193515778:-128>>
    %173 = "tfl.pseudo_const"() {value = dense<[1, 2]> : tensor<2xi32>} : () -> tensor<2xi32>
    %174 = "tfl.mean"(%172, %173) {keep_dims = true} : (tensor<1x96x96x32x!quant.uniform<i8:f32, 0.23514284193515778:-128>>, tensor<2xi32>) -> tensor<1x1x1x32x!quant.uniform<i8:f32, 0.0060797776095569134:-128>>
    %175 = "tfl.pseudo_qconst"() {qtype = tensor<!quant.uniform<i8<-127:127>:f32, 7.8740157505308161E-8>>, value = dense<127> : tensor<i8>} : () -> tensor<!quant.uniform<i8<-127:127>:f32, 7.8740157505308161E-8>>
    %176 = "tfl.add"(%174, %175) {fused_activation_function = "NONE"} : (tensor<1x1x1x32x!quant.uniform<i8:f32, 0.0060797776095569134:-128>>, tensor<!quant.uniform<i8<-127:127>:f32, 7.8740157505308161E-8>>) -> tensor<1x1x1x32x!quant.uniform<i8:f32, 0.0060798167251050472:-128>>
    %177 = "tfl.dequantize"(%176) : (tensor<1x1x1x32x!quant.uniform<i8:f32, 0.0060798167251050472:-128>>) -> tensor<1x1x1x32xf32>
    %178 = "tfl.rsqrt"(%177) : (tensor<1x1x1x32xf32>) -> tensor<1x1x1x32xf32>
    %179 = "quant.stats"(%178) {layerStats = dense<[0.803127825, 6.9809761]> : tensor<2xf32>} : (tensor<1x1x1x32xf32>) -> tensor<1x1x1x32xf32>
    %180 = "tfl.quantize"(%179) {qtype = tensor<1x1x1x32x!quant.uniform<i8:f32, 0.027376376092433929:-128>>} : (tensor<1x1x1x32xf32>) -> tensor<1x1x1x32x!quant.uniform<i8:f32, 0.027376376092433929:-128>>
    %181 = "tfl.mul"(%180, %64) {fused_activation_function = "NONE"} : (tensor<1x1x1x32x!quant.uniform<i8:f32, 0.027376376092433929:-128>>, tensor<1x1x1x32x!quant.uniform<i8:f32, 0.035058002918958664:-6>>) -> tensor<1x1x1x32x!quant.uniform<i8:f32, 0.091292373836040496:-32>>
    %182 = "tfl.mul"(%165, %181) {fused_activation_function = "NONE"} : (tensor<1x96x96x32x!quant.uniform<i8:f32, 0.058954913169145584:1>>, tensor<1x1x1x32x!quant.uniform<i8:f32, 0.091292373836040496:-32>>) -> tensor<1x96x96x32x!quant.uniform<i8:f32, 0.33613339066505432>>
    %183 = "tfl.mul"(%167, %181) {fused_activation_function = "NONE"} : (tensor<1x1x1x32x!quant.uniform<i8:f32, 0.016584247350692749:25>>, tensor<1x1x1x32x!quant.uniform<i8:f32, 0.091292373836040496:-32>>) -> tensor<1x1x1x32x!quant.uniform<i8:f32, 0.064676485955715179:2>>
    %184 = "tfl.sub"(%61, %183) {fused_activation_function = "NONE"} : (tensor<1x1x1x32x!quant.uniform<i8:f32, 0.056521434336900711:-77>>, tensor<1x1x1x32x!quant.uniform<i8:f32, 0.064676485955715179:2>>) -> tensor<1x1x1x32x!quant.uniform<i8:f32, 0.10092064738273621:-45>>
    %185 = "tfl.add"(%182, %184) {fused_activation_function = "RELU"} : (tensor<1x96x96x32x!quant.uniform<i8:f32, 0.33613339066505432>>, tensor<1x1x1x32x!quant.uniform<i8:f32, 0.10092064738273621:-45>>) -> tensor<1x96x96x32x!quant.uniform<i8:f32, 0.17246545851230621:-128>>
    %186 = "tfl.dequantize"(%185) : (tensor<1x96x96x32x!quant.uniform<i8:f32, 0.17246545851230621:-128>>) -> tensor<1x96x96x32xf32>
    %187 = "tfl.pseudo_const"() {value = dense<[[0, 0], [1, 1], [1, 1], [0, 0]]> : tensor<4x2xi32>} : () -> tensor<4x2xi32>
    %188 = "tfl.mirror_pad"(%186, %187) {mode = "REFLECT"} : (tensor<1x96x96x32xf32>, tensor<4x2xi32>) -> tensor<1x98x98x32xf32>
    %189 = "quant.stats"(%188) {layerStats = dense<[0.000000e+00, 43.9786911]> : tensor<2xf32>} : (tensor<1x98x98x32xf32>) -> tensor<1x98x98x32xf32>
    %190 = "tfl.quantize"(%189) {qtype = tensor<1x98x98x32x!quant.uniform<i8:f32, 0.17246545851230621:-128>>} : (tensor<1x98x98x32xf32>) -> tensor<1x98x98x32x!quant.uniform<i8:f32, 0.17246545851230621:-128>>
    %191 = "tfl.pseudo_qconst"() {qtype = tensor<32x3x3x32x!quant.uniform<i8<-127:127>:f32:0, {… >>, value = dense<"hex_value_removed_for_legibility_this_model_will_not_run_correctly_without_it"> : tensor<32x3x3x32xi8>} : () -> tensor<32x3x3x32x!quant.uniform<i8<-127:127>:f32:0, {… >>
    %192 = "tfl.conv_2d"(%190, %191, %31) {dilation_h_factor = 1 : i32, dilation_w_factor = 1 : i32, fused_activation_function = "NONE", padding = "VALID", stride_h = 1 : i32, stride_w = 1 : i32} : (tensor<1x98x98x32x!quant.uniform<i8:f32, 0.17246545851230621:-128>>, tensor<32x3x3x32x!quant.uniform<i8<-127:127>:f32:0, {… >>, tensor<32x!quant.uniform<i32:f32:0, {… >>) -> tensor<1x96x96x32x!quant.uniform<i8:f32, 0.087334170937538147:3>>
    %193 = "tfl.pseudo_const"() {value = dense<[1, 2]> : tensor<2xi32>} : () -> tensor<2xi32>
    %194 = "tfl.mean"(%192, %193) {keep_dims = true} : (tensor<1x96x96x32x!quant.uniform<i8:f32, 0.087334170937538147:3>>, tensor<2xi32>) -> tensor<1x1x1x32x!quant.uniform<i8:f32, 0.025827689096331596:29>>
    %195 = "tfl.dequantize"(%192) : (tensor<1x96x96x32x!quant.uniform<i8:f32, 0.087334170937538147:3>>) -> tensor<1x96x96x32xf32>
    %196 = "tfl.dequantize"(%194) : (tensor<1x1x1x32x!quant.uniform<i8:f32, 0.025827689096331596:29>>) -> tensor<1x1x1x32xf32>
    %197 = "tfl.squared_difference"(%195, %196) : (tensor<1x96x96x32xf32>, tensor<1x1x1x32xf32>) -> tensor<1x96x96x32xf32>
    %198 = "quant.stats"(%197) {layerStats = dense<[0.000000e+00, 122.769234]> : tensor<2xf32>} : (tensor<1x96x96x32xf32>) -> tensor<1x96x96x32xf32>
    %199 = "tfl.quantize"(%198) {qtype = tensor<1x96x96x32x!quant.uniform<i8:f32, 0.4814479649066925:-128>>} : (tensor<1x96x96x32xf32>) -> tensor<1x96x96x32x!quant.uniform<i8:f32, 0.4814479649066925:-128>>
    %200 = "tfl.pseudo_const"() {value = dense<[1, 2]> : tensor<2xi32>} : () -> tensor<2xi32>
    %201 = "tfl.mean"(%199, %200) {keep_dims = true} : (tensor<1x96x96x32x!quant.uniform<i8:f32, 0.4814479649066925:-128>>, tensor<2xi32>) -> tensor<1x1x1x32x!quant.uniform<i8:f32, 0.0048195933923125267:-128>>
    %202 = "tfl.pseudo_qconst"() {qtype = tensor<!quant.uniform<i8<-127:127>:f32, 7.8740157505308161E-8>>, value = dense<127> : tensor<i8>} : () -> tensor<!quant.uniform<i8<-127:127>:f32, 7.8740157505308161E-8>>
    %203 = "tfl.add"(%201, %202) {fused_activation_function = "NONE"} : (tensor<1x1x1x32x!quant.uniform<i8:f32, 0.0048195933923125267:-128>>, tensor<!quant.uniform<i8<-127:127>:f32, 7.8740157505308161E-8>>) -> tensor<1x1x1x32x!quant.uniform<i8:f32, 0.0048196325078606606:-128>>
    %204 = "tfl.dequantize"(%203) : (tensor<1x1x1x32x!quant.uniform<i8:f32, 0.0048196325078606606:-128>>) -> tensor<1x1x1x32xf32>
    %205 = "tfl.rsqrt"(%204) : (tensor<1x1x1x32xf32>) -> tensor<1x1x1x32xf32>
    %206 = "quant.stats"(%205) {layerStats = dense<[0.902034103, 5.12754869]> : tensor<2xf32>} : (tensor<1x1x1x32xf32>) -> tensor<1x1x1x32xf32>
    %207 = "tfl.quantize"(%206) {qtype = tensor<1x1x1x32x!quant.uniform<i8:f32, 0.020108034834265709:-128>>} : (tensor<1x1x1x32xf32>) -> tensor<1x1x1x32x!quant.uniform<i8:f32, 0.020108034834265709:-128>>
    %208 = "tfl.mul"(%207, %70) {fused_activation_function = "NONE"} : (tensor<1x1x1x32x!quant.uniform<i8:f32, 0.020108034834265709:-128>>, tensor<1x1x1x32x!quant.uniform<i8:f32, 0.028219219297170639:17>>) -> tensor<1x1x1x32x!quant.uniform<i8:f32, 0.059130731970071793:5>>
    %209 = "tfl.mul"(%192, %208) {fused_activation_function = "NONE"} : (tensor<1x96x96x32x!quant.uniform<i8:f32, 0.087334170937538147:3>>, tensor<1x1x1x32x!quant.uniform<i8:f32, 0.059130731970071793:5>>) -> tensor<1x96x96x32x!quant.uniform<i8:f32, 0.30028638243675232:-3>>
    %210 = "tfl.mul"(%194, %208) {fused_activation_function = "NONE"} : (tensor<1x1x1x32x!quant.uniform<i8:f32, 0.025827689096331596:29>>, tensor<1x1x1x32x!quant.uniform<i8:f32, 0.059130731970071793:5>>) -> tensor<1x1x1x32x!quant.uniform<i8:f32, 0.10651322454214096:-5>>
    %211 = "tfl.sub"(%67, %210) {fused_activation_function = "NONE"} : (tensor<1x1x1x32x!quant.uniform<i8:f32, 0.039845693856477737:27>>, tensor<1x1x1x32x!quant.uniform<i8:f32, 0.10651322454214096:-5>>) -> tensor<1x1x1x32x!quant.uniform<i8:f32, 0.12302061915397644:-8>>
    %212 = "tfl.add"(%209, %211) {fused_activation_function = "NONE"} : (tensor<1x96x96x32x!quant.uniform<i8:f32, 0.30028638243675232:-3>>, tensor<1x1x1x32x!quant.uniform<i8:f32, 0.12302061915397644:-8>>) -> tensor<1x96x96x32x!quant.uniform<i8:f32, 0.2591668963432312:-17>>
    %213 = "tfl.add"(%158, %212) {fused_activation_function = "NONE"} : (tensor<1x96x96x32x!quant.uniform<i8:f32, 0.24499788880348206:5>>, tensor<1x96x96x32x!quant.uniform<i8:f32, 0.2591668963432312:-17>>) -> tensor<1x96x96x32x!quant.uniform<i8:f32, 0.30046272277832031:-8>>
    %214 = "tfl.dequantize"(%213) : (tensor<1x96x96x32x!quant.uniform<i8:f32, 0.30046272277832031:-8>>) -> tensor<1x96x96x32xf32>
    %215 = "tfl.pseudo_const"() {value = dense<[[0, 0], [1, 1], [1, 1], [0, 0]]> : tensor<4x2xi32>} : () -> tensor<4x2xi32>
    %216 = "tfl.mirror_pad"(%214, %215) {mode = "REFLECT"} : (tensor<1x96x96x32xf32>, tensor<4x2xi32>) -> tensor<1x98x98x32xf32>
    %217 = "quant.stats"(%216) {layerStats = dense<[-36.1716614, 40.446331]> : tensor<2xf32>} : (tensor<1x98x98x32xf32>) -> tensor<1x98x98x32xf32>
    %218 = "tfl.quantize"(%217) {qtype = tensor<1x98x98x32x!quant.uniform<i8:f32, 0.30046272277832031:-8>>} : (tensor<1x98x98x32xf32>) -> tensor<1x98x98x32x!quant.uniform<i8:f32, 0.30046272277832031:-8>>
    %219 = "tfl.pseudo_qconst"() {qtype = tensor<32x3x3x32x!quant.uniform<i8<-127:127>:f32:0, {… >>, value = dense<"hex_value_removed_for_legibility_this_model_will_not_run_correctly_without_it"> : tensor<32x3x3x32xi8>} : () -> tensor<32x3x3x32x!quant.uniform<i8<-127:127>:f32:0, {… >>
    %220 = "tfl.conv_2d"(%218, %219, %31) {dilation_h_factor = 1 : i32, dilation_w_factor = 1 : i32, fused_activation_function = "NONE", padding = "VALID", stride_h = 1 : i32, stride_w = 1 : i32} : (tensor<1x98x98x32x!quant.uniform<i8:f32, 0.30046272277832031:-8>>, tensor<32x3x3x32x!quant.uniform<i8<-127:127>:f32:0, {… >>, tensor<32x!quant.uniform<i32:f32:0, {… >>) -> tensor<1x96x96x32x!quant.uniform<i8:f32, 0.077063314616680145:-7>>
    %221 = "tfl.pseudo_const"() {value = dense<[1, 2]> : tensor<2xi32>} : () -> tensor<2xi32>
    %222 = "tfl.mean"(%220, %221) {keep_dims = true} : (tensor<1x96x96x32x!quant.uniform<i8:f32, 0.077063314616680145:-7>>, tensor<2xi32>) -> tensor<1x1x1x32x!quant.uniform<i8:f32, 0.013315054588019848:4>>
    %223 = "tfl.dequantize"(%220) : (tensor<1x96x96x32x!quant.uniform<i8:f32, 0.077063314616680145:-7>>) -> tensor<1x96x96x32xf32>
    %224 = "tfl.dequantize"(%222) : (tensor<1x1x1x32x!quant.uniform<i8:f32, 0.013315054588019848:4>>) -> tensor<1x1x1x32xf32>
    %225 = "tfl.squared_difference"(%223, %224) : (tensor<1x96x96x32xf32>, tensor<1x1x1x32xf32>) -> tensor<1x96x96x32xf32>
    %226 = "quant.stats"(%225) {layerStats = dense<[0.000000e+00, 105.003326]> : tensor<2xf32>} : (tensor<1x96x96x32xf32>) -> tensor<1x96x96x32xf32>
    %227 = "tfl.quantize"(%226) {qtype = tensor<1x96x96x32x!quant.uniform<i8:f32, 0.41177776455879211:-128>>} : (tensor<1x96x96x32xf32>) -> tensor<1x96x96x32x!quant.uniform<i8:f32, 0.41177776455879211:-128>>
    %228 = "tfl.pseudo_const"() {value = dense<[1, 2]> : tensor<2xi32>} : () -> tensor<2xi32>
    %229 = "tfl.mean"(%227, %228) {keep_dims = true} : (tensor<1x96x96x32x!quant.uniform<i8:f32, 0.41177776455879211:-128>>, tensor<2xi32>) -> tensor<1x1x1x32x!quant.uniform<i8:f32, 0.0085571473464369774:-128>>
    %230 = "tfl.pseudo_qconst"() {qtype = tensor<!quant.uniform<i8<-127:127>:f32, 7.8740157505308161E-8>>, value = dense<127> : tensor<i8>} : () -> tensor<!quant.uniform<i8<-127:127>:f32, 7.8740157505308161E-8>>
    %231 = "tfl.add"(%229, %230) {fused_activation_function = "NONE"} : (tensor<1x1x1x32x!quant.uniform<i8:f32, 0.0085571473464369774:-128>>, tensor<!quant.uniform<i8<-127:127>:f32, 7.8740157505308161E-8>>) -> tensor<1x1x1x32x!quant.uniform<i8:f32, 0.0085571864619851112:-128>>
    %232 = "tfl.dequantize"(%231) : (tensor<1x1x1x32x!quant.uniform<i8:f32, 0.0085571864619851112:-128>>) -> tensor<1x1x1x32xf32>
    %233 = "tfl.rsqrt"(%232) : (tensor<1x1x1x32xf32>) -> tensor<1x1x1x32xf32>
    %234 = "quant.stats"(%233) {layerStats = dense<[0.676962196, 3.47342277]> : tensor<2xf32>} : (tensor<1x1x1x32xf32>) -> tensor<1x1x1x32xf32>
    %235 = "tfl.quantize"(%234) {qtype = tensor<1x1x1x32x!quant.uniform<i8:f32, 0.01362126599997282:-128>>} : (tensor<1x1x1x32xf32>) -> tensor<1x1x1x32x!quant.uniform<i8:f32, 0.01362126599997282:-128>>
    %236 = "tfl.mul"(%235, %76) {fused_activation_function = "NONE"} : (tensor<1x1x1x32x!quant.uniform<i8:f32, 0.01362126599997282:-128>>, tensor<1x1x1x32x!quant.uniform<i8:f32, 0.036093778908252716:-7>>) -> tensor<1x1x1x32x!quant.uniform<i8:f32, 0.056635051965713501:16>>
    %237 = "tfl.mul"(%220, %236) {fused_activation_function = "NONE"} : (tensor<1x96x96x32x!quant.uniform<i8:f32, 0.077063314616680145:-7>>, tensor<1x1x1x32x!quant.uniform<i8:f32, 0.056635051965713501:16>>) -> tensor<1x96x96x32x!quant.uniform<i8:f32, 0.21849609911441803:21>>
    %238 = "tfl.mul"(%222, %236) {fused_activation_function = "NONE"} : (tensor<1x1x1x32x!quant.uniform<i8:f32, 0.013315054588019848:4>>, tensor<1x1x1x32x!quant.uniform<i8:f32, 0.056635051965713501:16>>) -> tensor<1x1x1x32x!quant.uniform<i8:f32, 0.047569401562213898:26>>
    %239 = "tfl.sub"(%73, %238) {fused_activation_function = "NONE"} : (tensor<1x1x1x32x!quant.uniform<i8:f32, 0.059133868664503098:-81>>, tensor<1x1x1x32x!quant.uniform<i8:f32, 0.047569401562213898:26>>) -> tensor<1x1x1x32x!quant.uniform<i8:f32, 0.071987368166446686:-53>>
    %240 = "tfl.add"(%237, %239) {fused_activation_function = "RELU"} : (tensor<1x96x96x32x!quant.uniform<i8:f32, 0.21849609911441803:21>>, tensor<1x1x1x32x!quant.uniform<i8:f32, 0.071987368166446686:-53>>) -> tensor<1x96x96x32x!quant.uniform<i8:f32, 0.099838986992835998:-128>>
    %241 = "tfl.dequantize"(%240) : (tensor<1x96x96x32x!quant.uniform<i8:f32, 0.099838986992835998:-128>>) -> tensor<1x96x96x32xf32>
    %242 = "tfl.pseudo_const"() {value = dense<[[0, 0], [1, 1], [1, 1], [0, 0]]> : tensor<4x2xi32>} : () -> tensor<4x2xi32>
    %243 = "tfl.mirror_pad"(%241, %242) {mode = "REFLECT"} : (tensor<1x96x96x32xf32>, tensor<4x2xi32>) -> tensor<1x98x98x32xf32>
    %244 = "quant.stats"(%243) {layerStats = dense<[0.000000e+00, 25.4589424]> : tensor<2xf32>} : (tensor<1x98x98x32xf32>) -> tensor<1x98x98x32xf32>
    %245 = "tfl.quantize"(%244) {qtype = tensor<1x98x98x32x!quant.uniform<i8:f32, 0.099838986992835998:-128>>} : (tensor<1x98x98x32xf32>) -> tensor<1x98x98x32x!quant.uniform<i8:f32, 0.099838986992835998:-128>>
    %246 = "tfl.pseudo_qconst"() {qtype = tensor<32x3x3x32x!quant.uniform<i8<-127:127>:f32:0, {… >>, value = dense<"hex_value_removed_for_legibility_this_model_will_not_run_correctly_without_it"> : tensor<32x3x3x32xi8>} : () -> tensor<32x3x3x32x!quant.uniform<i8<-127:127>:f32:0, {… >>
    %247 = "tfl.conv_2d"(%245, %246, %31) {dilation_h_factor = 1 : i32, dilation_w_factor = 1 : i32, fused_activation_function = "NONE", padding = "VALID", stride_h = 1 : i32, stride_w = 1 : i32} : (tensor<1x98x98x32x!quant.uniform<i8:f32, 0.099838986992835998:-128>>, tensor<32x3x3x32x!quant.uniform<i8<-127:127>:f32:0, {… >>, tensor<32x!quant.uniform<i32:f32:0, {… >>) -> tensor<1x96x96x32x!quant.uniform<i8:f32, 0.065652675926685333:-24>>
    %248 = "tfl.pseudo_const"() {value = dense<[1, 2]> : tensor<2xi32>} : () -> tensor<2xi32>
    %249 = "tfl.mean"(%247, %248) {keep_dims = true} : (tensor<1x96x96x32x!quant.uniform<i8:f32, 0.065652675926685333:-24>>, tensor<2xi32>) -> tensor<1x1x1x32x!quant.uniform<i8:f32, 0.021593827754259109:-29>>
    %250 = "tfl.dequantize"(%247) : (tensor<1x96x96x32x!quant.uniform<i8:f32, 0.065652675926685333:-24>>) -> tensor<1x96x96x32xf32>
    %251 = "tfl.dequantize"(%249) : (tensor<1x1x1x32x!quant.uniform<i8:f32, 0.021593827754259109:-29>>) -> tensor<1x1x1x32xf32>
    %252 = "tfl.squared_difference"(%250, %251) : (tensor<1x96x96x32xf32>, tensor<1x1x1x32xf32>) -> tensor<1x96x96x32xf32>
    %253 = "quant.stats"(%252) {layerStats = dense<[0.000000e+00, 77.4701385]> : tensor<2xf32>} : (tensor<1x96x96x32xf32>) -> tensor<1x96x96x32xf32>
    %254 = "tfl.quantize"(%253) {qtype = tensor<1x96x96x32x!quant.uniform<i8:f32, 0.30380445718765259:-128>>} : (tensor<1x96x96x32xf32>) -> tensor<1x96x96x32x!quant.uniform<i8:f32, 0.30380445718765259:-128>>
    %255 = "tfl.pseudo_const"() {value = dense<[1, 2]> : tensor<2xi32>} : () -> tensor<2xi32>
    %256 = "tfl.mean"(%254, %255) {keep_dims = true} : (tensor<1x96x96x32x!quant.uniform<i8:f32, 0.30380445718765259:-128>>, tensor<2xi32>) -> tensor<1x1x1x32x!quant.uniform<i8:f32, 0.0033054344821721315:-128>>
    %257 = "tfl.pseudo_qconst"() {qtype = tensor<!quant.uniform<i8<-127:127>:f32, 7.8740157505308161E-8>>, value = dense<127> : tensor<i8>} : () -> tensor<!quant.uniform<i8<-127:127>:f32, 7.8740157505308161E-8>>
    %258 = "tfl.add"(%256, %257) {fused_activation_function = "NONE"} : (tensor<1x1x1x32x!quant.uniform<i8:f32, 0.0033054344821721315:-128>>, tensor<!quant.uniform<i8<-127:127>:f32, 7.8740157505308161E-8>>) -> tensor<1x1x1x32x!quant.uniform<i8:f32, 0.003305473830550909:-128>>
    %259 = "tfl.dequantize"(%258) : (tensor<1x1x1x32x!quant.uniform<i8:f32, 0.003305473830550909:-128>>) -> tensor<1x1x1x32xf32>
    %260 = "tfl.rsqrt"(%259) : (tensor<1x1x1x32xf32>) -> tensor<1x1x1x32xf32>
    %261 = "quant.stats"(%260) {layerStats = dense<[1.08921361, 6.298920e+00]> : tensor<2xf32>} : (tensor<1x1x1x32xf32>) -> tensor<1x1x1x32xf32>
    %262 = "tfl.quantize"(%261) {qtype = tensor<1x1x1x32x!quant.uniform<i8:f32, 0.024701647460460663:-128>>} : (tensor<1x1x1x32xf32>) -> tensor<1x1x1x32x!quant.uniform<i8:f32, 0.024701647460460663:-128>>
    %263 = "tfl.mul"(%262, %82) {fused_activation_function = "NONE"} : (tensor<1x1x1x32x!quant.uniform<i8:f32, 0.024701647460460663:-128>>, tensor<1x1x1x32x!quant.uniform<i8:f32, 0.036237820982933044:20>>) -> tensor<1x1x1x32x!quant.uniform<i8:f32, 0.10422427952289581:25>>
    %264 = "tfl.mul"(%247, %263) {fused_activation_function = "NONE"} : (tensor<1x96x96x32x!quant.uniform<i8:f32, 0.065652675926685333:-24>>, tensor<1x1x1x32x!quant.uniform<i8:f32, 0.10422427952289581:25>>) -> tensor<1x96x96x32x!quant.uniform<i8:f32, 0.30626013875007629:11>>
    %265 = "tfl.mul"(%249, %263) {fused_activation_function = "NONE"} : (tensor<1x1x1x32x!quant.uniform<i8:f32, 0.021593827754259109:-29>>, tensor<1x1x1x32x!quant.uniform<i8:f32, 0.10422427952289581:25>>) -> tensor<1x1x1x32x!quant.uniform<i8:f32, 0.14139515161514282:-31>>
    %266 = "tfl.sub"(%79, %265) {fused_activation_function = "NONE"} : (tensor<1x1x1x32x!quant.uniform<i8:f32, 0.032314032316207886:12>>, tensor<1x1x1x32x!quant.uniform<i8:f32, 0.14139515161514282:-31>>) -> tensor<1x1x1x32x!quant.uniform<i8:f32, 0.13786034286022186:30>>
    %267 = "tfl.add"(%264, %266) {fused_activation_function = "NONE"} : (tensor<1x96x96x32x!quant.uniform<i8:f32, 0.30626013875007629:11>>, tensor<1x1x1x32x!quant.uniform<i8:f32, 0.13786034286022186:30>>) -> tensor<1x96x96x32x!quant.uniform<i8:f32, 0.28758472204208374:9>>
    %268 = "tfl.add"(%213, %267) {fused_activation_function = "NONE"} : (tensor<1x96x96x32x!quant.uniform<i8:f32, 0.30046272277832031:-8>>, tensor<1x96x96x32x!quant.uniform<i8:f32, 0.28758472204208374:9>>) -> tensor<1x96x96x32x!quant.uniform<i8:f32, 0.33831441402435303:-6>>
    %269 = "tfl.dequantize"(%268) : (tensor<1x96x96x32x!quant.uniform<i8:f32, 0.33831441402435303:-6>>) -> tensor<1x96x96x32xf32>
    %270 = "tfl.pseudo_const"() {value = dense<[[0, 0], [1, 1], [1, 1], [0, 0]]> : tensor<4x2xi32>} : () -> tensor<4x2xi32>
    %271 = "tfl.mirror_pad"(%269, %270) {mode = "REFLECT"} : (tensor<1x96x96x32xf32>, tensor<4x2xi32>) -> tensor<1x98x98x32xf32>
    %272 = "quant.stats"(%271) {layerStats = dense<[-41.3244286, 44.9457436]> : tensor<2xf32>} : (tensor<1x98x98x32xf32>) -> tensor<1x98x98x32xf32>
    %273 = "tfl.quantize"(%272) {qtype = tensor<1x98x98x32x!quant.uniform<i8:f32, 0.33831441402435303:-6>>} : (tensor<1x98x98x32xf32>) -> tensor<1x98x98x32x!quant.uniform<i8:f32, 0.33831441402435303:-6>>
    %274 = "tfl.pseudo_qconst"() {qtype = tensor<32x3x3x32x!quant.uniform<i8<-127:127>:f32:0, {… >>, value = dense<"hex_value_removed_for_legibility_this_model_will_not_run_correctly_without_it"> : tensor<32x3x3x32xi8>} : () -> tensor<32x3x3x32x!quant.uniform<i8<-127:127>:f32:0, {… >>
    %275 = "tfl.conv_2d"(%273, %274, %31) {dilation_h_factor = 1 : i32, dilation_w_factor = 1 : i32, fused_activation_function = "NONE", padding = "VALID", stride_h = 1 : i32, stride_w = 1 : i32} : (tensor<1x98x98x32x!quant.uniform<i8:f32, 0.33831441402435303:-6>>, tensor<32x3x3x32x!quant.uniform<i8<-127:127>:f32:0, {… >>, tensor<32x!quant.uniform<i32:f32:0, {… >>) -> tensor<1x96x96x32x!quant.uniform<i8:f32, 0.096135467290878296:8>>
    %276 = "tfl.pseudo_const"() {value = dense<[1, 2]> : tensor<2xi32>} : () -> tensor<2xi32>
    %277 = "tfl.mean"(%275, %276) {keep_dims = true} : (tensor<1x96x96x32x!quant.uniform<i8:f32, 0.096135467290878296:8>>, tensor<2xi32>) -> tensor<1x1x1x32x!quant.uniform<i8:f32, 0.023985020816326141:-5>>
    %278 = "tfl.dequantize"(%275) : (tensor<1x96x96x32x!quant.uniform<i8:f32, 0.096135467290878296:8>>) -> tensor<1x96x96x32xf32>
    %279 = "tfl.dequantize"(%277) : (tensor<1x1x1x32x!quant.uniform<i8:f32, 0.023985020816326141:-5>>) -> tensor<1x1x1x32xf32>
    %280 = "tfl.squared_difference"(%278, %279) : (tensor<1x96x96x32xf32>, tensor<1x1x1x32xf32>) -> tensor<1x96x96x32xf32>
    %281 = "quant.stats"(%280) {layerStats = dense<[0.000000e+00, 168.841934]> : tensor<2xf32>} : (tensor<1x96x96x32xf32>) -> tensor<1x96x96x32xf32>
    %282 = "tfl.quantize"(%281) {qtype = tensor<1x96x96x32x!quant.uniform<i8:f32, 0.66212522983551025:-128>>} : (tensor<1x96x96x32xf32>) -> tensor<1x96x96x32x!quant.uniform<i8:f32, 0.66212522983551025:-128>>
    %283 = "tfl.pseudo_const"() {value = dense<[1, 2]> : tensor<2xi32>} : () -> tensor<2xi32>
    %284 = "tfl.mean"(%282, %283) {keep_dims = true} : (tensor<1x96x96x32x!quant.uniform<i8:f32, 0.66212522983551025:-128>>, tensor<2xi32>) -> tensor<1x1x1x32x!quant.uniform<i8:f32, 0.015176551416516304:-128>>
    %285 = "tfl.pseudo_qconst"() {qtype = tensor<!quant.uniform<i8<-127:127>:f32, 7.8740157505308161E-8>>, value = dense<127> : tensor<i8>} : () -> tensor<!quant.uniform<i8<-127:127>:f32, 7.8740157505308161E-8>>
    %286 = "tfl.add"(%284, %285) {fused_activation_function = "NONE"} : (tensor<1x1x1x32x!quant.uniform<i8:f32, 0.015176551416516304:-128>>, tensor<!quant.uniform<i8<-127:127>:f32, 7.8740157505308161E-8>>) -> tensor<1x1x1x32x!quant.uniform<i8:f32, 0.015176590532064438:-128>>
    %287 = "tfl.dequantize"(%286) : (tensor<1x1x1x32x!quant.uniform<i8:f32, 0.015176590532064438:-128>>) -> tensor<1x1x1x32xf32>
    %288 = "tfl.rsqrt"(%287) : (tensor<1x1x1x32xf32>) -> tensor<1x1x1x32xf32>
    %289 = "quant.stats"(%288) {layerStats = dense<[0.50832653, 3.09020448]> : tensor<2xf32>} : (tensor<1x1x1x32xf32>) -> tensor<1x1x1x32xf32>
    %290 = "tfl.quantize"(%289) {qtype = tensor<1x1x1x32x!quant.uniform<i8:f32, 0.012118448503315449:-128>>} : (tensor<1x1x1x32xf32>) -> tensor<1x1x1x32x!quant.uniform<i8:f32, 0.012118448503315449:-128>>
    %291 = "tfl.mul"(%290, %88) {fused_activation_function = "NONE"} : (tensor<1x1x1x32x!quant.uniform<i8:f32, 0.012118448503315449:-128>>, tensor<1x1x1x32x!quant.uniform<i8:f32, 0.033981539309024811:7>>) -> tensor<1x1x1x32x!quant.uniform<i8:f32, 0.034088108688592911:8>>
    %292 = "tfl.mul"(%275, %291) {fused_activation_function = "NONE"} : (tensor<1x96x96x32x!quant.uniform<i8:f32, 0.096135467290878296:8>>, tensor<1x1x1x32x!quant.uniform<i8:f32, 0.034088108688592911:8>>) -> tensor<1x96x96x32x!quant.uniform<i8:f32, 0.25754255056381226:-4>>
    %293 = "tfl.mul"(%277, %291) {fused_activation_function = "NONE"} : (tensor<1x1x1x32x!quant.uniform<i8:f32, 0.023985020816326141:-5>>, tensor<1x1x1x32x!quant.uniform<i8:f32, 0.034088108688592911:8>>) -> tensor<1x1x1x32x!quant.uniform<i8:f32, 0.086184889078140259:31>>
    %294 = "tfl.sub"(%85, %293) {fused_activation_function = "NONE"} : (tensor<1x1x1x32x!quant.uniform<i8:f32, 0.048760674893856049:-52>>, tensor<1x1x1x32x!quant.uniform<i8:f32, 0.086184889078140259:31>>) -> tensor<1x1x1x32x!quant.uniform<i8:f32, 0.085614524781703948:-40>>
    %295 = "tfl.add"(%292, %294) {fused_activation_function = "RELU"} : (tensor<1x96x96x32x!quant.uniform<i8:f32, 0.25754255056381226:-4>>, tensor<1x1x1x32x!quant.uniform<i8:f32, 0.085614524781703948:-40>>) -> tensor<1x96x96x32x!quant.uniform<i8:f32, 0.1224151998758316:-128>>
    %296 = "tfl.dequantize"(%295) : (tensor<1x96x96x32x!quant.uniform<i8:f32, 0.1224151998758316:-128>>) -> tensor<1x96x96x32xf32>
    %297 = "tfl.pseudo_const"() {value = dense<[[0, 0], [1, 1], [1, 1], [0, 0]]> : tensor<4x2xi32>} : () -> tensor<4x2xi32>
    %298 = "tfl.mirror_pad"(%296, %297) {mode = "REFLECT"} : (tensor<1x96x96x32xf32>, tensor<4x2xi32>) -> tensor<1x98x98x32xf32>
    %299 = "quant.stats"(%298) {layerStats = dense<[0.000000e+00, 31.2158756]> : tensor<2xf32>} : (tensor<1x98x98x32xf32>) -> tensor<1x98x98x32xf32>
    %300 = "tfl.quantize"(%299) {qtype = tensor<1x98x98x32x!quant.uniform<i8:f32, 0.1224151998758316:-128>>} : (tensor<1x98x98x32xf32>) -> tensor<1x98x98x32x!quant.uniform<i8:f32, 0.1224151998758316:-128>>
    %301 = "tfl.pseudo_qconst"() {qtype = tensor<32x3x3x32x!quant.uniform<i8<-127:127>:f32:0, {… >>, value = dense<"hex_value_removed_for_legibility_this_model_will_not_run_correctly_without_it"> : tensor<32x3x3x32xi8>} : () -> tensor<32x3x3x32x!quant.uniform<i8<-127:127>:f32:0, {… >>
    %302 = "tfl.conv_2d"(%300, %301, %31) {dilation_h_factor = 1 : i32, dilation_w_factor = 1 : i32, fused_activation_function = "NONE", padding = "VALID", stride_h = 1 : i32, stride_w = 1 : i32} : (tensor<1x98x98x32x!quant.uniform<i8:f32, 0.1224151998758316:-128>>, tensor<32x3x3x32x!quant.uniform<i8<-127:127>:f32:0, {… >>, tensor<32x!quant.uniform<i32:f32:0, {… >>) -> tensor<1x96x96x32x!quant.uniform<i8:f32, 0.05211465060710907:-8>>
    %303 = "tfl.pseudo_const"() {value = dense<[1, 2]> : tensor<2xi32>} : () -> tensor<2xi32>
    %304 = "tfl.mean"(%302, %303) {keep_dims = true} : (tensor<1x96x96x32x!quant.uniform<i8:f32, 0.05211465060710907:-8>>, tensor<2xi32>) -> tensor<1x1x1x32x!quant.uniform<i8:f32, 0.013937176205217838:5>>
    %305 = "tfl.dequantize"(%302) : (tensor<1x96x96x32x!quant.uniform<i8:f32, 0.05211465060710907:-8>>) -> tensor<1x96x96x32xf32>
    %306 = "tfl.dequantize"(%304) : (tensor<1x1x1x32x!quant.uniform<i8:f32, 0.013937176205217838:5>>) -> tensor<1x1x1x32xf32>
    %307 = "tfl.squared_difference"(%305, %306) : (tensor<1x96x96x32xf32>, tensor<1x1x1x32xf32>) -> tensor<1x96x96x32xf32>
    %308 = "quant.stats"(%307) {layerStats = dense<[0.000000e+00, 41.8810692]> : tensor<2xf32>} : (tensor<1x96x96x32xf32>) -> tensor<1x96x96x32xf32>
    %309 = "tfl.quantize"(%308) {qtype = tensor<1x96x96x32x!quant.uniform<i8:f32, 0.16423948109149933:-128>>} : (tensor<1x96x96x32xf32>) -> tensor<1x96x96x32x!quant.uniform<i8:f32, 0.16423948109149933:-128>>
    %310 = "tfl.pseudo_const"() {value = dense<[1, 2]> : tensor<2xi32>} : () -> tensor<2xi32>
    %311 = "tfl.mean"(%309, %310) {keep_dims = true} : (tensor<1x96x96x32x!quant.uniform<i8:f32, 0.16423948109149933:-128>>, tensor<2xi32>) -> tensor<1x1x1x32x!quant.uniform<i8:f32, 0.0030120783485472202:-128>>
    %312 = "tfl.pseudo_qconst"() {qtype = tensor<!quant.uniform<i8<-127:127>:f32, 7.8740157505308161E-8>>, value = dense<127> : tensor<i8>} : () -> tensor<!quant.uniform<i8<-127:127>:f32, 7.8740157505308161E-8>>
    %313 = "tfl.add"(%311, %312) {fused_activation_function = "NONE"} : (tensor<1x1x1x32x!quant.uniform<i8:f32, 0.0030120783485472202:-128>>, tensor<!quant.uniform<i8<-127:127>:f32, 7.8740157505308161E-8>>) -> tensor<1x1x1x32x!quant.uniform<i8:f32, 0.0030121176969259977:-128>>
    %314 = "tfl.dequantize"(%313) : (tensor<1x1x1x32x!quant.uniform<i8:f32, 0.0030121176969259977:-128>>) -> tensor<1x1x1x32xf32>
    %315 = "tfl.rsqrt"(%314) : (tensor<1x1x1x32xf32>) -> tensor<1x1x1x32xf32>
    %316 = "quant.stats"(%315) {layerStats = dense<[1.14102185, 6.11395597]> : tensor<2xf32>} : (tensor<1x1x1x32xf32>) -> tensor<1x1x1x32xf32>
    %317 = "tfl.quantize"(%316) {qtype = tensor<1x1x1x32x!quant.uniform<i8:f32, 0.023976298049092293:-128>>} : (tensor<1x1x1x32xf32>) -> tensor<1x1x1x32x!quant.uniform<i8:f32, 0.023976298049092293:-128>>
    %318 = "tfl.mul"(%317, %94) {fused_activation_function = "NONE"} : (tensor<1x1x1x32x!quant.uniform<i8:f32, 0.023976298049092293:-128>>, tensor<1x1x1x32x!quant.uniform<i8:f32, 0.046703558415174484:13>>) -> tensor<1x1x1x32x!quant.uniform<i8:f32, 0.1292511522769928:21>>
    %319 = "tfl.mul"(%302, %318) {fused_activation_function = "NONE"} : (tensor<1x96x96x32x!quant.uniform<i8:f32, 0.05211465060710907:-8>>, tensor<1x1x1x32x!quant.uniform<i8:f32, 0.1292511522769928:21>>) -> tensor<1x96x96x32x!quant.uniform<i8:f32, 0.30584511160850525:-16>>
    %320 = "tfl.mul"(%304, %318) {fused_activation_function = "NONE"} : (tensor<1x1x1x32x!quant.uniform<i8:f32, 0.013937176205217838:5>>, tensor<1x1x1x32x!quant.uniform<i8:f32, 0.1292511522769928:21>>) -> tensor<1x1x1x32x!quant.uniform<i8:f32, 0.13347017765045166:-1>>
    %321 = "tfl.sub"(%91, %320) {fused_activation_function = "NONE"} : (tensor<1x1x1x32x!quant.uniform<i8:f32, 0.032102540135383606:19>>, tensor<1x1x1x32x!quant.uniform<i8:f32, 0.13347017765045166:-1>>) -> tensor<1x1x1x32x!quant.uniform<i8:f32, 0.140093132853508:-6>>
    %322 = "tfl.add"(%319, %321) {fused_activation_function = "NONE"} : (tensor<1x96x96x32x!quant.uniform<i8:f32, 0.30584511160850525:-16>>, tensor<1x1x1x32x!quant.uniform<i8:f32, 0.140093132853508:-6>>) -> tensor<1x96x96x32x!quant.uniform<i8:f32, 0.26512971520423889>>
    %323 = "tfl.add"(%268, %322) {fused_activation_function = "NONE"} : (tensor<1x96x96x32x!quant.uniform<i8:f32, 0.33831441402435303:-6>>, tensor<1x96x96x32x!quant.uniform<i8:f32, 0.26512971520423889>>) -> tensor<1x96x96x32x!quant.uniform<i8:f32, 0.41446048021316528:-23>>
    %324 = "tfl.dequantize"(%323) : (tensor<1x96x96x32x!quant.uniform<i8:f32, 0.41446048021316528:-23>>) -> tensor<1x96x96x32xf32>
    %325 = "tfl.pseudo_const"() {value = dense<[[0, 0], [1, 1], [1, 1], [0, 0]]> : tensor<4x2xi32>} : () -> tensor<4x2xi32>
    %326 = "tfl.mirror_pad"(%324, %325) {mode = "REFLECT"} : (tensor<1x96x96x32xf32>, tensor<4x2xi32>) -> tensor<1x98x98x32xf32>
    %327 = "quant.stats"(%326) {layerStats = dense<[-43.4045486, 62.2828751]> : tensor<2xf32>} : (tensor<1x98x98x32xf32>) -> tensor<1x98x98x32xf32>
    %328 = "tfl.quantize"(%327) {qtype = tensor<1x98x98x32x!quant.uniform<i8:f32, 0.41446048021316528:-23>>} : (tensor<1x98x98x32xf32>) -> tensor<1x98x98x32x!quant.uniform<i8:f32, 0.41446048021316528:-23>>
    %329 = "tfl.pseudo_qconst"() {qtype = tensor<32x3x3x32x!quant.uniform<i8<-127:127>:f32:0, {… >>, value = dense<"hex_value_removed_for_legibility_this_model_will_not_run_correctly_without_it"> : tensor<32x3x3x32xi8>} : () -> tensor<32x3x3x32x!quant.uniform<i8<-127:127>:f32:0, {… >>
    %330 = "tfl.conv_2d"(%328, %329, %31) {dilation_h_factor = 1 : i32, dilation_w_factor = 1 : i32, fused_activation_function = "NONE", padding = "VALID", stride_h = 1 : i32, stride_w = 1 : i32} : (tensor<1x98x98x32x!quant.uniform<i8:f32, 0.41446048021316528:-23>>, tensor<32x3x3x32x!quant.uniform<i8<-127:127>:f32:0, {… >>, tensor<32x!quant.uniform<i32:f32:0, {… >>) -> tensor<1x96x96x32x!quant.uniform<i8:f32, 0.15857414901256561:-14>>
    %331 = "tfl.pseudo_const"() {value = dense<[1, 2]> : tensor<2xi32>} : () -> tensor<2xi32>
    %332 = "tfl.mean"(%330, %331) {keep_dims = true} : (tensor<1x96x96x32x!quant.uniform<i8:f32, 0.15857414901256561:-14>>, tensor<2xi32>) -> tensor<1x1x1x32x!quant.uniform<i8:f32, 0.021640559658408165:20>>
    %333 = "tfl.dequantize"(%330) : (tensor<1x96x96x32x!quant.uniform<i8:f32, 0.15857414901256561:-14>>) -> tensor<1x96x96x32xf32>
    %334 = "tfl.dequantize"(%332) : (tensor<1x1x1x32x!quant.uniform<i8:f32, 0.021640559658408165:20>>) -> tensor<1x1x1x32xf32>
    %335 = "tfl.squared_difference"(%333, %334) : (tensor<1x96x96x32xf32>, tensor<1x1x1x32xf32>) -> tensor<1x96x96x32xf32>
    %336 = "quant.stats"(%335) {layerStats = dense<[2.22044605E-16, 511.413635]> : tensor<2xf32>} : (tensor<1x96x96x32xf32>) -> tensor<1x96x96x32xf32>
    %337 = "tfl.quantize"(%336) {qtype = tensor<1x96x96x32x!quant.uniform<i8:f32, 2.0055437088012695:-128>>} : (tensor<1x96x96x32xf32>) -> tensor<1x96x96x32x!quant.uniform<i8:f32, 2.0055437088012695:-128>>
    %338 = "tfl.pseudo_const"() {value = dense<[1, 2]> : tensor<2xi32>} : () -> tensor<2xi32>
    %339 = "tfl.mean"(%337, %338) {keep_dims = true} : (tensor<1x96x96x32x!quant.uniform<i8:f32, 2.0055437088012695:-128>>, tensor<2xi32>) -> tensor<1x1x1x32x!quant.uniform<i8:f32, 0.037580117583274841:-128>>
    %340 = "tfl.pseudo_qconst"() {qtype = tensor<!quant.uniform<i8<-127:127>:f32, 7.8740157505308161E-8>>, value = dense<127> : tensor<i8>} : () -> tensor<!quant.uniform<i8<-127:127>:f32, 7.8740157505308161E-8>>
    %341 = "tfl.add"(%339, %340) {fused_activation_function = "NONE"} : (tensor<1x1x1x32x!quant.uniform<i8:f32, 0.037580117583274841:-128>>, tensor<!quant.uniform<i8<-127:127>:f32, 7.8740157505308161E-8>>) -> tensor<1x1x1x32x!quant.uniform<i8:f32, 0.037580154836177826:-128>>
    %342 = "tfl.dequantize"(%341) : (tensor<1x1x1x32x!quant.uniform<i8:f32, 0.037580154836177826:-128>>) -> tensor<1x1x1x32xf32>
    %343 = "tfl.rsqrt"(%342) : (tensor<1x1x1x32xf32>) -> tensor<1x1x1x32xf32>
    %344 = "quant.stats"(%343) {layerStats = dense<[0.323035777, 2.19215941]> : tensor<2xf32>} : (tensor<1x1x1x32xf32>) -> tensor<1x1x1x32xf32>
    %345 = "tfl.quantize"(%344) {qtype = tensor<1x1x1x32x!quant.uniform<i8:f32, 0.0085967034101486206:-128>>} : (tensor<1x1x1x32xf32>) -> tensor<1x1x1x32x!quant.uniform<i8:f32, 0.0085967034101486206:-128>>
    %346 = "tfl.mul"(%345, %100) {fused_activation_function = "NONE"} : (tensor<1x1x1x32x!quant.uniform<i8:f32, 0.0085967034101486206:-128>>, tensor<1x1x1x32x!quant.uniform<i8:f32, 0.03778902068734169:-8>>) -> tensor<1x1x1x32x!quant.uniform<i8:f32, 0.03016287088394165:21>>
    %347 = "tfl.mul"(%330, %346) {fused_activation_function = "NONE"} : (tensor<1x96x96x32x!quant.uniform<i8:f32, 0.15857414901256561:-14>>, tensor<1x1x1x32x!quant.uniform<i8:f32, 0.03016287088394165:21>>) -> tensor<1x96x96x32x!quant.uniform<i8:f32, 0.23249101638793945:41>>
    %348 = "tfl.mul"(%332, %346) {fused_activation_function = "NONE"} : (tensor<1x1x1x32x!quant.uniform<i8:f32, 0.021640559658408165:20>>, tensor<1x1x1x32x!quant.uniform<i8:f32, 0.03016287088394165:21>>) -> tensor<1x1x1x32x!quant.uniform<i8:f32, 0.032094627618789673:6>>
    %349 = "tfl.sub"(%97, %348) {fused_activation_function = "NONE"} : (tensor<1x1x1x32x!quant.uniform<i8:f32, 0.048569228500127792:-27>>, tensor<1x1x1x32x!quant.uniform<i8:f32, 0.032094627618789673:6>>) -> tensor<1x1x1x32x!quant.uniform<i8:f32, 0.053132675588130951:-46>>
    %350 = "tfl.add"(%347, %349) {fused_activation_function = "RELU"} : (tensor<1x96x96x32x!quant.uniform<i8:f32, 0.23249101638793945:41>>, tensor<1x1x1x32x!quant.uniform<i8:f32, 0.053132675588130951:-46>>) -> tensor<1x96x96x32x!quant.uniform<i8:f32, 0.10206928104162216:-128>>
    %351 = "tfl.dequantize"(%350) : (tensor<1x96x96x32x!quant.uniform<i8:f32, 0.10206928104162216:-128>>) -> tensor<1x96x96x32xf32>
    %352 = "tfl.pseudo_const"() {value = dense<[[0, 0], [1, 1], [1, 1], [0, 0]]> : tensor<4x2xi32>} : () -> tensor<4x2xi32>
    %353 = "tfl.mirror_pad"(%351, %352) {mode = "REFLECT"} : (tensor<1x96x96x32xf32>, tensor<4x2xi32>) -> tensor<1x98x98x32xf32>
    %354 = "quant.stats"(%353) {layerStats = dense<[0.000000e+00, 26.0276661]> : tensor<2xf32>} : (tensor<1x98x98x32xf32>) -> tensor<1x98x98x32xf32>
    %355 = "tfl.quantize"(%354) {qtype = tensor<1x98x98x32x!quant.uniform<i8:f32, 0.10206928104162216:-128>>} : (tensor<1x98x98x32xf32>) -> tensor<1x98x98x32x!quant.uniform<i8:f32, 0.10206928104162216:-128>>
    %356 = "tfl.pseudo_qconst"() {qtype = tensor<32x3x3x32x!quant.uniform<i8<-127:127>:f32:0, {… >>, value = dense<"hex_value_removed_for_legibility_this_model_will_not_run_correctly_without_it"> : tensor<32x3x3x32xi8>} : () -> tensor<32x3x3x32x!quant.uniform<i8<-127:127>:f32:0, {… >>
    %357 = "tfl.conv_2d"(%355, %356, %31) {dilation_h_factor = 1 : i32, dilation_w_factor = 1 : i32, fused_activation_function = "NONE", padding = "VALID", stride_h = 1 : i32, stride_w = 1 : i32} : (tensor<1x98x98x32x!quant.uniform<i8:f32, 0.10206928104162216:-128>>, tensor<32x3x3x32x!quant.uniform<i8<-127:127>:f32:0, {… >>, tensor<32x!quant.uniform<i32:f32:0, {… >>) -> tensor<1x96x96x32x!quant.uniform<i8:f32, 0.040821883827447891:-10>>
    %358 = "tfl.pseudo_const"() {value = dense<[1, 2]> : tensor<2xi32>} : () -> tensor<2xi32>
    %359 = "tfl.mean"(%357, %358) {keep_dims = true} : (tensor<1x96x96x32x!quant.uniform<i8:f32, 0.040821883827447891:-10>>, tensor<2xi32>) -> tensor<1x1x1x32x!quant.uniform<i8:f32, 0.020168788731098175:-9>>
    %360 = "tfl.dequantize"(%357) : (tensor<1x96x96x32x!quant.uniform<i8:f32, 0.040821883827447891:-10>>) -> tensor<1x96x96x32xf32>
    %361 = "tfl.dequantize"(%359) : (tensor<1x1x1x32x!quant.uniform<i8:f32, 0.020168788731098175:-9>>) -> tensor<1x1x1x32xf32>
    %362 = "tfl.squared_difference"(%360, %361) : (tensor<1x96x96x32xf32>, tensor<1x1x1x32xf32>) -> tensor<1x96x96x32xf32>
    %363 = "quant.stats"(%362) {layerStats = dense<[0.000000e+00, 21.3087692]> : tensor<2xf32>} : (tensor<1x96x96x32xf32>) -> tensor<1x96x96x32xf32>
    %364 = "tfl.quantize"(%363) {qtype = tensor<1x96x96x32x!quant.uniform<i8:f32, 0.083563797175884246:-128>>} : (tensor<1x96x96x32xf32>) -> tensor<1x96x96x32x!quant.uniform<i8:f32, 0.083563797175884246:-128>>
    %365 = "tfl.pseudo_const"() {value = dense<[1, 2]> : tensor<2xi32>} : () -> tensor<2xi32>
    %366 = "tfl.mean"(%364, %365) {keep_dims = true} : (tensor<1x96x96x32x!quant.uniform<i8:f32, 0.083563797175884246:-128>>, tensor<2xi32>) -> tensor<1x1x1x32x!quant.uniform<i8:f32, 0.003892713226377964:-128>>
    %367 = "tfl.pseudo_qconst"() {qtype = tensor<!quant.uniform<i8<-127:127>:f32, 7.8740157505308161E-8>>, value = dense<127> : tensor<i8>} : () -> tensor<!quant.uniform<i8<-127:127>:f32, 7.8740157505308161E-8>>
    %368 = "tfl.add"(%366, %367) {fused_activation_function = "NONE"} : (tensor<1x1x1x32x!quant.uniform<i8:f32, 0.003892713226377964:-128>>, tensor<!quant.uniform<i8<-127:127>:f32, 7.8740157505308161E-8>>) -> tensor<1x1x1x32x!quant.uniform<i8:f32, 0.0038927525747567415:-128>>
    %369 = "tfl.dequantize"(%368) : (tensor<1x1x1x32x!quant.uniform<i8:f32, 0.0038927525747567415:-128>>) -> tensor<1x1x1x32xf32>
    %370 = "tfl.rsqrt"(%369) : (tensor<1x1x1x32xf32>) -> tensor<1x1x1x32xf32>
    %371 = "quant.stats"(%370) {layerStats = dense<[1.00369442, 7.68128299]> : tensor<2xf32>} : (tensor<1x1x1x32xf32>) -> tensor<1x1x1x32xf32>
    %372 = "tfl.quantize"(%371) {qtype = tensor<1x1x1x32x!quant.uniform<i8:f32, 0.030122678726911545:-128>>} : (tensor<1x1x1x32xf32>) -> tensor<1x1x1x32x!quant.uniform<i8:f32, 0.030122678726911545:-128>>
    %373 = "tfl.mul"(%372, %106) {fused_activation_function = "NONE"} : (tensor<1x1x1x32x!quant.uniform<i8:f32, 0.030122678726911545:-128>>, tensor<1x1x1x32x!quant.uniform<i8:f32, 0.051889717578887939:7>>) -> tensor<1x1x1x32x!quant.uniform<i8:f32, 0.17730937898159027:7>>
    %374 = "tfl.mul"(%357, %373) {fused_activation_function = "NONE"} : (tensor<1x96x96x32x!quant.uniform<i8:f32, 0.040821883827447891:-10>>, tensor<1x1x1x32x!quant.uniform<i8:f32, 0.17730937898159027:7>>) -> tensor<1x96x96x32x!quant.uniform<i8:f32, 0.35716599225997925:-7>>
    %375 = "tfl.mul"(%359, %373) {fused_activation_function = "NONE"} : (tensor<1x1x1x32x!quant.uniform<i8:f32, 0.020168788731098175:-9>>, tensor<1x1x1x32x!quant.uniform<i8:f32, 0.17730937898159027:7>>) -> tensor<1x1x1x32x!quant.uniform<i8:f32, 0.14880026876926422:9>>
    %376 = "tfl.sub"(%103, %375) {fused_activation_function = "NONE"} : (tensor<1x1x1x32x!quant.uniform<i8:f32, 0.032035455107688904:-7>>, tensor<1x1x1x32x!quant.uniform<i8:f32, 0.14880026876926422:9>>) -> tensor<1x1x1x32x!quant.uniform<i8:f32, 0.15879528224468231:-2>>
    %377 = "tfl.add"(%374, %376) {fused_activation_function = "NONE"} : (tensor<1x96x96x32x!quant.uniform<i8:f32, 0.35716599225997925:-7>>, tensor<1x1x1x32x!quant.uniform<i8:f32, 0.15879528224468231:-2>>) -> tensor<1x96x96x32x!quant.uniform<i8:f32, 0.31685063242912292:9>>
    %378 = "tfl.add"(%323, %377) {fused_activation_function = "NONE"} : (tensor<1x96x96x32x!quant.uniform<i8:f32, 0.41446048021316528:-23>>, tensor<1x96x96x32x!quant.uniform<i8:f32, 0.31685063242912292:9>>) -> tensor<1x96x96x32x!quant.uniform<i8:f32, 0.50074303150177002:-15>>
    %379 = "tfl.dequantize"(%378) : (tensor<1x96x96x32x!quant.uniform<i8:f32, 0.50074303150177002:-15>>) -> tensor<1x96x96x32xf32>
    %380 = "tfl.pseudo_const"() {value = dense<192> : tensor<2xi32>} : () -> tensor<2xi32>
    %381 = "tfl.resize_nearest_neighbor"(%379, %380) {align_corners = false} : (tensor<1x96x96x32xf32>, tensor<2xi32>) -> tensor<1x192x192x32xf32>
    %382 = "quant.stats"(%381) {layerStats = dense<[-56.7436142, 70.9458618]> : tensor<2xf32>} : (tensor<1x192x192x32xf32>) -> tensor<1x192x192x32xf32>
    %383 = "tfl.pseudo_const"() {value = dense<[[0, 0], [1, 1], [1, 1], [0, 0]]> : tensor<4x2xi32>} : () -> tensor<4x2xi32>
    %384 = "tfl.mirror_pad"(%382, %383) {mode = "REFLECT"} : (tensor<1x192x192x32xf32>, tensor<4x2xi32>) -> tensor<1x194x194x32xf32>
    %385 = "quant.stats"(%384) {layerStats = dense<[-56.7436142, 70.9458618]> : tensor<2xf32>} : (tensor<1x194x194x32xf32>) -> tensor<1x194x194x32xf32>
    %386 = "tfl.quantize"(%385) {qtype = tensor<1x194x194x32x!quant.uniform<i8:f32, 0.50074303150177002:-15>>} : (tensor<1x194x194x32xf32>) -> tensor<1x194x194x32x!quant.uniform<i8:f32, 0.50074303150177002:-15>>
    %387 = "tfl.pseudo_qconst"() {qtype = tensor<16x3x3x32x!quant.uniform<i8<-127:127>:f32:0, {… >>, value = dense<"hex_value_removed_for_legibility_this_model_will_not_run_correctly_without_it"> : tensor<16x3x3x32xi8>} : () -> tensor<16x3x3x32x!quant.uniform<i8<-127:127>:f32:0, {… >>
    %388 = "tfl.pseudo_qconst"() {qtype = tensor<16x!quant.uniform<i32:f32:0, {… >>, value = dense<0> : tensor<16xi32>} : () -> tensor<16x!quant.uniform<i32:f32:0, {… >>
    %389 = "tfl.conv_2d"(%386, %387, %388) {dilation_h_factor = 1 : i32, dilation_w_factor = 1 : i32, fused_activation_function = "NONE", padding = "VALID", stride_h = 1 : i32, stride_w = 1 : i32} : (tensor<1x194x194x32x!quant.uniform<i8:f32, 0.50074303150177002:-15>>, tensor<16x3x3x32x!quant.uniform<i8<-127:127>:f32:0, {… >>, tensor<16x!quant.uniform<i32:f32:0, {… >>) -> tensor<1x192x192x16x!quant.uniform<i8:f32, 0.25422009825706482:-5>>
    %390 = "tfl.pseudo_const"() {value = dense<[1, 2]> : tensor<2xi32>} : () -> tensor<2xi32>
    %391 = "tfl.mean"(%389, %390) {keep_dims = true} : (tensor<1x192x192x16x!quant.uniform<i8:f32, 0.25422009825706482:-5>>, tensor<2xi32>) -> tensor<1x1x1x16x!quant.uniform<i8:f32, 0.031750407069921494:17>>
    %392 = "tfl.dequantize"(%389) : (tensor<1x192x192x16x!quant.uniform<i8:f32, 0.25422009825706482:-5>>) -> tensor<1x192x192x16xf32>
    %393 = "tfl.dequantize"(%391) : (tensor<1x1x1x16x!quant.uniform<i8:f32, 0.031750407069921494:17>>) -> tensor<1x1x1x16xf32>
    %394 = "tfl.squared_difference"(%392, %393) : (tensor<1x192x192x16xf32>, tensor<1x1x1x16xf32>) -> tensor<1x192x192x16xf32>
    %395 = "quant.stats"(%394) {layerStats = dense<[0.000000e+00, 1231.91028]> : tensor<2xf32>} : (tensor<1x192x192x16xf32>) -> tensor<1x192x192x16xf32>
    %396 = "tfl.quantize"(%395) {qtype = tensor<1x192x192x16x!quant.uniform<i8:f32, 4.8310208320617676:-128>>} : (tensor<1x192x192x16xf32>) -> tensor<1x192x192x16x!quant.uniform<i8:f32, 4.8310208320617676:-128>>
    %397 = "tfl.pseudo_const"() {value = dense<[1, 2]> : tensor<2xi32>} : () -> tensor<2xi32>
    %398 = "tfl.mean"(%396, %397) {keep_dims = true} : (tensor<1x192x192x16x!quant.uniform<i8:f32, 4.8310208320617676:-128>>, tensor<2xi32>) -> tensor<1x1x1x16x!quant.uniform<i8:f32, 0.15235787630081177:-128>>
    %399 = "tfl.pseudo_qconst"() {qtype = tensor<!quant.uniform<i8<-127:127>:f32, 7.8740157505308161E-8>>, value = dense<127> : tensor<i8>} : () -> tensor<!quant.uniform<i8<-127:127>:f32, 7.8740157505308161E-8>>
    %400 = "tfl.add"(%398, %399) {fused_activation_function = "NONE"} : (tensor<1x1x1x16x!quant.uniform<i8:f32, 0.15235787630081177:-128>>, tensor<!quant.uniform<i8<-127:127>:f32, 7.8740157505308161E-8>>) -> tensor<1x1x1x16x!quant.uniform<i8:f32, 0.15235792100429535:-128>>
    %401 = "tfl.dequantize"(%400) : (tensor<1x1x1x16x!quant.uniform<i8:f32, 0.15235792100429535:-128>>) -> tensor<1x1x1x16xf32>
    %402 = "tfl.rsqrt"(%401) : (tensor<1x1x1x16xf32>) -> tensor<1x1x1x16xf32>
    %403 = "quant.stats"(%402) {layerStats = dense<[0.160434365, 2.22459054]> : tensor<2xf32>} : (tensor<1x1x1x16xf32>) -> tensor<1x1x1x16xf32>
    %404 = "tfl.quantize"(%403) {qtype = tensor<1x1x1x16x!quant.uniform<i8:f32, 0.0087238848209381103:-128>>} : (tensor<1x1x1x16xf32>) -> tensor<1x1x1x16x!quant.uniform<i8:f32, 0.0087238848209381103:-128>>
    %405 = "tfl.mul"(%404, %112) {fused_activation_function = "NONE"} : (tensor<1x1x1x16x!quant.uniform<i8:f32, 0.0087238848209381103:-128>>, tensor<1x1x1x16x!quant.uniform<i8:f32, 0.028536655008792877:4>>) -> tensor<1x1x1x16x!quant.uniform<i8:f32, 0.023553749546408653:8>>
    %406 = "tfl.mul"(%389, %405) {fused_activation_function = "NONE"} : (tensor<1x192x192x16x!quant.uniform<i8:f32, 0.25422009825706482:-5>>, tensor<1x1x1x16x!quant.uniform<i8:f32, 0.023553749546408653:8>>) -> tensor<1x192x192x16x!quant.uniform<i8:f32, 0.19558171927928925:-1>>
    %407 = "tfl.mul"(%391, %405) {fused_activation_function = "NONE"} : (tensor<1x1x1x16x!quant.uniform<i8:f32, 0.031750407069921494:17>>, tensor<1x1x1x16x!quant.uniform<i8:f32, 0.023553749546408653:8>>) -> tensor<1x1x1x16x!quant.uniform<i8:f32, 0.032647382467985153:42>>
    %408 = "tfl.sub"(%109, %407) {fused_activation_function = "NONE"} : (tensor<1x1x1x16x!quant.uniform<i8:f32, 0.036568928509950638:-26>>, tensor<1x1x1x16x!quant.uniform<i8:f32, 0.032647382467985153:42>>) -> tensor<1x1x1x16x!quant.uniform<i8:f32, 0.049868263304233551:-33>>
    %409 = "tfl.add"(%406, %408) {fused_activation_function = "RELU"} : (tensor<1x192x192x16x!quant.uniform<i8:f32, 0.19558171927928925:-1>>, tensor<1x1x1x16x!quant.uniform<i8:f32, 0.049868263304233551:-33>>) -> tensor<1x192x192x16x!quant.uniform<i8:f32, 0.095071256160736083:-128>>
    %410 = "tfl.dequantize"(%409) : (tensor<1x192x192x16x!quant.uniform<i8:f32, 0.095071256160736083:-128>>) -> tensor<1x192x192x16xf32>
    %411 = "tfl.pseudo_const"() {value = dense<384> : tensor<2xi32>} : () -> tensor<2xi32>
    %412 = "tfl.resize_nearest_neighbor"(%410, %411) {align_corners = false} : (tensor<1x192x192x16xf32>, tensor<2xi32>) -> tensor<1x384x384x16xf32>
    %413 = "quant.stats"(%412) {layerStats = dense<[0.000000e+00, 24.2431698]> : tensor<2xf32>} : (tensor<1x384x384x16xf32>) -> tensor<1x384x384x16xf32>
    %414 = "tfl.pseudo_const"() {value = dense<[[0, 0], [1, 1], [1, 1], [0, 0]]> : tensor<4x2xi32>} : () -> tensor<4x2xi32>
    %415 = "tfl.mirror_pad"(%413, %414) {mode = "REFLECT"} : (tensor<1x384x384x16xf32>, tensor<4x2xi32>) -> tensor<1x386x386x16xf32>
    %416 = "quant.stats"(%415) {layerStats = dense<[0.000000e+00, 24.2431698]> : tensor<2xf32>} : (tensor<1x386x386x16xf32>) -> tensor<1x386x386x16xf32>
    %417 = "tfl.quantize"(%416) {qtype = tensor<1x386x386x16x!quant.uniform<i8:f32, 0.095071256160736083:-128>>} : (tensor<1x386x386x16xf32>) -> tensor<1x386x386x16x!quant.uniform<i8:f32, 0.095071256160736083:-128>>
    %418 = "tfl.pseudo_qconst"() {qtype = tensor<8x3x3x16x!quant.uniform<i8<-127:127>:f32:0, {4.7759080189280212E-4,5.3445057710632682E-4,3.6954329698346555E-4,5.8699963847175241E-4,4.1047550621442497E-4,5.3606042638421059E-4,3.7964386865496635E-4,4.5925169251859188E-4}>>, value = dense<"hex_value_removed_for_legibility_this_model_will_not_run_correctly_without_it"> : tensor<8x3x3x16xi8>} : () -> tensor<8x3x3x16x!quant.uniform<i8<-127:127>:f32:0, {4.7759080189280212E-4,5.3445057710632682E-4,3.6954329698346555E-4,5.8699963847175241E-4,4.1047550621442497E-4,5.3606042638421059E-4,3.7964386865496635E-4,4.5925169251859188E-4}>>
    %419 = "tfl.pseudo_qconst"() {qtype = tensor<8x!quant.uniform<i32:f32:0, {4.5405158743960783E-5,5.0810886023100466E-5,3.5132947232341394E-5,5.580679135164246E-5,3.9024420402711257E-5,5.0963939429493621E-5,3.6093220842303708E-5,4.3661635572789237E-5}>>, value = dense<0> : tensor<8xi32>} : () -> tensor<8x!quant.uniform<i32:f32:0, {4.5405158743960783E-5,5.0810886023100466E-5,3.5132947232341394E-5,5.580679135164246E-5,3.9024420402711257E-5,5.0963939429493621E-5,3.6093220842303708E-5,4.3661635572789237E-5}>>
    %420 = "tfl.conv_2d"(%417, %418, %419) {dilation_h_factor = 1 : i32, dilation_w_factor = 1 : i32, fused_activation_function = "NONE", padding = "VALID", stride_h = 1 : i32, stride_w = 1 : i32} : (tensor<1x386x386x16x!quant.uniform<i8:f32, 0.095071256160736083:-128>>, tensor<8x3x3x16x!quant.uniform<i8<-127:127>:f32:0, {4.7759080189280212E-4,5.3445057710632682E-4,3.6954329698346555E-4,5.8699963847175241E-4,4.1047550621442497E-4,5.3606042638421059E-4,3.7964386865496635E-4,4.5925169251859188E-4}>>, tensor<8x!quant.uniform<i32:f32:0, {4.5405158743960783E-5,5.0810886023100466E-5,3.5132947232341394E-5,5.580679135164246E-5,3.9024420402711257E-5,5.0963939429493621E-5,3.6093220842303708E-5,4.3661635572789237E-5}>>) -> tensor<1x384x384x8x!quant.uniform<i8:f32, 0.043464839458465576:8>>
    %421 = "tfl.pseudo_const"() {value = dense<[1, 2]> : tensor<2xi32>} : () -> tensor<2xi32>
    %422 = "tfl.mean"(%420, %421) {keep_dims = true} : (tensor<1x384x384x8x!quant.uniform<i8:f32, 0.043464839458465576:8>>, tensor<2xi32>) -> tensor<1x1x1x8x!quant.uniform<i8:f32, 0.011263568885624409:-15>>
    %423 = "tfl.dequantize"(%420) : (tensor<1x384x384x8x!quant.uniform<i8:f32, 0.043464839458465576:8>>) -> tensor<1x384x384x8xf32>
    %424 = "tfl.dequantize"(%422) : (tensor<1x1x1x8x!quant.uniform<i8:f32, 0.011263568885624409:-15>>) -> tensor<1x1x1x8xf32>
    %425 = "tfl.squared_difference"(%423, %424) : (tensor<1x384x384x8xf32>, tensor<1x1x1x8xf32>) -> tensor<1x384x384x8xf32>
    %426 = "quant.stats"(%425) {layerStats = dense<[0.000000e+00, 38.2371483]> : tensor<2xf32>} : (tensor<1x384x384x8xf32>) -> tensor<1x384x384x8xf32>
    %427 = "tfl.quantize"(%426) {qtype = tensor<1x384x384x8x!quant.uniform<i8:f32, 0.14994959533214569:-128>>} : (tensor<1x384x384x8xf32>) -> tensor<1x384x384x8x!quant.uniform<i8:f32, 0.14994959533214569:-128>>
    %428 = "tfl.pseudo_const"() {value = dense<[1, 2]> : tensor<2xi32>} : () -> tensor<2xi32>
    %429 = "tfl.mean"(%427, %428) {keep_dims = true} : (tensor<1x384x384x8x!quant.uniform<i8:f32, 0.14994959533214569:-128>>, tensor<2xi32>) -> tensor<1x1x1x8x!quant.uniform<i8:f32, 0.0053045284003019333:-128>>
    %430 = "tfl.pseudo_qconst"() {qtype = tensor<!quant.uniform<i8<-127:127>:f32, 7.8740157505308161E-8>>, value = dense<127> : tensor<i8>} : () -> tensor<!quant.uniform<i8<-127:127>:f32, 7.8740157505308161E-8>>
    %431 = "tfl.add"(%429, %430) {fused_activation_function = "NONE"} : (tensor<1x1x1x8x!quant.uniform<i8:f32, 0.0053045284003019333:-128>>, tensor<!quant.uniform<i8<-127:127>:f32, 7.8740157505308161E-8>>) -> tensor<1x1x1x8x!quant.uniform<i8:f32, 0.0053045675158500671:-128>>
    %432 = "tfl.dequantize"(%431) : (tensor<1x1x1x8x!quant.uniform<i8:f32, 0.0053045675158500671:-128>>) -> tensor<1x1x1x8xf32>
    %433 = "tfl.rsqrt"(%432) : (tensor<1x1x1x8xf32>) -> tensor<1x1x1x8xf32>
    %434 = "quant.stats"(%433) {layerStats = dense<[0.859814822, 16.9645691]> : tensor<2xf32>} : (tensor<1x1x1x8xf32>) -> tensor<1x1x1x8xf32>
    %435 = "tfl.quantize"(%434) {qtype = tensor<1x1x1x8x!quant.uniform<i8:f32, 0.066527724266052246:-128>>} : (tensor<1x1x1x8xf32>) -> tensor<1x1x1x8x!quant.uniform<i8:f32, 0.066527724266052246:-128>>
    %436 = "tfl.mul"(%435, %118) {fused_activation_function = "NONE"} : (tensor<1x1x1x8x!quant.uniform<i8:f32, 0.066527724266052246:-128>>, tensor<1x1x1x8x!quant.uniform<i8:f32, 0.042688768357038498:-62>>) -> tensor<1x1x1x8x!quant.uniform<i8:f32, 0.10630900412797928:-3>>
    %437 = "tfl.mul"(%420, %436) {fused_activation_function = "NONE"} : (tensor<1x384x384x8x!quant.uniform<i8:f32, 0.043464839458465576:8>>, tensor<1x1x1x8x!quant.uniform<i8:f32, 0.10630900412797928:-3>>) -> tensor<1x384x384x8x!quant.uniform<i8:f32, 0.28986415266990662:8>>
    %438 = "tfl.mul"(%422, %436) {fused_activation_function = "NONE"} : (tensor<1x1x1x8x!quant.uniform<i8:f32, 0.011263568885624409:-15>>, tensor<1x1x1x8x!quant.uniform<i8:f32, 0.10630900412797928:-3>>) -> tensor<1x1x1x8x!quant.uniform<i8:f32, 0.040012966841459274:-32>>
    %439 = "tfl.sub"(%115, %438) {fused_activation_function = "NONE"} : (tensor<1x1x1x8x!quant.uniform<i8:f32, 0.044889830052852631:-92>>, tensor<1x1x1x8x!quant.uniform<i8:f32, 0.040012966841459274:-32>>) -> tensor<1x1x1x8x!quant.uniform<i8:f32, 0.061507109552621841:-67>>
    %440 = "tfl.add"(%437, %439) {fused_activation_function = "RELU"} : (tensor<1x384x384x8x!quant.uniform<i8:f32, 0.28986415266990662:8>>, tensor<1x1x1x8x!quant.uniform<i8:f32, 0.061507109552621841:-67>>) -> tensor<1x384x384x8x!quant.uniform<i8:f32, 0.14288397133350372:-128>>
    %441 = "tfl.dequantize"(%440) : (tensor<1x384x384x8x!quant.uniform<i8:f32, 0.14288397133350372:-128>>) -> tensor<1x384x384x8xf32>
    %442 = "tfl.pseudo_const"() {value = dense<384> : tensor<2xi32>} : () -> tensor<2xi32>
    %443 = "tfl.resize_nearest_neighbor"(%441, %442) {align_corners = false} : (tensor<1x384x384x8xf32>, tensor<2xi32>) -> tensor<1x384x384x8xf32>
    %444 = "quant.stats"(%443) {layerStats = dense<[0.000000e+00, 36.4354134]> : tensor<2xf32>} : (tensor<1x384x384x8xf32>) -> tensor<1x384x384x8xf32>
    %445 = "tfl.pseudo_const"() {value = dense<[[0, 0], [4, 4], [4, 4], [0, 0]]> : tensor<4x2xi32>} : () -> tensor<4x2xi32>
    %446 = "tfl.mirror_pad"(%444, %445) {mode = "REFLECT"} : (tensor<1x384x384x8xf32>, tensor<4x2xi32>) -> tensor<1x392x392x8xf32>
    %447 = "quant.stats"(%446) {layerStats = dense<[0.000000e+00, 36.4354134]> : tensor<2xf32>} : (tensor<1x392x392x8xf32>) -> tensor<1x392x392x8xf32>
    %448 = "tfl.quantize"(%447) {qtype = tensor<1x392x392x8x!quant.uniform<i8:f32, 0.14288397133350372:-128>>} : (tensor<1x392x392x8xf32>) -> tensor<1x392x392x8x!quant.uniform<i8:f32, 0.14288397133350372:-128>>
    %449 = "tfl.pseudo_qconst"() {qtype = tensor<3x9x9x8x!quant.uniform<i8<-127:127>:f32:0, {0.0011601576115936041,0.001045918557792902,0.0010344894835725427}>>, value = dense<"hex_value_removed_for_legibility_this_model_will_not_run_correctly_without_it"> : tensor<3x9x9x8xi8>} : () -> tensor<3x9x9x8x!quant.uniform<i8<-127:127>:f32:0, {0.0011601576115936041,0.001045918557792902,0.0010344894835725427}>>
    %450 = "tfl.pseudo_qconst"() {qtype = tensor<3x!quant.uniform<i32:f32:0, {1.6576792404521257E-4,1.4944499707780778E-4,1.4781196659896523E-4}>>, value = dense<0> : tensor<3xi32>} : () -> tensor<3x!quant.uniform<i32:f32:0, {1.6576792404521257E-4,1.4944499707780778E-4,1.4781196659896523E-4}>>
    %451 = "tfl.conv_2d"(%448, %449, %450) {dilation_h_factor = 1 : i32, dilation_w_factor = 1 : i32, fused_activation_function = "NONE", padding = "VALID", stride_h = 1 : i32, stride_w = 1 : i32} : (tensor<1x392x392x8x!quant.uniform<i8:f32, 0.14288397133350372:-128>>, tensor<3x9x9x8x!quant.uniform<i8<-127:127>:f32:0, {0.0011601576115936041,0.001045918557792902,0.0010344894835725427}>>, tensor<3x!quant.uniform<i32:f32:0, {1.6576792404521257E-4,1.4944499707780778E-4,1.4781196659896523E-4}>>) -> tensor<1x384x384x3x!quant.uniform<i8:f32, 0.11056078225374222:22>>
    %452 = "tfl.pseudo_const"() {value = dense<[1, 2]> : tensor<2xi32>} : () -> tensor<2xi32>
    %453 = "tfl.mean"(%451, %452) {keep_dims = true} : (tensor<1x384x384x3x!quant.uniform<i8:f32, 0.11056078225374222:22>>, tensor<2xi32>) -> tensor<1x1x1x3x!quant.uniform<i8:f32, 0.036426447331905365:81>>
    %454 = "tfl.dequantize"(%451) : (tensor<1x384x384x3x!quant.uniform<i8:f32, 0.11056078225374222:22>>) -> tensor<1x384x384x3xf32>
    %455 = "tfl.dequantize"(%453) : (tensor<1x1x1x3x!quant.uniform<i8:f32, 0.036426447331905365:81>>) -> tensor<1x1x1x3xf32>
    %456 = "tfl.squared_difference"(%454, %455) : (tensor<1x384x384x3xf32>, tensor<1x1x1x3xf32>) -> tensor<1x384x384x3xf32>
    %457 = "quant.stats"(%456) {layerStats = dense<[0.000000e+00, 206.909546]> : tensor<2xf32>} : (tensor<1x384x384x3xf32>) -> tensor<1x384x384x3xf32>
    %458 = "tfl.quantize"(%457) {qtype = tensor<1x384x384x3x!quant.uniform<i8:f32, 0.81141000986099243:-128>>} : (tensor<1x384x384x3xf32>) -> tensor<1x384x384x3x!quant.uniform<i8:f32, 0.81141000986099243:-128>>
    %459 = "tfl.pseudo_const"() {value = dense<[1, 2]> : tensor<2xi32>} : () -> tensor<2xi32>
    %460 = "tfl.mean"(%458, %459) {keep_dims = true} : (tensor<1x384x384x3x!quant.uniform<i8:f32, 0.81141000986099243:-128>>, tensor<2xi32>) -> tensor<1x1x1x3x!quant.uniform<i8:f32, 0.051484953612089157:-128>>
    %461 = "tfl.pseudo_qconst"() {qtype = tensor<!quant.uniform<i8<-127:127>:f32, 7.8740157505308161E-8>>, value = dense<127> : tensor<i8>} : () -> tensor<!quant.uniform<i8<-127:127>:f32, 7.8740157505308161E-8>>
    %462 = "tfl.add"(%460, %461) {fused_activation_function = "NONE"} : (tensor<1x1x1x3x!quant.uniform<i8:f32, 0.051484953612089157:-128>>, tensor<!quant.uniform<i8<-127:127>:f32, 7.8740157505308161E-8>>) -> tensor<1x1x1x3x!quant.uniform<i8:f32, 0.051484990864992142:-128>>
    %463 = "tfl.dequantize"(%462) : (tensor<1x1x1x3x!quant.uniform<i8:f32, 0.051484990864992142:-128>>) -> tensor<1x1x1x3xf32>
    %464 = "tfl.rsqrt"(%463) : (tensor<1x1x1x3xf32>) -> tensor<1x1x1x3xf32>
    %465 = "quant.stats"(%464) {layerStats = dense<[0.275987595, 2.77570462]> : tensor<2xf32>} : (tensor<1x1x1x3xf32>) -> tensor<1x1x1x3xf32>
    %466 = "tfl.quantize"(%465) {qtype = tensor<1x1x1x3x!quant.uniform<i8:f32, 0.010885115712881088:-128>>} : (tensor<1x1x1x3xf32>) -> tensor<1x1x1x3x!quant.uniform<i8:f32, 0.010885115712881088:-128>>
    %467 = "tfl.mul"(%466, %124) {fused_activation_function = "NONE"} : (tensor<1x1x1x3x!quant.uniform<i8:f32, 0.010885115712881088:-128>>, tensor<1x1x1x3x!quant.uniform<i8:f32, 0.020021665841341019:3>>) -> tensor<1x1x1x3x!quant.uniform<i8:f32, 0.011793441139161587:54>>
    %468 = "tfl.mul"(%451, %467) {fused_activation_function = "NONE"} : (tensor<1x384x384x3x!quant.uniform<i8:f32, 0.11056078225374222:22>>, tensor<1x1x1x3x!quant.uniform<i8:f32, 0.011793441139161587:54>>) -> tensor<1x384x384x3x!quant.uniform<i8:f32, 0.1263769268989563:-76>>
    %469 = "tfl.mul"(%453, %467) {fused_activation_function = "NONE"} : (tensor<1x1x1x3x!quant.uniform<i8:f32, 0.036426447331905365:81>>, tensor<1x1x1x3x!quant.uniform<i8:f32, 0.011793441139161587:54>>) -> tensor<1x1x1x3x!quant.uniform<i8:f32, 0.056860476732254028:-123>>
    %470 = "tfl.sub"(%121, %469) {fused_activation_function = "NONE"} : (tensor<1x1x1x3x!quant.uniform<i8:f32, 0.026263704523444176:3>>, tensor<1x1x1x3x!quant.uniform<i8:f32, 0.056860476732254028:-123>>) -> tensor<1x1x1x3x!quant.uniform<i8:f32, 0.063732296228408813:98>>
    %471 = "tfl.add"(%468, %470) {fused_activation_function = "NONE"} : (tensor<1x384x384x3x!quant.uniform<i8:f32, 0.1263769268989563:-76>>, tensor<1x1x1x3x!quant.uniform<i8:f32, 0.063732296228408813:98>>) -> tensor<1x384x384x3x!quant.uniform<i8:f32, 0.11392304301261902:29>>
    %472 = "tfl.logistic"(%471) : (tensor<1x384x384x3x!quant.uniform<i8:f32, 0.11392304301261902:29>>) -> tensor<1x384x384x3x!quant.uniform<i8:f32, 3.906250e-03:-128>>
    %473 = "tfl.dequantize"(%472) : (tensor<1x384x384x3x!quant.uniform<i8:f32, 3.906250e-03:-128>>) -> tensor<1x384x384x3xf32>
    return %473 : tensor<1x384x384x3xf32>
  }
}