

module attributes {tfl.description = "TOCO Converted.", tfl.schema_version = 3 : i32} {
  func @main(%arg0: tensor<1x256xf32>) -> tensor<1x2xf32> attributes {tf.entry_function = {inputs = "embedding_input", outputs = "dense_1/Softmax"}} {
    %0 = "quant.stats"(%arg0) {layerStats = dense<[0.000000e+00, 2.550000e+02]> : tensor<2xf32>} : (tensor<1x256xf32>) -> tensor<1x256xf32>
    %1 = "tfl.cast"(%0) : (tensor<1x256xf32>) -> tensor<1x256xi32>
    %2 = "tfl.pseudo_const"() {value = dense<"hex_value_removed_for_legibility_this_model_will_not_run_correctly_without_it"> : tensor<10000x16xf32>} : () -> tensor<10000x16xf32>
    %3 = "tfl.gather"(%2, %1) {axis = 0 : i32} : (tensor<10000x16xf32>, tensor<1x256xi32>) -> tensor<1x256x16xf32>
    %4 = "tfl.pseudo_const"() {value = dense<1> : tensor<i32>} : () -> tensor<i32>
    %5 = "tfl.mean"(%3, %4) {keep_dims = false} : (tensor<1x256x16xf32>, tensor<i32>) -> tensor<1x16xf32>
    %6 = "tfl.pseudo_const"() {value = dense<"hex_value_removed_for_legibility_this_model_will_not_run_correctly_without_it"> : tensor<16x16xf32>} : () -> tensor<16x16xf32>
    %7 = "tfl.pseudo_const"() {value = dense<[… > : tensor<16xf32>} : () -> tensor<16xf32>
    %8 = "tfl.fully_connected"(%5, %6, %7) {fused_activation_function = "RELU", keep_num_dims = false, weights_format = "DEFAULT"} : (tensor<1x16xf32>, tensor<16x16xf32>, tensor<16xf32>) -> tensor<1x16xf32>
    %9 = "tfl.pseudo_const"() {value = dense<[[… > : tensor<2x16xf32>} : () -> tensor<2x16xf32>
    %10 = "tfl.pseudo_const"() {value = dense<[-0.00448626466, 0.00448626373]> : tensor<2xf32>} : () -> tensor<2xf32>
    %11 = "tfl.fully_connected"(%8, %9, %10) {fused_activation_function = "NONE", keep_num_dims = false, weights_format = "DEFAULT"} : (tensor<1x16xf32>, tensor<2x16xf32>, tensor<2xf32>) -> tensor<1x2xf32>
    %12 = "tfl.softmax"(%11) {beta = 1.000000e+00 : f32} : (tensor<1x2xf32>) -> tensor<1x2xf32>
    return %12 : tensor<1x2xf32>
  }
}